#w1_dot_trait = {
  indexing_maps = [
    affine_map<(m, n, k) -> (m, k)>,
    affine_map<(m, n, k) -> (k, n)>,
    affine_map<(m, n, k) -> (m, n)>
  ],
  iterator_types = ["parallel", "parallel", "reduction"],
  kind = #vector.kind<add>
}
module attributes {"stable_mosaic.version" = "1"} {
  func.func @main(
      %hidden: memref<8x3072xbf16>,
      %positions: memref<8xi32>,
      %kv_in: memref<33554432xi8>,
      %layer_offsets: memref<34xi32>,
      %expert_directory: memref<256x25xi32>,
      %w1_block_t: memref<3072x128xi8>,
      %w1_row_scales: memref<128xf32>,
      %hidden_out: memref<8x3072xbf16>,
      %kv_out: memref<33554432xi8>) attributes {
        dimension_semantics = [],
        scalar_prefetch = 0 : i64,
        scratch_operands = 0 : i64,
        rvllm.int8_probe = "w1_observable_unrolled_bk32x96"
      } {
    %c0 = arith.constant 0 : index
    %ck_1 = arith.constant 32 : index
    %ck_2 = arith.constant 64 : index
    %ck_3 = arith.constant 96 : index
    %ck_4 = arith.constant 128 : index
    %ck_5 = arith.constant 160 : index
    %ck_6 = arith.constant 192 : index
    %ck_7 = arith.constant 224 : index
    %ck_8 = arith.constant 256 : index
    %ck_9 = arith.constant 288 : index
    %ck_10 = arith.constant 320 : index
    %ck_11 = arith.constant 352 : index
    %ck_12 = arith.constant 384 : index
    %ck_13 = arith.constant 416 : index
    %ck_14 = arith.constant 448 : index
    %ck_15 = arith.constant 480 : index
    %ck_16 = arith.constant 512 : index
    %ck_17 = arith.constant 544 : index
    %ck_18 = arith.constant 576 : index
    %ck_19 = arith.constant 608 : index
    %ck_20 = arith.constant 640 : index
    %ck_21 = arith.constant 672 : index
    %ck_22 = arith.constant 704 : index
    %ck_23 = arith.constant 736 : index
    %ck_24 = arith.constant 768 : index
    %ck_25 = arith.constant 800 : index
    %ck_26 = arith.constant 832 : index
    %ck_27 = arith.constant 864 : index
    %ck_28 = arith.constant 896 : index
    %ck_29 = arith.constant 928 : index
    %ck_30 = arith.constant 960 : index
    %ck_31 = arith.constant 992 : index
    %ck_32 = arith.constant 1024 : index
    %ck_33 = arith.constant 1056 : index
    %ck_34 = arith.constant 1088 : index
    %ck_35 = arith.constant 1120 : index
    %ck_36 = arith.constant 1152 : index
    %ck_37 = arith.constant 1184 : index
    %ck_38 = arith.constant 1216 : index
    %ck_39 = arith.constant 1248 : index
    %ck_40 = arith.constant 1280 : index
    %ck_41 = arith.constant 1312 : index
    %ck_42 = arith.constant 1344 : index
    %ck_43 = arith.constant 1376 : index
    %ck_44 = arith.constant 1408 : index
    %ck_45 = arith.constant 1440 : index
    %ck_46 = arith.constant 1472 : index
    %ck_47 = arith.constant 1504 : index
    %ck_48 = arith.constant 1536 : index
    %ck_49 = arith.constant 1568 : index
    %ck_50 = arith.constant 1600 : index
    %ck_51 = arith.constant 1632 : index
    %ck_52 = arith.constant 1664 : index
    %ck_53 = arith.constant 1696 : index
    %ck_54 = arith.constant 1728 : index
    %ck_55 = arith.constant 1760 : index
    %ck_56 = arith.constant 1792 : index
    %ck_57 = arith.constant 1824 : index
    %ck_58 = arith.constant 1856 : index
    %ck_59 = arith.constant 1888 : index
    %ck_60 = arith.constant 1920 : index
    %ck_61 = arith.constant 1952 : index
    %ck_62 = arith.constant 1984 : index
    %ck_63 = arith.constant 2016 : index
    %ck_64 = arith.constant 2048 : index
    %ck_65 = arith.constant 2080 : index
    %ck_66 = arith.constant 2112 : index
    %ck_67 = arith.constant 2144 : index
    %ck_68 = arith.constant 2176 : index
    %ck_69 = arith.constant 2208 : index
    %ck_70 = arith.constant 2240 : index
    %ck_71 = arith.constant 2272 : index
    %ck_72 = arith.constant 2304 : index
    %ck_73 = arith.constant 2336 : index
    %ck_74 = arith.constant 2368 : index
    %ck_75 = arith.constant 2400 : index
    %ck_76 = arith.constant 2432 : index
    %ck_77 = arith.constant 2464 : index
    %ck_78 = arith.constant 2496 : index
    %ck_79 = arith.constant 2528 : index
    %ck_80 = arith.constant 2560 : index
    %ck_81 = arith.constant 2592 : index
    %ck_82 = arith.constant 2624 : index
    %ck_83 = arith.constant 2656 : index
    %ck_84 = arith.constant 2688 : index
    %ck_85 = arith.constant 2720 : index
    %ck_86 = arith.constant 2752 : index
    %ck_87 = arith.constant 2784 : index
    %ck_88 = arith.constant 2816 : index
    %ck_89 = arith.constant 2848 : index
    %ck_90 = arith.constant 2880 : index
    %ck_91 = arith.constant 2912 : index
    %ck_92 = arith.constant 2944 : index
    %ck_93 = arith.constant 2976 : index
    %ck_94 = arith.constant 3008 : index
    %ck_95 = arith.constant 3040 : index
    %scale_v = vector.load %w1_row_scales[%c0] : memref<128xf32>, vector<128xf32>
    %scale_2d = vector.shape_cast %scale_v : vector<128xf32> to vector<1x128xf32>
    %scale_b = vector.broadcast %scale_2d : vector<1x128xf32> to vector<32x128xf32>
    %acc_init = arith.constant dense<0.000000e+00> : vector<8x128xf32>
    %hidden_v = vector.load %hidden[%c0, %c0] : memref<8x3072xbf16>, vector<8x3072xbf16>
    vector.store %hidden_v, %hidden_out[%c0, %c0] : memref<8x3072xbf16>, vector<8x3072xbf16>
    %kv_v = vector.load %kv_in[%c0] : memref<33554432xi8>, vector<512xi8>
    vector.store %kv_v, %kv_out[%c0] : memref<33554432xi8>, vector<512xi8>
    %w_i8_0 = vector.load %w1_block_t[%c0, %c0] : memref<3072x128xi8>, vector<32x128xi8>
    %w_f32_0 = arith.sitofp %w_i8_0 : vector<32x128xi8> to vector<32x128xf32>
    %w_scaled_0 = arith.mulf %w_f32_0, %scale_b : vector<32x128xf32>
    %h_bf16_0 = vector.load %hidden[%c0, %c0] : memref<8x3072xbf16>, vector<8x32xbf16>
    %h_f32_0 = arith.extf %h_bf16_0 : vector<8x32xbf16> to vector<8x32xf32>
    %acc_0 = vector.contract #w1_dot_trait %h_f32_0, %w_scaled_0, %acc_init : vector<8x32xf32>, vector<32x128xf32> into vector<8x128xf32>
    %w_i8_1 = vector.load %w1_block_t[%ck_1, %c0] : memref<3072x128xi8>, vector<32x128xi8>
    %w_f32_1 = arith.sitofp %w_i8_1 : vector<32x128xi8> to vector<32x128xf32>
    %w_scaled_1 = arith.mulf %w_f32_1, %scale_b : vector<32x128xf32>
    %h_bf16_1 = vector.load %hidden[%c0, %ck_1] : memref<8x3072xbf16>, vector<8x32xbf16>
    %h_f32_1 = arith.extf %h_bf16_1 : vector<8x32xbf16> to vector<8x32xf32>
    %acc_1 = vector.contract #w1_dot_trait %h_f32_1, %w_scaled_1, %acc_0 : vector<8x32xf32>, vector<32x128xf32> into vector<8x128xf32>
    %w_i8_2 = vector.load %w1_block_t[%ck_2, %c0] : memref<3072x128xi8>, vector<32x128xi8>
    %w_f32_2 = arith.sitofp %w_i8_2 : vector<32x128xi8> to vector<32x128xf32>
    %w_scaled_2 = arith.mulf %w_f32_2, %scale_b : vector<32x128xf32>
    %h_bf16_2 = vector.load %hidden[%c0, %ck_2] : memref<8x3072xbf16>, vector<8x32xbf16>
    %h_f32_2 = arith.extf %h_bf16_2 : vector<8x32xbf16> to vector<8x32xf32>
    %acc_2 = vector.contract #w1_dot_trait %h_f32_2, %w_scaled_2, %acc_1 : vector<8x32xf32>, vector<32x128xf32> into vector<8x128xf32>
    %w_i8_3 = vector.load %w1_block_t[%ck_3, %c0] : memref<3072x128xi8>, vector<32x128xi8>
    %w_f32_3 = arith.sitofp %w_i8_3 : vector<32x128xi8> to vector<32x128xf32>
    %w_scaled_3 = arith.mulf %w_f32_3, %scale_b : vector<32x128xf32>
    %h_bf16_3 = vector.load %hidden[%c0, %ck_3] : memref<8x3072xbf16>, vector<8x32xbf16>
    %h_f32_3 = arith.extf %h_bf16_3 : vector<8x32xbf16> to vector<8x32xf32>
    %acc_3 = vector.contract #w1_dot_trait %h_f32_3, %w_scaled_3, %acc_2 : vector<8x32xf32>, vector<32x128xf32> into vector<8x128xf32>
    %w_i8_4 = vector.load %w1_block_t[%ck_4, %c0] : memref<3072x128xi8>, vector<32x128xi8>
    %w_f32_4 = arith.sitofp %w_i8_4 : vector<32x128xi8> to vector<32x128xf32>
    %w_scaled_4 = arith.mulf %w_f32_4, %scale_b : vector<32x128xf32>
    %h_bf16_4 = vector.load %hidden[%c0, %ck_4] : memref<8x3072xbf16>, vector<8x32xbf16>
    %h_f32_4 = arith.extf %h_bf16_4 : vector<8x32xbf16> to vector<8x32xf32>
    %acc_4 = vector.contract #w1_dot_trait %h_f32_4, %w_scaled_4, %acc_3 : vector<8x32xf32>, vector<32x128xf32> into vector<8x128xf32>
    %w_i8_5 = vector.load %w1_block_t[%ck_5, %c0] : memref<3072x128xi8>, vector<32x128xi8>
    %w_f32_5 = arith.sitofp %w_i8_5 : vector<32x128xi8> to vector<32x128xf32>
    %w_scaled_5 = arith.mulf %w_f32_5, %scale_b : vector<32x128xf32>
    %h_bf16_5 = vector.load %hidden[%c0, %ck_5] : memref<8x3072xbf16>, vector<8x32xbf16>
    %h_f32_5 = arith.extf %h_bf16_5 : vector<8x32xbf16> to vector<8x32xf32>
    %acc_5 = vector.contract #w1_dot_trait %h_f32_5, %w_scaled_5, %acc_4 : vector<8x32xf32>, vector<32x128xf32> into vector<8x128xf32>
    %w_i8_6 = vector.load %w1_block_t[%ck_6, %c0] : memref<3072x128xi8>, vector<32x128xi8>
    %w_f32_6 = arith.sitofp %w_i8_6 : vector<32x128xi8> to vector<32x128xf32>
    %w_scaled_6 = arith.mulf %w_f32_6, %scale_b : vector<32x128xf32>
    %h_bf16_6 = vector.load %hidden[%c0, %ck_6] : memref<8x3072xbf16>, vector<8x32xbf16>
    %h_f32_6 = arith.extf %h_bf16_6 : vector<8x32xbf16> to vector<8x32xf32>
    %acc_6 = vector.contract #w1_dot_trait %h_f32_6, %w_scaled_6, %acc_5 : vector<8x32xf32>, vector<32x128xf32> into vector<8x128xf32>
    %w_i8_7 = vector.load %w1_block_t[%ck_7, %c0] : memref<3072x128xi8>, vector<32x128xi8>
    %w_f32_7 = arith.sitofp %w_i8_7 : vector<32x128xi8> to vector<32x128xf32>
    %w_scaled_7 = arith.mulf %w_f32_7, %scale_b : vector<32x128xf32>
    %h_bf16_7 = vector.load %hidden[%c0, %ck_7] : memref<8x3072xbf16>, vector<8x32xbf16>
    %h_f32_7 = arith.extf %h_bf16_7 : vector<8x32xbf16> to vector<8x32xf32>
    %acc_7 = vector.contract #w1_dot_trait %h_f32_7, %w_scaled_7, %acc_6 : vector<8x32xf32>, vector<32x128xf32> into vector<8x128xf32>
    %w_i8_8 = vector.load %w1_block_t[%ck_8, %c0] : memref<3072x128xi8>, vector<32x128xi8>
    %w_f32_8 = arith.sitofp %w_i8_8 : vector<32x128xi8> to vector<32x128xf32>
    %w_scaled_8 = arith.mulf %w_f32_8, %scale_b : vector<32x128xf32>
    %h_bf16_8 = vector.load %hidden[%c0, %ck_8] : memref<8x3072xbf16>, vector<8x32xbf16>
    %h_f32_8 = arith.extf %h_bf16_8 : vector<8x32xbf16> to vector<8x32xf32>
    %acc_8 = vector.contract #w1_dot_trait %h_f32_8, %w_scaled_8, %acc_7 : vector<8x32xf32>, vector<32x128xf32> into vector<8x128xf32>
    %w_i8_9 = vector.load %w1_block_t[%ck_9, %c0] : memref<3072x128xi8>, vector<32x128xi8>
    %w_f32_9 = arith.sitofp %w_i8_9 : vector<32x128xi8> to vector<32x128xf32>
    %w_scaled_9 = arith.mulf %w_f32_9, %scale_b : vector<32x128xf32>
    %h_bf16_9 = vector.load %hidden[%c0, %ck_9] : memref<8x3072xbf16>, vector<8x32xbf16>
    %h_f32_9 = arith.extf %h_bf16_9 : vector<8x32xbf16> to vector<8x32xf32>
    %acc_9 = vector.contract #w1_dot_trait %h_f32_9, %w_scaled_9, %acc_8 : vector<8x32xf32>, vector<32x128xf32> into vector<8x128xf32>
    %w_i8_10 = vector.load %w1_block_t[%ck_10, %c0] : memref<3072x128xi8>, vector<32x128xi8>
    %w_f32_10 = arith.sitofp %w_i8_10 : vector<32x128xi8> to vector<32x128xf32>
    %w_scaled_10 = arith.mulf %w_f32_10, %scale_b : vector<32x128xf32>
    %h_bf16_10 = vector.load %hidden[%c0, %ck_10] : memref<8x3072xbf16>, vector<8x32xbf16>
    %h_f32_10 = arith.extf %h_bf16_10 : vector<8x32xbf16> to vector<8x32xf32>
    %acc_10 = vector.contract #w1_dot_trait %h_f32_10, %w_scaled_10, %acc_9 : vector<8x32xf32>, vector<32x128xf32> into vector<8x128xf32>
    %w_i8_11 = vector.load %w1_block_t[%ck_11, %c0] : memref<3072x128xi8>, vector<32x128xi8>
    %w_f32_11 = arith.sitofp %w_i8_11 : vector<32x128xi8> to vector<32x128xf32>
    %w_scaled_11 = arith.mulf %w_f32_11, %scale_b : vector<32x128xf32>
    %h_bf16_11 = vector.load %hidden[%c0, %ck_11] : memref<8x3072xbf16>, vector<8x32xbf16>
    %h_f32_11 = arith.extf %h_bf16_11 : vector<8x32xbf16> to vector<8x32xf32>
    %acc_11 = vector.contract #w1_dot_trait %h_f32_11, %w_scaled_11, %acc_10 : vector<8x32xf32>, vector<32x128xf32> into vector<8x128xf32>
    %w_i8_12 = vector.load %w1_block_t[%ck_12, %c0] : memref<3072x128xi8>, vector<32x128xi8>
    %w_f32_12 = arith.sitofp %w_i8_12 : vector<32x128xi8> to vector<32x128xf32>
    %w_scaled_12 = arith.mulf %w_f32_12, %scale_b : vector<32x128xf32>
    %h_bf16_12 = vector.load %hidden[%c0, %ck_12] : memref<8x3072xbf16>, vector<8x32xbf16>
    %h_f32_12 = arith.extf %h_bf16_12 : vector<8x32xbf16> to vector<8x32xf32>
    %acc_12 = vector.contract #w1_dot_trait %h_f32_12, %w_scaled_12, %acc_11 : vector<8x32xf32>, vector<32x128xf32> into vector<8x128xf32>
    %w_i8_13 = vector.load %w1_block_t[%ck_13, %c0] : memref<3072x128xi8>, vector<32x128xi8>
    %w_f32_13 = arith.sitofp %w_i8_13 : vector<32x128xi8> to vector<32x128xf32>
    %w_scaled_13 = arith.mulf %w_f32_13, %scale_b : vector<32x128xf32>
    %h_bf16_13 = vector.load %hidden[%c0, %ck_13] : memref<8x3072xbf16>, vector<8x32xbf16>
    %h_f32_13 = arith.extf %h_bf16_13 : vector<8x32xbf16> to vector<8x32xf32>
    %acc_13 = vector.contract #w1_dot_trait %h_f32_13, %w_scaled_13, %acc_12 : vector<8x32xf32>, vector<32x128xf32> into vector<8x128xf32>
    %w_i8_14 = vector.load %w1_block_t[%ck_14, %c0] : memref<3072x128xi8>, vector<32x128xi8>
    %w_f32_14 = arith.sitofp %w_i8_14 : vector<32x128xi8> to vector<32x128xf32>
    %w_scaled_14 = arith.mulf %w_f32_14, %scale_b : vector<32x128xf32>
    %h_bf16_14 = vector.load %hidden[%c0, %ck_14] : memref<8x3072xbf16>, vector<8x32xbf16>
    %h_f32_14 = arith.extf %h_bf16_14 : vector<8x32xbf16> to vector<8x32xf32>
    %acc_14 = vector.contract #w1_dot_trait %h_f32_14, %w_scaled_14, %acc_13 : vector<8x32xf32>, vector<32x128xf32> into vector<8x128xf32>
    %w_i8_15 = vector.load %w1_block_t[%ck_15, %c0] : memref<3072x128xi8>, vector<32x128xi8>
    %w_f32_15 = arith.sitofp %w_i8_15 : vector<32x128xi8> to vector<32x128xf32>
    %w_scaled_15 = arith.mulf %w_f32_15, %scale_b : vector<32x128xf32>
    %h_bf16_15 = vector.load %hidden[%c0, %ck_15] : memref<8x3072xbf16>, vector<8x32xbf16>
    %h_f32_15 = arith.extf %h_bf16_15 : vector<8x32xbf16> to vector<8x32xf32>
    %acc_15 = vector.contract #w1_dot_trait %h_f32_15, %w_scaled_15, %acc_14 : vector<8x32xf32>, vector<32x128xf32> into vector<8x128xf32>
    %w_i8_16 = vector.load %w1_block_t[%ck_16, %c0] : memref<3072x128xi8>, vector<32x128xi8>
    %w_f32_16 = arith.sitofp %w_i8_16 : vector<32x128xi8> to vector<32x128xf32>
    %w_scaled_16 = arith.mulf %w_f32_16, %scale_b : vector<32x128xf32>
    %h_bf16_16 = vector.load %hidden[%c0, %ck_16] : memref<8x3072xbf16>, vector<8x32xbf16>
    %h_f32_16 = arith.extf %h_bf16_16 : vector<8x32xbf16> to vector<8x32xf32>
    %acc_16 = vector.contract #w1_dot_trait %h_f32_16, %w_scaled_16, %acc_15 : vector<8x32xf32>, vector<32x128xf32> into vector<8x128xf32>
    %w_i8_17 = vector.load %w1_block_t[%ck_17, %c0] : memref<3072x128xi8>, vector<32x128xi8>
    %w_f32_17 = arith.sitofp %w_i8_17 : vector<32x128xi8> to vector<32x128xf32>
    %w_scaled_17 = arith.mulf %w_f32_17, %scale_b : vector<32x128xf32>
    %h_bf16_17 = vector.load %hidden[%c0, %ck_17] : memref<8x3072xbf16>, vector<8x32xbf16>
    %h_f32_17 = arith.extf %h_bf16_17 : vector<8x32xbf16> to vector<8x32xf32>
    %acc_17 = vector.contract #w1_dot_trait %h_f32_17, %w_scaled_17, %acc_16 : vector<8x32xf32>, vector<32x128xf32> into vector<8x128xf32>
    %w_i8_18 = vector.load %w1_block_t[%ck_18, %c0] : memref<3072x128xi8>, vector<32x128xi8>
    %w_f32_18 = arith.sitofp %w_i8_18 : vector<32x128xi8> to vector<32x128xf32>
    %w_scaled_18 = arith.mulf %w_f32_18, %scale_b : vector<32x128xf32>
    %h_bf16_18 = vector.load %hidden[%c0, %ck_18] : memref<8x3072xbf16>, vector<8x32xbf16>
    %h_f32_18 = arith.extf %h_bf16_18 : vector<8x32xbf16> to vector<8x32xf32>
    %acc_18 = vector.contract #w1_dot_trait %h_f32_18, %w_scaled_18, %acc_17 : vector<8x32xf32>, vector<32x128xf32> into vector<8x128xf32>
    %w_i8_19 = vector.load %w1_block_t[%ck_19, %c0] : memref<3072x128xi8>, vector<32x128xi8>
    %w_f32_19 = arith.sitofp %w_i8_19 : vector<32x128xi8> to vector<32x128xf32>
    %w_scaled_19 = arith.mulf %w_f32_19, %scale_b : vector<32x128xf32>
    %h_bf16_19 = vector.load %hidden[%c0, %ck_19] : memref<8x3072xbf16>, vector<8x32xbf16>
    %h_f32_19 = arith.extf %h_bf16_19 : vector<8x32xbf16> to vector<8x32xf32>
    %acc_19 = vector.contract #w1_dot_trait %h_f32_19, %w_scaled_19, %acc_18 : vector<8x32xf32>, vector<32x128xf32> into vector<8x128xf32>
    %w_i8_20 = vector.load %w1_block_t[%ck_20, %c0] : memref<3072x128xi8>, vector<32x128xi8>
    %w_f32_20 = arith.sitofp %w_i8_20 : vector<32x128xi8> to vector<32x128xf32>
    %w_scaled_20 = arith.mulf %w_f32_20, %scale_b : vector<32x128xf32>
    %h_bf16_20 = vector.load %hidden[%c0, %ck_20] : memref<8x3072xbf16>, vector<8x32xbf16>
    %h_f32_20 = arith.extf %h_bf16_20 : vector<8x32xbf16> to vector<8x32xf32>
    %acc_20 = vector.contract #w1_dot_trait %h_f32_20, %w_scaled_20, %acc_19 : vector<8x32xf32>, vector<32x128xf32> into vector<8x128xf32>
    %w_i8_21 = vector.load %w1_block_t[%ck_21, %c0] : memref<3072x128xi8>, vector<32x128xi8>
    %w_f32_21 = arith.sitofp %w_i8_21 : vector<32x128xi8> to vector<32x128xf32>
    %w_scaled_21 = arith.mulf %w_f32_21, %scale_b : vector<32x128xf32>
    %h_bf16_21 = vector.load %hidden[%c0, %ck_21] : memref<8x3072xbf16>, vector<8x32xbf16>
    %h_f32_21 = arith.extf %h_bf16_21 : vector<8x32xbf16> to vector<8x32xf32>
    %acc_21 = vector.contract #w1_dot_trait %h_f32_21, %w_scaled_21, %acc_20 : vector<8x32xf32>, vector<32x128xf32> into vector<8x128xf32>
    %w_i8_22 = vector.load %w1_block_t[%ck_22, %c0] : memref<3072x128xi8>, vector<32x128xi8>
    %w_f32_22 = arith.sitofp %w_i8_22 : vector<32x128xi8> to vector<32x128xf32>
    %w_scaled_22 = arith.mulf %w_f32_22, %scale_b : vector<32x128xf32>
    %h_bf16_22 = vector.load %hidden[%c0, %ck_22] : memref<8x3072xbf16>, vector<8x32xbf16>
    %h_f32_22 = arith.extf %h_bf16_22 : vector<8x32xbf16> to vector<8x32xf32>
    %acc_22 = vector.contract #w1_dot_trait %h_f32_22, %w_scaled_22, %acc_21 : vector<8x32xf32>, vector<32x128xf32> into vector<8x128xf32>
    %w_i8_23 = vector.load %w1_block_t[%ck_23, %c0] : memref<3072x128xi8>, vector<32x128xi8>
    %w_f32_23 = arith.sitofp %w_i8_23 : vector<32x128xi8> to vector<32x128xf32>
    %w_scaled_23 = arith.mulf %w_f32_23, %scale_b : vector<32x128xf32>
    %h_bf16_23 = vector.load %hidden[%c0, %ck_23] : memref<8x3072xbf16>, vector<8x32xbf16>
    %h_f32_23 = arith.extf %h_bf16_23 : vector<8x32xbf16> to vector<8x32xf32>
    %acc_23 = vector.contract #w1_dot_trait %h_f32_23, %w_scaled_23, %acc_22 : vector<8x32xf32>, vector<32x128xf32> into vector<8x128xf32>
    %w_i8_24 = vector.load %w1_block_t[%ck_24, %c0] : memref<3072x128xi8>, vector<32x128xi8>
    %w_f32_24 = arith.sitofp %w_i8_24 : vector<32x128xi8> to vector<32x128xf32>
    %w_scaled_24 = arith.mulf %w_f32_24, %scale_b : vector<32x128xf32>
    %h_bf16_24 = vector.load %hidden[%c0, %ck_24] : memref<8x3072xbf16>, vector<8x32xbf16>
    %h_f32_24 = arith.extf %h_bf16_24 : vector<8x32xbf16> to vector<8x32xf32>
    %acc_24 = vector.contract #w1_dot_trait %h_f32_24, %w_scaled_24, %acc_23 : vector<8x32xf32>, vector<32x128xf32> into vector<8x128xf32>
    %w_i8_25 = vector.load %w1_block_t[%ck_25, %c0] : memref<3072x128xi8>, vector<32x128xi8>
    %w_f32_25 = arith.sitofp %w_i8_25 : vector<32x128xi8> to vector<32x128xf32>
    %w_scaled_25 = arith.mulf %w_f32_25, %scale_b : vector<32x128xf32>
    %h_bf16_25 = vector.load %hidden[%c0, %ck_25] : memref<8x3072xbf16>, vector<8x32xbf16>
    %h_f32_25 = arith.extf %h_bf16_25 : vector<8x32xbf16> to vector<8x32xf32>
    %acc_25 = vector.contract #w1_dot_trait %h_f32_25, %w_scaled_25, %acc_24 : vector<8x32xf32>, vector<32x128xf32> into vector<8x128xf32>
    %w_i8_26 = vector.load %w1_block_t[%ck_26, %c0] : memref<3072x128xi8>, vector<32x128xi8>
    %w_f32_26 = arith.sitofp %w_i8_26 : vector<32x128xi8> to vector<32x128xf32>
    %w_scaled_26 = arith.mulf %w_f32_26, %scale_b : vector<32x128xf32>
    %h_bf16_26 = vector.load %hidden[%c0, %ck_26] : memref<8x3072xbf16>, vector<8x32xbf16>
    %h_f32_26 = arith.extf %h_bf16_26 : vector<8x32xbf16> to vector<8x32xf32>
    %acc_26 = vector.contract #w1_dot_trait %h_f32_26, %w_scaled_26, %acc_25 : vector<8x32xf32>, vector<32x128xf32> into vector<8x128xf32>
    %w_i8_27 = vector.load %w1_block_t[%ck_27, %c0] : memref<3072x128xi8>, vector<32x128xi8>
    %w_f32_27 = arith.sitofp %w_i8_27 : vector<32x128xi8> to vector<32x128xf32>
    %w_scaled_27 = arith.mulf %w_f32_27, %scale_b : vector<32x128xf32>
    %h_bf16_27 = vector.load %hidden[%c0, %ck_27] : memref<8x3072xbf16>, vector<8x32xbf16>
    %h_f32_27 = arith.extf %h_bf16_27 : vector<8x32xbf16> to vector<8x32xf32>
    %acc_27 = vector.contract #w1_dot_trait %h_f32_27, %w_scaled_27, %acc_26 : vector<8x32xf32>, vector<32x128xf32> into vector<8x128xf32>
    %w_i8_28 = vector.load %w1_block_t[%ck_28, %c0] : memref<3072x128xi8>, vector<32x128xi8>
    %w_f32_28 = arith.sitofp %w_i8_28 : vector<32x128xi8> to vector<32x128xf32>
    %w_scaled_28 = arith.mulf %w_f32_28, %scale_b : vector<32x128xf32>
    %h_bf16_28 = vector.load %hidden[%c0, %ck_28] : memref<8x3072xbf16>, vector<8x32xbf16>
    %h_f32_28 = arith.extf %h_bf16_28 : vector<8x32xbf16> to vector<8x32xf32>
    %acc_28 = vector.contract #w1_dot_trait %h_f32_28, %w_scaled_28, %acc_27 : vector<8x32xf32>, vector<32x128xf32> into vector<8x128xf32>
    %w_i8_29 = vector.load %w1_block_t[%ck_29, %c0] : memref<3072x128xi8>, vector<32x128xi8>
    %w_f32_29 = arith.sitofp %w_i8_29 : vector<32x128xi8> to vector<32x128xf32>
    %w_scaled_29 = arith.mulf %w_f32_29, %scale_b : vector<32x128xf32>
    %h_bf16_29 = vector.load %hidden[%c0, %ck_29] : memref<8x3072xbf16>, vector<8x32xbf16>
    %h_f32_29 = arith.extf %h_bf16_29 : vector<8x32xbf16> to vector<8x32xf32>
    %acc_29 = vector.contract #w1_dot_trait %h_f32_29, %w_scaled_29, %acc_28 : vector<8x32xf32>, vector<32x128xf32> into vector<8x128xf32>
    %w_i8_30 = vector.load %w1_block_t[%ck_30, %c0] : memref<3072x128xi8>, vector<32x128xi8>
    %w_f32_30 = arith.sitofp %w_i8_30 : vector<32x128xi8> to vector<32x128xf32>
    %w_scaled_30 = arith.mulf %w_f32_30, %scale_b : vector<32x128xf32>
    %h_bf16_30 = vector.load %hidden[%c0, %ck_30] : memref<8x3072xbf16>, vector<8x32xbf16>
    %h_f32_30 = arith.extf %h_bf16_30 : vector<8x32xbf16> to vector<8x32xf32>
    %acc_30 = vector.contract #w1_dot_trait %h_f32_30, %w_scaled_30, %acc_29 : vector<8x32xf32>, vector<32x128xf32> into vector<8x128xf32>
    %w_i8_31 = vector.load %w1_block_t[%ck_31, %c0] : memref<3072x128xi8>, vector<32x128xi8>
    %w_f32_31 = arith.sitofp %w_i8_31 : vector<32x128xi8> to vector<32x128xf32>
    %w_scaled_31 = arith.mulf %w_f32_31, %scale_b : vector<32x128xf32>
    %h_bf16_31 = vector.load %hidden[%c0, %ck_31] : memref<8x3072xbf16>, vector<8x32xbf16>
    %h_f32_31 = arith.extf %h_bf16_31 : vector<8x32xbf16> to vector<8x32xf32>
    %acc_31 = vector.contract #w1_dot_trait %h_f32_31, %w_scaled_31, %acc_30 : vector<8x32xf32>, vector<32x128xf32> into vector<8x128xf32>
    %w_i8_32 = vector.load %w1_block_t[%ck_32, %c0] : memref<3072x128xi8>, vector<32x128xi8>
    %w_f32_32 = arith.sitofp %w_i8_32 : vector<32x128xi8> to vector<32x128xf32>
    %w_scaled_32 = arith.mulf %w_f32_32, %scale_b : vector<32x128xf32>
    %h_bf16_32 = vector.load %hidden[%c0, %ck_32] : memref<8x3072xbf16>, vector<8x32xbf16>
    %h_f32_32 = arith.extf %h_bf16_32 : vector<8x32xbf16> to vector<8x32xf32>
    %acc_32 = vector.contract #w1_dot_trait %h_f32_32, %w_scaled_32, %acc_31 : vector<8x32xf32>, vector<32x128xf32> into vector<8x128xf32>
    %w_i8_33 = vector.load %w1_block_t[%ck_33, %c0] : memref<3072x128xi8>, vector<32x128xi8>
    %w_f32_33 = arith.sitofp %w_i8_33 : vector<32x128xi8> to vector<32x128xf32>
    %w_scaled_33 = arith.mulf %w_f32_33, %scale_b : vector<32x128xf32>
    %h_bf16_33 = vector.load %hidden[%c0, %ck_33] : memref<8x3072xbf16>, vector<8x32xbf16>
    %h_f32_33 = arith.extf %h_bf16_33 : vector<8x32xbf16> to vector<8x32xf32>
    %acc_33 = vector.contract #w1_dot_trait %h_f32_33, %w_scaled_33, %acc_32 : vector<8x32xf32>, vector<32x128xf32> into vector<8x128xf32>
    %w_i8_34 = vector.load %w1_block_t[%ck_34, %c0] : memref<3072x128xi8>, vector<32x128xi8>
    %w_f32_34 = arith.sitofp %w_i8_34 : vector<32x128xi8> to vector<32x128xf32>
    %w_scaled_34 = arith.mulf %w_f32_34, %scale_b : vector<32x128xf32>
    %h_bf16_34 = vector.load %hidden[%c0, %ck_34] : memref<8x3072xbf16>, vector<8x32xbf16>
    %h_f32_34 = arith.extf %h_bf16_34 : vector<8x32xbf16> to vector<8x32xf32>
    %acc_34 = vector.contract #w1_dot_trait %h_f32_34, %w_scaled_34, %acc_33 : vector<8x32xf32>, vector<32x128xf32> into vector<8x128xf32>
    %w_i8_35 = vector.load %w1_block_t[%ck_35, %c0] : memref<3072x128xi8>, vector<32x128xi8>
    %w_f32_35 = arith.sitofp %w_i8_35 : vector<32x128xi8> to vector<32x128xf32>
    %w_scaled_35 = arith.mulf %w_f32_35, %scale_b : vector<32x128xf32>
    %h_bf16_35 = vector.load %hidden[%c0, %ck_35] : memref<8x3072xbf16>, vector<8x32xbf16>
    %h_f32_35 = arith.extf %h_bf16_35 : vector<8x32xbf16> to vector<8x32xf32>
    %acc_35 = vector.contract #w1_dot_trait %h_f32_35, %w_scaled_35, %acc_34 : vector<8x32xf32>, vector<32x128xf32> into vector<8x128xf32>
    %w_i8_36 = vector.load %w1_block_t[%ck_36, %c0] : memref<3072x128xi8>, vector<32x128xi8>
    %w_f32_36 = arith.sitofp %w_i8_36 : vector<32x128xi8> to vector<32x128xf32>
    %w_scaled_36 = arith.mulf %w_f32_36, %scale_b : vector<32x128xf32>
    %h_bf16_36 = vector.load %hidden[%c0, %ck_36] : memref<8x3072xbf16>, vector<8x32xbf16>
    %h_f32_36 = arith.extf %h_bf16_36 : vector<8x32xbf16> to vector<8x32xf32>
    %acc_36 = vector.contract #w1_dot_trait %h_f32_36, %w_scaled_36, %acc_35 : vector<8x32xf32>, vector<32x128xf32> into vector<8x128xf32>
    %w_i8_37 = vector.load %w1_block_t[%ck_37, %c0] : memref<3072x128xi8>, vector<32x128xi8>
    %w_f32_37 = arith.sitofp %w_i8_37 : vector<32x128xi8> to vector<32x128xf32>
    %w_scaled_37 = arith.mulf %w_f32_37, %scale_b : vector<32x128xf32>
    %h_bf16_37 = vector.load %hidden[%c0, %ck_37] : memref<8x3072xbf16>, vector<8x32xbf16>
    %h_f32_37 = arith.extf %h_bf16_37 : vector<8x32xbf16> to vector<8x32xf32>
    %acc_37 = vector.contract #w1_dot_trait %h_f32_37, %w_scaled_37, %acc_36 : vector<8x32xf32>, vector<32x128xf32> into vector<8x128xf32>
    %w_i8_38 = vector.load %w1_block_t[%ck_38, %c0] : memref<3072x128xi8>, vector<32x128xi8>
    %w_f32_38 = arith.sitofp %w_i8_38 : vector<32x128xi8> to vector<32x128xf32>
    %w_scaled_38 = arith.mulf %w_f32_38, %scale_b : vector<32x128xf32>
    %h_bf16_38 = vector.load %hidden[%c0, %ck_38] : memref<8x3072xbf16>, vector<8x32xbf16>
    %h_f32_38 = arith.extf %h_bf16_38 : vector<8x32xbf16> to vector<8x32xf32>
    %acc_38 = vector.contract #w1_dot_trait %h_f32_38, %w_scaled_38, %acc_37 : vector<8x32xf32>, vector<32x128xf32> into vector<8x128xf32>
    %w_i8_39 = vector.load %w1_block_t[%ck_39, %c0] : memref<3072x128xi8>, vector<32x128xi8>
    %w_f32_39 = arith.sitofp %w_i8_39 : vector<32x128xi8> to vector<32x128xf32>
    %w_scaled_39 = arith.mulf %w_f32_39, %scale_b : vector<32x128xf32>
    %h_bf16_39 = vector.load %hidden[%c0, %ck_39] : memref<8x3072xbf16>, vector<8x32xbf16>
    %h_f32_39 = arith.extf %h_bf16_39 : vector<8x32xbf16> to vector<8x32xf32>
    %acc_39 = vector.contract #w1_dot_trait %h_f32_39, %w_scaled_39, %acc_38 : vector<8x32xf32>, vector<32x128xf32> into vector<8x128xf32>
    %w_i8_40 = vector.load %w1_block_t[%ck_40, %c0] : memref<3072x128xi8>, vector<32x128xi8>
    %w_f32_40 = arith.sitofp %w_i8_40 : vector<32x128xi8> to vector<32x128xf32>
    %w_scaled_40 = arith.mulf %w_f32_40, %scale_b : vector<32x128xf32>
    %h_bf16_40 = vector.load %hidden[%c0, %ck_40] : memref<8x3072xbf16>, vector<8x32xbf16>
    %h_f32_40 = arith.extf %h_bf16_40 : vector<8x32xbf16> to vector<8x32xf32>
    %acc_40 = vector.contract #w1_dot_trait %h_f32_40, %w_scaled_40, %acc_39 : vector<8x32xf32>, vector<32x128xf32> into vector<8x128xf32>
    %w_i8_41 = vector.load %w1_block_t[%ck_41, %c0] : memref<3072x128xi8>, vector<32x128xi8>
    %w_f32_41 = arith.sitofp %w_i8_41 : vector<32x128xi8> to vector<32x128xf32>
    %w_scaled_41 = arith.mulf %w_f32_41, %scale_b : vector<32x128xf32>
    %h_bf16_41 = vector.load %hidden[%c0, %ck_41] : memref<8x3072xbf16>, vector<8x32xbf16>
    %h_f32_41 = arith.extf %h_bf16_41 : vector<8x32xbf16> to vector<8x32xf32>
    %acc_41 = vector.contract #w1_dot_trait %h_f32_41, %w_scaled_41, %acc_40 : vector<8x32xf32>, vector<32x128xf32> into vector<8x128xf32>
    %w_i8_42 = vector.load %w1_block_t[%ck_42, %c0] : memref<3072x128xi8>, vector<32x128xi8>
    %w_f32_42 = arith.sitofp %w_i8_42 : vector<32x128xi8> to vector<32x128xf32>
    %w_scaled_42 = arith.mulf %w_f32_42, %scale_b : vector<32x128xf32>
    %h_bf16_42 = vector.load %hidden[%c0, %ck_42] : memref<8x3072xbf16>, vector<8x32xbf16>
    %h_f32_42 = arith.extf %h_bf16_42 : vector<8x32xbf16> to vector<8x32xf32>
    %acc_42 = vector.contract #w1_dot_trait %h_f32_42, %w_scaled_42, %acc_41 : vector<8x32xf32>, vector<32x128xf32> into vector<8x128xf32>
    %w_i8_43 = vector.load %w1_block_t[%ck_43, %c0] : memref<3072x128xi8>, vector<32x128xi8>
    %w_f32_43 = arith.sitofp %w_i8_43 : vector<32x128xi8> to vector<32x128xf32>
    %w_scaled_43 = arith.mulf %w_f32_43, %scale_b : vector<32x128xf32>
    %h_bf16_43 = vector.load %hidden[%c0, %ck_43] : memref<8x3072xbf16>, vector<8x32xbf16>
    %h_f32_43 = arith.extf %h_bf16_43 : vector<8x32xbf16> to vector<8x32xf32>
    %acc_43 = vector.contract #w1_dot_trait %h_f32_43, %w_scaled_43, %acc_42 : vector<8x32xf32>, vector<32x128xf32> into vector<8x128xf32>
    %w_i8_44 = vector.load %w1_block_t[%ck_44, %c0] : memref<3072x128xi8>, vector<32x128xi8>
    %w_f32_44 = arith.sitofp %w_i8_44 : vector<32x128xi8> to vector<32x128xf32>
    %w_scaled_44 = arith.mulf %w_f32_44, %scale_b : vector<32x128xf32>
    %h_bf16_44 = vector.load %hidden[%c0, %ck_44] : memref<8x3072xbf16>, vector<8x32xbf16>
    %h_f32_44 = arith.extf %h_bf16_44 : vector<8x32xbf16> to vector<8x32xf32>
    %acc_44 = vector.contract #w1_dot_trait %h_f32_44, %w_scaled_44, %acc_43 : vector<8x32xf32>, vector<32x128xf32> into vector<8x128xf32>
    %w_i8_45 = vector.load %w1_block_t[%ck_45, %c0] : memref<3072x128xi8>, vector<32x128xi8>
    %w_f32_45 = arith.sitofp %w_i8_45 : vector<32x128xi8> to vector<32x128xf32>
    %w_scaled_45 = arith.mulf %w_f32_45, %scale_b : vector<32x128xf32>
    %h_bf16_45 = vector.load %hidden[%c0, %ck_45] : memref<8x3072xbf16>, vector<8x32xbf16>
    %h_f32_45 = arith.extf %h_bf16_45 : vector<8x32xbf16> to vector<8x32xf32>
    %acc_45 = vector.contract #w1_dot_trait %h_f32_45, %w_scaled_45, %acc_44 : vector<8x32xf32>, vector<32x128xf32> into vector<8x128xf32>
    %w_i8_46 = vector.load %w1_block_t[%ck_46, %c0] : memref<3072x128xi8>, vector<32x128xi8>
    %w_f32_46 = arith.sitofp %w_i8_46 : vector<32x128xi8> to vector<32x128xf32>
    %w_scaled_46 = arith.mulf %w_f32_46, %scale_b : vector<32x128xf32>
    %h_bf16_46 = vector.load %hidden[%c0, %ck_46] : memref<8x3072xbf16>, vector<8x32xbf16>
    %h_f32_46 = arith.extf %h_bf16_46 : vector<8x32xbf16> to vector<8x32xf32>
    %acc_46 = vector.contract #w1_dot_trait %h_f32_46, %w_scaled_46, %acc_45 : vector<8x32xf32>, vector<32x128xf32> into vector<8x128xf32>
    %w_i8_47 = vector.load %w1_block_t[%ck_47, %c0] : memref<3072x128xi8>, vector<32x128xi8>
    %w_f32_47 = arith.sitofp %w_i8_47 : vector<32x128xi8> to vector<32x128xf32>
    %w_scaled_47 = arith.mulf %w_f32_47, %scale_b : vector<32x128xf32>
    %h_bf16_47 = vector.load %hidden[%c0, %ck_47] : memref<8x3072xbf16>, vector<8x32xbf16>
    %h_f32_47 = arith.extf %h_bf16_47 : vector<8x32xbf16> to vector<8x32xf32>
    %acc_47 = vector.contract #w1_dot_trait %h_f32_47, %w_scaled_47, %acc_46 : vector<8x32xf32>, vector<32x128xf32> into vector<8x128xf32>
    %w_i8_48 = vector.load %w1_block_t[%ck_48, %c0] : memref<3072x128xi8>, vector<32x128xi8>
    %w_f32_48 = arith.sitofp %w_i8_48 : vector<32x128xi8> to vector<32x128xf32>
    %w_scaled_48 = arith.mulf %w_f32_48, %scale_b : vector<32x128xf32>
    %h_bf16_48 = vector.load %hidden[%c0, %ck_48] : memref<8x3072xbf16>, vector<8x32xbf16>
    %h_f32_48 = arith.extf %h_bf16_48 : vector<8x32xbf16> to vector<8x32xf32>
    %acc_48 = vector.contract #w1_dot_trait %h_f32_48, %w_scaled_48, %acc_47 : vector<8x32xf32>, vector<32x128xf32> into vector<8x128xf32>
    %w_i8_49 = vector.load %w1_block_t[%ck_49, %c0] : memref<3072x128xi8>, vector<32x128xi8>
    %w_f32_49 = arith.sitofp %w_i8_49 : vector<32x128xi8> to vector<32x128xf32>
    %w_scaled_49 = arith.mulf %w_f32_49, %scale_b : vector<32x128xf32>
    %h_bf16_49 = vector.load %hidden[%c0, %ck_49] : memref<8x3072xbf16>, vector<8x32xbf16>
    %h_f32_49 = arith.extf %h_bf16_49 : vector<8x32xbf16> to vector<8x32xf32>
    %acc_49 = vector.contract #w1_dot_trait %h_f32_49, %w_scaled_49, %acc_48 : vector<8x32xf32>, vector<32x128xf32> into vector<8x128xf32>
    %w_i8_50 = vector.load %w1_block_t[%ck_50, %c0] : memref<3072x128xi8>, vector<32x128xi8>
    %w_f32_50 = arith.sitofp %w_i8_50 : vector<32x128xi8> to vector<32x128xf32>
    %w_scaled_50 = arith.mulf %w_f32_50, %scale_b : vector<32x128xf32>
    %h_bf16_50 = vector.load %hidden[%c0, %ck_50] : memref<8x3072xbf16>, vector<8x32xbf16>
    %h_f32_50 = arith.extf %h_bf16_50 : vector<8x32xbf16> to vector<8x32xf32>
    %acc_50 = vector.contract #w1_dot_trait %h_f32_50, %w_scaled_50, %acc_49 : vector<8x32xf32>, vector<32x128xf32> into vector<8x128xf32>
    %w_i8_51 = vector.load %w1_block_t[%ck_51, %c0] : memref<3072x128xi8>, vector<32x128xi8>
    %w_f32_51 = arith.sitofp %w_i8_51 : vector<32x128xi8> to vector<32x128xf32>
    %w_scaled_51 = arith.mulf %w_f32_51, %scale_b : vector<32x128xf32>
    %h_bf16_51 = vector.load %hidden[%c0, %ck_51] : memref<8x3072xbf16>, vector<8x32xbf16>
    %h_f32_51 = arith.extf %h_bf16_51 : vector<8x32xbf16> to vector<8x32xf32>
    %acc_51 = vector.contract #w1_dot_trait %h_f32_51, %w_scaled_51, %acc_50 : vector<8x32xf32>, vector<32x128xf32> into vector<8x128xf32>
    %w_i8_52 = vector.load %w1_block_t[%ck_52, %c0] : memref<3072x128xi8>, vector<32x128xi8>
    %w_f32_52 = arith.sitofp %w_i8_52 : vector<32x128xi8> to vector<32x128xf32>
    %w_scaled_52 = arith.mulf %w_f32_52, %scale_b : vector<32x128xf32>
    %h_bf16_52 = vector.load %hidden[%c0, %ck_52] : memref<8x3072xbf16>, vector<8x32xbf16>
    %h_f32_52 = arith.extf %h_bf16_52 : vector<8x32xbf16> to vector<8x32xf32>
    %acc_52 = vector.contract #w1_dot_trait %h_f32_52, %w_scaled_52, %acc_51 : vector<8x32xf32>, vector<32x128xf32> into vector<8x128xf32>
    %w_i8_53 = vector.load %w1_block_t[%ck_53, %c0] : memref<3072x128xi8>, vector<32x128xi8>
    %w_f32_53 = arith.sitofp %w_i8_53 : vector<32x128xi8> to vector<32x128xf32>
    %w_scaled_53 = arith.mulf %w_f32_53, %scale_b : vector<32x128xf32>
    %h_bf16_53 = vector.load %hidden[%c0, %ck_53] : memref<8x3072xbf16>, vector<8x32xbf16>
    %h_f32_53 = arith.extf %h_bf16_53 : vector<8x32xbf16> to vector<8x32xf32>
    %acc_53 = vector.contract #w1_dot_trait %h_f32_53, %w_scaled_53, %acc_52 : vector<8x32xf32>, vector<32x128xf32> into vector<8x128xf32>
    %w_i8_54 = vector.load %w1_block_t[%ck_54, %c0] : memref<3072x128xi8>, vector<32x128xi8>
    %w_f32_54 = arith.sitofp %w_i8_54 : vector<32x128xi8> to vector<32x128xf32>
    %w_scaled_54 = arith.mulf %w_f32_54, %scale_b : vector<32x128xf32>
    %h_bf16_54 = vector.load %hidden[%c0, %ck_54] : memref<8x3072xbf16>, vector<8x32xbf16>
    %h_f32_54 = arith.extf %h_bf16_54 : vector<8x32xbf16> to vector<8x32xf32>
    %acc_54 = vector.contract #w1_dot_trait %h_f32_54, %w_scaled_54, %acc_53 : vector<8x32xf32>, vector<32x128xf32> into vector<8x128xf32>
    %w_i8_55 = vector.load %w1_block_t[%ck_55, %c0] : memref<3072x128xi8>, vector<32x128xi8>
    %w_f32_55 = arith.sitofp %w_i8_55 : vector<32x128xi8> to vector<32x128xf32>
    %w_scaled_55 = arith.mulf %w_f32_55, %scale_b : vector<32x128xf32>
    %h_bf16_55 = vector.load %hidden[%c0, %ck_55] : memref<8x3072xbf16>, vector<8x32xbf16>
    %h_f32_55 = arith.extf %h_bf16_55 : vector<8x32xbf16> to vector<8x32xf32>
    %acc_55 = vector.contract #w1_dot_trait %h_f32_55, %w_scaled_55, %acc_54 : vector<8x32xf32>, vector<32x128xf32> into vector<8x128xf32>
    %w_i8_56 = vector.load %w1_block_t[%ck_56, %c0] : memref<3072x128xi8>, vector<32x128xi8>
    %w_f32_56 = arith.sitofp %w_i8_56 : vector<32x128xi8> to vector<32x128xf32>
    %w_scaled_56 = arith.mulf %w_f32_56, %scale_b : vector<32x128xf32>
    %h_bf16_56 = vector.load %hidden[%c0, %ck_56] : memref<8x3072xbf16>, vector<8x32xbf16>
    %h_f32_56 = arith.extf %h_bf16_56 : vector<8x32xbf16> to vector<8x32xf32>
    %acc_56 = vector.contract #w1_dot_trait %h_f32_56, %w_scaled_56, %acc_55 : vector<8x32xf32>, vector<32x128xf32> into vector<8x128xf32>
    %w_i8_57 = vector.load %w1_block_t[%ck_57, %c0] : memref<3072x128xi8>, vector<32x128xi8>
    %w_f32_57 = arith.sitofp %w_i8_57 : vector<32x128xi8> to vector<32x128xf32>
    %w_scaled_57 = arith.mulf %w_f32_57, %scale_b : vector<32x128xf32>
    %h_bf16_57 = vector.load %hidden[%c0, %ck_57] : memref<8x3072xbf16>, vector<8x32xbf16>
    %h_f32_57 = arith.extf %h_bf16_57 : vector<8x32xbf16> to vector<8x32xf32>
    %acc_57 = vector.contract #w1_dot_trait %h_f32_57, %w_scaled_57, %acc_56 : vector<8x32xf32>, vector<32x128xf32> into vector<8x128xf32>
    %w_i8_58 = vector.load %w1_block_t[%ck_58, %c0] : memref<3072x128xi8>, vector<32x128xi8>
    %w_f32_58 = arith.sitofp %w_i8_58 : vector<32x128xi8> to vector<32x128xf32>
    %w_scaled_58 = arith.mulf %w_f32_58, %scale_b : vector<32x128xf32>
    %h_bf16_58 = vector.load %hidden[%c0, %ck_58] : memref<8x3072xbf16>, vector<8x32xbf16>
    %h_f32_58 = arith.extf %h_bf16_58 : vector<8x32xbf16> to vector<8x32xf32>
    %acc_58 = vector.contract #w1_dot_trait %h_f32_58, %w_scaled_58, %acc_57 : vector<8x32xf32>, vector<32x128xf32> into vector<8x128xf32>
    %w_i8_59 = vector.load %w1_block_t[%ck_59, %c0] : memref<3072x128xi8>, vector<32x128xi8>
    %w_f32_59 = arith.sitofp %w_i8_59 : vector<32x128xi8> to vector<32x128xf32>
    %w_scaled_59 = arith.mulf %w_f32_59, %scale_b : vector<32x128xf32>
    %h_bf16_59 = vector.load %hidden[%c0, %ck_59] : memref<8x3072xbf16>, vector<8x32xbf16>
    %h_f32_59 = arith.extf %h_bf16_59 : vector<8x32xbf16> to vector<8x32xf32>
    %acc_59 = vector.contract #w1_dot_trait %h_f32_59, %w_scaled_59, %acc_58 : vector<8x32xf32>, vector<32x128xf32> into vector<8x128xf32>
    %w_i8_60 = vector.load %w1_block_t[%ck_60, %c0] : memref<3072x128xi8>, vector<32x128xi8>
    %w_f32_60 = arith.sitofp %w_i8_60 : vector<32x128xi8> to vector<32x128xf32>
    %w_scaled_60 = arith.mulf %w_f32_60, %scale_b : vector<32x128xf32>
    %h_bf16_60 = vector.load %hidden[%c0, %ck_60] : memref<8x3072xbf16>, vector<8x32xbf16>
    %h_f32_60 = arith.extf %h_bf16_60 : vector<8x32xbf16> to vector<8x32xf32>
    %acc_60 = vector.contract #w1_dot_trait %h_f32_60, %w_scaled_60, %acc_59 : vector<8x32xf32>, vector<32x128xf32> into vector<8x128xf32>
    %w_i8_61 = vector.load %w1_block_t[%ck_61, %c0] : memref<3072x128xi8>, vector<32x128xi8>
    %w_f32_61 = arith.sitofp %w_i8_61 : vector<32x128xi8> to vector<32x128xf32>
    %w_scaled_61 = arith.mulf %w_f32_61, %scale_b : vector<32x128xf32>
    %h_bf16_61 = vector.load %hidden[%c0, %ck_61] : memref<8x3072xbf16>, vector<8x32xbf16>
    %h_f32_61 = arith.extf %h_bf16_61 : vector<8x32xbf16> to vector<8x32xf32>
    %acc_61 = vector.contract #w1_dot_trait %h_f32_61, %w_scaled_61, %acc_60 : vector<8x32xf32>, vector<32x128xf32> into vector<8x128xf32>
    %w_i8_62 = vector.load %w1_block_t[%ck_62, %c0] : memref<3072x128xi8>, vector<32x128xi8>
    %w_f32_62 = arith.sitofp %w_i8_62 : vector<32x128xi8> to vector<32x128xf32>
    %w_scaled_62 = arith.mulf %w_f32_62, %scale_b : vector<32x128xf32>
    %h_bf16_62 = vector.load %hidden[%c0, %ck_62] : memref<8x3072xbf16>, vector<8x32xbf16>
    %h_f32_62 = arith.extf %h_bf16_62 : vector<8x32xbf16> to vector<8x32xf32>
    %acc_62 = vector.contract #w1_dot_trait %h_f32_62, %w_scaled_62, %acc_61 : vector<8x32xf32>, vector<32x128xf32> into vector<8x128xf32>
    %w_i8_63 = vector.load %w1_block_t[%ck_63, %c0] : memref<3072x128xi8>, vector<32x128xi8>
    %w_f32_63 = arith.sitofp %w_i8_63 : vector<32x128xi8> to vector<32x128xf32>
    %w_scaled_63 = arith.mulf %w_f32_63, %scale_b : vector<32x128xf32>
    %h_bf16_63 = vector.load %hidden[%c0, %ck_63] : memref<8x3072xbf16>, vector<8x32xbf16>
    %h_f32_63 = arith.extf %h_bf16_63 : vector<8x32xbf16> to vector<8x32xf32>
    %acc_63 = vector.contract #w1_dot_trait %h_f32_63, %w_scaled_63, %acc_62 : vector<8x32xf32>, vector<32x128xf32> into vector<8x128xf32>
    %w_i8_64 = vector.load %w1_block_t[%ck_64, %c0] : memref<3072x128xi8>, vector<32x128xi8>
    %w_f32_64 = arith.sitofp %w_i8_64 : vector<32x128xi8> to vector<32x128xf32>
    %w_scaled_64 = arith.mulf %w_f32_64, %scale_b : vector<32x128xf32>
    %h_bf16_64 = vector.load %hidden[%c0, %ck_64] : memref<8x3072xbf16>, vector<8x32xbf16>
    %h_f32_64 = arith.extf %h_bf16_64 : vector<8x32xbf16> to vector<8x32xf32>
    %acc_64 = vector.contract #w1_dot_trait %h_f32_64, %w_scaled_64, %acc_63 : vector<8x32xf32>, vector<32x128xf32> into vector<8x128xf32>
    %w_i8_65 = vector.load %w1_block_t[%ck_65, %c0] : memref<3072x128xi8>, vector<32x128xi8>
    %w_f32_65 = arith.sitofp %w_i8_65 : vector<32x128xi8> to vector<32x128xf32>
    %w_scaled_65 = arith.mulf %w_f32_65, %scale_b : vector<32x128xf32>
    %h_bf16_65 = vector.load %hidden[%c0, %ck_65] : memref<8x3072xbf16>, vector<8x32xbf16>
    %h_f32_65 = arith.extf %h_bf16_65 : vector<8x32xbf16> to vector<8x32xf32>
    %acc_65 = vector.contract #w1_dot_trait %h_f32_65, %w_scaled_65, %acc_64 : vector<8x32xf32>, vector<32x128xf32> into vector<8x128xf32>
    %w_i8_66 = vector.load %w1_block_t[%ck_66, %c0] : memref<3072x128xi8>, vector<32x128xi8>
    %w_f32_66 = arith.sitofp %w_i8_66 : vector<32x128xi8> to vector<32x128xf32>
    %w_scaled_66 = arith.mulf %w_f32_66, %scale_b : vector<32x128xf32>
    %h_bf16_66 = vector.load %hidden[%c0, %ck_66] : memref<8x3072xbf16>, vector<8x32xbf16>
    %h_f32_66 = arith.extf %h_bf16_66 : vector<8x32xbf16> to vector<8x32xf32>
    %acc_66 = vector.contract #w1_dot_trait %h_f32_66, %w_scaled_66, %acc_65 : vector<8x32xf32>, vector<32x128xf32> into vector<8x128xf32>
    %w_i8_67 = vector.load %w1_block_t[%ck_67, %c0] : memref<3072x128xi8>, vector<32x128xi8>
    %w_f32_67 = arith.sitofp %w_i8_67 : vector<32x128xi8> to vector<32x128xf32>
    %w_scaled_67 = arith.mulf %w_f32_67, %scale_b : vector<32x128xf32>
    %h_bf16_67 = vector.load %hidden[%c0, %ck_67] : memref<8x3072xbf16>, vector<8x32xbf16>
    %h_f32_67 = arith.extf %h_bf16_67 : vector<8x32xbf16> to vector<8x32xf32>
    %acc_67 = vector.contract #w1_dot_trait %h_f32_67, %w_scaled_67, %acc_66 : vector<8x32xf32>, vector<32x128xf32> into vector<8x128xf32>
    %w_i8_68 = vector.load %w1_block_t[%ck_68, %c0] : memref<3072x128xi8>, vector<32x128xi8>
    %w_f32_68 = arith.sitofp %w_i8_68 : vector<32x128xi8> to vector<32x128xf32>
    %w_scaled_68 = arith.mulf %w_f32_68, %scale_b : vector<32x128xf32>
    %h_bf16_68 = vector.load %hidden[%c0, %ck_68] : memref<8x3072xbf16>, vector<8x32xbf16>
    %h_f32_68 = arith.extf %h_bf16_68 : vector<8x32xbf16> to vector<8x32xf32>
    %acc_68 = vector.contract #w1_dot_trait %h_f32_68, %w_scaled_68, %acc_67 : vector<8x32xf32>, vector<32x128xf32> into vector<8x128xf32>
    %w_i8_69 = vector.load %w1_block_t[%ck_69, %c0] : memref<3072x128xi8>, vector<32x128xi8>
    %w_f32_69 = arith.sitofp %w_i8_69 : vector<32x128xi8> to vector<32x128xf32>
    %w_scaled_69 = arith.mulf %w_f32_69, %scale_b : vector<32x128xf32>
    %h_bf16_69 = vector.load %hidden[%c0, %ck_69] : memref<8x3072xbf16>, vector<8x32xbf16>
    %h_f32_69 = arith.extf %h_bf16_69 : vector<8x32xbf16> to vector<8x32xf32>
    %acc_69 = vector.contract #w1_dot_trait %h_f32_69, %w_scaled_69, %acc_68 : vector<8x32xf32>, vector<32x128xf32> into vector<8x128xf32>
    %w_i8_70 = vector.load %w1_block_t[%ck_70, %c0] : memref<3072x128xi8>, vector<32x128xi8>
    %w_f32_70 = arith.sitofp %w_i8_70 : vector<32x128xi8> to vector<32x128xf32>
    %w_scaled_70 = arith.mulf %w_f32_70, %scale_b : vector<32x128xf32>
    %h_bf16_70 = vector.load %hidden[%c0, %ck_70] : memref<8x3072xbf16>, vector<8x32xbf16>
    %h_f32_70 = arith.extf %h_bf16_70 : vector<8x32xbf16> to vector<8x32xf32>
    %acc_70 = vector.contract #w1_dot_trait %h_f32_70, %w_scaled_70, %acc_69 : vector<8x32xf32>, vector<32x128xf32> into vector<8x128xf32>
    %w_i8_71 = vector.load %w1_block_t[%ck_71, %c0] : memref<3072x128xi8>, vector<32x128xi8>
    %w_f32_71 = arith.sitofp %w_i8_71 : vector<32x128xi8> to vector<32x128xf32>
    %w_scaled_71 = arith.mulf %w_f32_71, %scale_b : vector<32x128xf32>
    %h_bf16_71 = vector.load %hidden[%c0, %ck_71] : memref<8x3072xbf16>, vector<8x32xbf16>
    %h_f32_71 = arith.extf %h_bf16_71 : vector<8x32xbf16> to vector<8x32xf32>
    %acc_71 = vector.contract #w1_dot_trait %h_f32_71, %w_scaled_71, %acc_70 : vector<8x32xf32>, vector<32x128xf32> into vector<8x128xf32>
    %w_i8_72 = vector.load %w1_block_t[%ck_72, %c0] : memref<3072x128xi8>, vector<32x128xi8>
    %w_f32_72 = arith.sitofp %w_i8_72 : vector<32x128xi8> to vector<32x128xf32>
    %w_scaled_72 = arith.mulf %w_f32_72, %scale_b : vector<32x128xf32>
    %h_bf16_72 = vector.load %hidden[%c0, %ck_72] : memref<8x3072xbf16>, vector<8x32xbf16>
    %h_f32_72 = arith.extf %h_bf16_72 : vector<8x32xbf16> to vector<8x32xf32>
    %acc_72 = vector.contract #w1_dot_trait %h_f32_72, %w_scaled_72, %acc_71 : vector<8x32xf32>, vector<32x128xf32> into vector<8x128xf32>
    %w_i8_73 = vector.load %w1_block_t[%ck_73, %c0] : memref<3072x128xi8>, vector<32x128xi8>
    %w_f32_73 = arith.sitofp %w_i8_73 : vector<32x128xi8> to vector<32x128xf32>
    %w_scaled_73 = arith.mulf %w_f32_73, %scale_b : vector<32x128xf32>
    %h_bf16_73 = vector.load %hidden[%c0, %ck_73] : memref<8x3072xbf16>, vector<8x32xbf16>
    %h_f32_73 = arith.extf %h_bf16_73 : vector<8x32xbf16> to vector<8x32xf32>
    %acc_73 = vector.contract #w1_dot_trait %h_f32_73, %w_scaled_73, %acc_72 : vector<8x32xf32>, vector<32x128xf32> into vector<8x128xf32>
    %w_i8_74 = vector.load %w1_block_t[%ck_74, %c0] : memref<3072x128xi8>, vector<32x128xi8>
    %w_f32_74 = arith.sitofp %w_i8_74 : vector<32x128xi8> to vector<32x128xf32>
    %w_scaled_74 = arith.mulf %w_f32_74, %scale_b : vector<32x128xf32>
    %h_bf16_74 = vector.load %hidden[%c0, %ck_74] : memref<8x3072xbf16>, vector<8x32xbf16>
    %h_f32_74 = arith.extf %h_bf16_74 : vector<8x32xbf16> to vector<8x32xf32>
    %acc_74 = vector.contract #w1_dot_trait %h_f32_74, %w_scaled_74, %acc_73 : vector<8x32xf32>, vector<32x128xf32> into vector<8x128xf32>
    %w_i8_75 = vector.load %w1_block_t[%ck_75, %c0] : memref<3072x128xi8>, vector<32x128xi8>
    %w_f32_75 = arith.sitofp %w_i8_75 : vector<32x128xi8> to vector<32x128xf32>
    %w_scaled_75 = arith.mulf %w_f32_75, %scale_b : vector<32x128xf32>
    %h_bf16_75 = vector.load %hidden[%c0, %ck_75] : memref<8x3072xbf16>, vector<8x32xbf16>
    %h_f32_75 = arith.extf %h_bf16_75 : vector<8x32xbf16> to vector<8x32xf32>
    %acc_75 = vector.contract #w1_dot_trait %h_f32_75, %w_scaled_75, %acc_74 : vector<8x32xf32>, vector<32x128xf32> into vector<8x128xf32>
    %w_i8_76 = vector.load %w1_block_t[%ck_76, %c0] : memref<3072x128xi8>, vector<32x128xi8>
    %w_f32_76 = arith.sitofp %w_i8_76 : vector<32x128xi8> to vector<32x128xf32>
    %w_scaled_76 = arith.mulf %w_f32_76, %scale_b : vector<32x128xf32>
    %h_bf16_76 = vector.load %hidden[%c0, %ck_76] : memref<8x3072xbf16>, vector<8x32xbf16>
    %h_f32_76 = arith.extf %h_bf16_76 : vector<8x32xbf16> to vector<8x32xf32>
    %acc_76 = vector.contract #w1_dot_trait %h_f32_76, %w_scaled_76, %acc_75 : vector<8x32xf32>, vector<32x128xf32> into vector<8x128xf32>
    %w_i8_77 = vector.load %w1_block_t[%ck_77, %c0] : memref<3072x128xi8>, vector<32x128xi8>
    %w_f32_77 = arith.sitofp %w_i8_77 : vector<32x128xi8> to vector<32x128xf32>
    %w_scaled_77 = arith.mulf %w_f32_77, %scale_b : vector<32x128xf32>
    %h_bf16_77 = vector.load %hidden[%c0, %ck_77] : memref<8x3072xbf16>, vector<8x32xbf16>
    %h_f32_77 = arith.extf %h_bf16_77 : vector<8x32xbf16> to vector<8x32xf32>
    %acc_77 = vector.contract #w1_dot_trait %h_f32_77, %w_scaled_77, %acc_76 : vector<8x32xf32>, vector<32x128xf32> into vector<8x128xf32>
    %w_i8_78 = vector.load %w1_block_t[%ck_78, %c0] : memref<3072x128xi8>, vector<32x128xi8>
    %w_f32_78 = arith.sitofp %w_i8_78 : vector<32x128xi8> to vector<32x128xf32>
    %w_scaled_78 = arith.mulf %w_f32_78, %scale_b : vector<32x128xf32>
    %h_bf16_78 = vector.load %hidden[%c0, %ck_78] : memref<8x3072xbf16>, vector<8x32xbf16>
    %h_f32_78 = arith.extf %h_bf16_78 : vector<8x32xbf16> to vector<8x32xf32>
    %acc_78 = vector.contract #w1_dot_trait %h_f32_78, %w_scaled_78, %acc_77 : vector<8x32xf32>, vector<32x128xf32> into vector<8x128xf32>
    %w_i8_79 = vector.load %w1_block_t[%ck_79, %c0] : memref<3072x128xi8>, vector<32x128xi8>
    %w_f32_79 = arith.sitofp %w_i8_79 : vector<32x128xi8> to vector<32x128xf32>
    %w_scaled_79 = arith.mulf %w_f32_79, %scale_b : vector<32x128xf32>
    %h_bf16_79 = vector.load %hidden[%c0, %ck_79] : memref<8x3072xbf16>, vector<8x32xbf16>
    %h_f32_79 = arith.extf %h_bf16_79 : vector<8x32xbf16> to vector<8x32xf32>
    %acc_79 = vector.contract #w1_dot_trait %h_f32_79, %w_scaled_79, %acc_78 : vector<8x32xf32>, vector<32x128xf32> into vector<8x128xf32>
    %w_i8_80 = vector.load %w1_block_t[%ck_80, %c0] : memref<3072x128xi8>, vector<32x128xi8>
    %w_f32_80 = arith.sitofp %w_i8_80 : vector<32x128xi8> to vector<32x128xf32>
    %w_scaled_80 = arith.mulf %w_f32_80, %scale_b : vector<32x128xf32>
    %h_bf16_80 = vector.load %hidden[%c0, %ck_80] : memref<8x3072xbf16>, vector<8x32xbf16>
    %h_f32_80 = arith.extf %h_bf16_80 : vector<8x32xbf16> to vector<8x32xf32>
    %acc_80 = vector.contract #w1_dot_trait %h_f32_80, %w_scaled_80, %acc_79 : vector<8x32xf32>, vector<32x128xf32> into vector<8x128xf32>
    %w_i8_81 = vector.load %w1_block_t[%ck_81, %c0] : memref<3072x128xi8>, vector<32x128xi8>
    %w_f32_81 = arith.sitofp %w_i8_81 : vector<32x128xi8> to vector<32x128xf32>
    %w_scaled_81 = arith.mulf %w_f32_81, %scale_b : vector<32x128xf32>
    %h_bf16_81 = vector.load %hidden[%c0, %ck_81] : memref<8x3072xbf16>, vector<8x32xbf16>
    %h_f32_81 = arith.extf %h_bf16_81 : vector<8x32xbf16> to vector<8x32xf32>
    %acc_81 = vector.contract #w1_dot_trait %h_f32_81, %w_scaled_81, %acc_80 : vector<8x32xf32>, vector<32x128xf32> into vector<8x128xf32>
    %w_i8_82 = vector.load %w1_block_t[%ck_82, %c0] : memref<3072x128xi8>, vector<32x128xi8>
    %w_f32_82 = arith.sitofp %w_i8_82 : vector<32x128xi8> to vector<32x128xf32>
    %w_scaled_82 = arith.mulf %w_f32_82, %scale_b : vector<32x128xf32>
    %h_bf16_82 = vector.load %hidden[%c0, %ck_82] : memref<8x3072xbf16>, vector<8x32xbf16>
    %h_f32_82 = arith.extf %h_bf16_82 : vector<8x32xbf16> to vector<8x32xf32>
    %acc_82 = vector.contract #w1_dot_trait %h_f32_82, %w_scaled_82, %acc_81 : vector<8x32xf32>, vector<32x128xf32> into vector<8x128xf32>
    %w_i8_83 = vector.load %w1_block_t[%ck_83, %c0] : memref<3072x128xi8>, vector<32x128xi8>
    %w_f32_83 = arith.sitofp %w_i8_83 : vector<32x128xi8> to vector<32x128xf32>
    %w_scaled_83 = arith.mulf %w_f32_83, %scale_b : vector<32x128xf32>
    %h_bf16_83 = vector.load %hidden[%c0, %ck_83] : memref<8x3072xbf16>, vector<8x32xbf16>
    %h_f32_83 = arith.extf %h_bf16_83 : vector<8x32xbf16> to vector<8x32xf32>
    %acc_83 = vector.contract #w1_dot_trait %h_f32_83, %w_scaled_83, %acc_82 : vector<8x32xf32>, vector<32x128xf32> into vector<8x128xf32>
    %w_i8_84 = vector.load %w1_block_t[%ck_84, %c0] : memref<3072x128xi8>, vector<32x128xi8>
    %w_f32_84 = arith.sitofp %w_i8_84 : vector<32x128xi8> to vector<32x128xf32>
    %w_scaled_84 = arith.mulf %w_f32_84, %scale_b : vector<32x128xf32>
    %h_bf16_84 = vector.load %hidden[%c0, %ck_84] : memref<8x3072xbf16>, vector<8x32xbf16>
    %h_f32_84 = arith.extf %h_bf16_84 : vector<8x32xbf16> to vector<8x32xf32>
    %acc_84 = vector.contract #w1_dot_trait %h_f32_84, %w_scaled_84, %acc_83 : vector<8x32xf32>, vector<32x128xf32> into vector<8x128xf32>
    %w_i8_85 = vector.load %w1_block_t[%ck_85, %c0] : memref<3072x128xi8>, vector<32x128xi8>
    %w_f32_85 = arith.sitofp %w_i8_85 : vector<32x128xi8> to vector<32x128xf32>
    %w_scaled_85 = arith.mulf %w_f32_85, %scale_b : vector<32x128xf32>
    %h_bf16_85 = vector.load %hidden[%c0, %ck_85] : memref<8x3072xbf16>, vector<8x32xbf16>
    %h_f32_85 = arith.extf %h_bf16_85 : vector<8x32xbf16> to vector<8x32xf32>
    %acc_85 = vector.contract #w1_dot_trait %h_f32_85, %w_scaled_85, %acc_84 : vector<8x32xf32>, vector<32x128xf32> into vector<8x128xf32>
    %w_i8_86 = vector.load %w1_block_t[%ck_86, %c0] : memref<3072x128xi8>, vector<32x128xi8>
    %w_f32_86 = arith.sitofp %w_i8_86 : vector<32x128xi8> to vector<32x128xf32>
    %w_scaled_86 = arith.mulf %w_f32_86, %scale_b : vector<32x128xf32>
    %h_bf16_86 = vector.load %hidden[%c0, %ck_86] : memref<8x3072xbf16>, vector<8x32xbf16>
    %h_f32_86 = arith.extf %h_bf16_86 : vector<8x32xbf16> to vector<8x32xf32>
    %acc_86 = vector.contract #w1_dot_trait %h_f32_86, %w_scaled_86, %acc_85 : vector<8x32xf32>, vector<32x128xf32> into vector<8x128xf32>
    %w_i8_87 = vector.load %w1_block_t[%ck_87, %c0] : memref<3072x128xi8>, vector<32x128xi8>
    %w_f32_87 = arith.sitofp %w_i8_87 : vector<32x128xi8> to vector<32x128xf32>
    %w_scaled_87 = arith.mulf %w_f32_87, %scale_b : vector<32x128xf32>
    %h_bf16_87 = vector.load %hidden[%c0, %ck_87] : memref<8x3072xbf16>, vector<8x32xbf16>
    %h_f32_87 = arith.extf %h_bf16_87 : vector<8x32xbf16> to vector<8x32xf32>
    %acc_87 = vector.contract #w1_dot_trait %h_f32_87, %w_scaled_87, %acc_86 : vector<8x32xf32>, vector<32x128xf32> into vector<8x128xf32>
    %w_i8_88 = vector.load %w1_block_t[%ck_88, %c0] : memref<3072x128xi8>, vector<32x128xi8>
    %w_f32_88 = arith.sitofp %w_i8_88 : vector<32x128xi8> to vector<32x128xf32>
    %w_scaled_88 = arith.mulf %w_f32_88, %scale_b : vector<32x128xf32>
    %h_bf16_88 = vector.load %hidden[%c0, %ck_88] : memref<8x3072xbf16>, vector<8x32xbf16>
    %h_f32_88 = arith.extf %h_bf16_88 : vector<8x32xbf16> to vector<8x32xf32>
    %acc_88 = vector.contract #w1_dot_trait %h_f32_88, %w_scaled_88, %acc_87 : vector<8x32xf32>, vector<32x128xf32> into vector<8x128xf32>
    %w_i8_89 = vector.load %w1_block_t[%ck_89, %c0] : memref<3072x128xi8>, vector<32x128xi8>
    %w_f32_89 = arith.sitofp %w_i8_89 : vector<32x128xi8> to vector<32x128xf32>
    %w_scaled_89 = arith.mulf %w_f32_89, %scale_b : vector<32x128xf32>
    %h_bf16_89 = vector.load %hidden[%c0, %ck_89] : memref<8x3072xbf16>, vector<8x32xbf16>
    %h_f32_89 = arith.extf %h_bf16_89 : vector<8x32xbf16> to vector<8x32xf32>
    %acc_89 = vector.contract #w1_dot_trait %h_f32_89, %w_scaled_89, %acc_88 : vector<8x32xf32>, vector<32x128xf32> into vector<8x128xf32>
    %w_i8_90 = vector.load %w1_block_t[%ck_90, %c0] : memref<3072x128xi8>, vector<32x128xi8>
    %w_f32_90 = arith.sitofp %w_i8_90 : vector<32x128xi8> to vector<32x128xf32>
    %w_scaled_90 = arith.mulf %w_f32_90, %scale_b : vector<32x128xf32>
    %h_bf16_90 = vector.load %hidden[%c0, %ck_90] : memref<8x3072xbf16>, vector<8x32xbf16>
    %h_f32_90 = arith.extf %h_bf16_90 : vector<8x32xbf16> to vector<8x32xf32>
    %acc_90 = vector.contract #w1_dot_trait %h_f32_90, %w_scaled_90, %acc_89 : vector<8x32xf32>, vector<32x128xf32> into vector<8x128xf32>
    %w_i8_91 = vector.load %w1_block_t[%ck_91, %c0] : memref<3072x128xi8>, vector<32x128xi8>
    %w_f32_91 = arith.sitofp %w_i8_91 : vector<32x128xi8> to vector<32x128xf32>
    %w_scaled_91 = arith.mulf %w_f32_91, %scale_b : vector<32x128xf32>
    %h_bf16_91 = vector.load %hidden[%c0, %ck_91] : memref<8x3072xbf16>, vector<8x32xbf16>
    %h_f32_91 = arith.extf %h_bf16_91 : vector<8x32xbf16> to vector<8x32xf32>
    %acc_91 = vector.contract #w1_dot_trait %h_f32_91, %w_scaled_91, %acc_90 : vector<8x32xf32>, vector<32x128xf32> into vector<8x128xf32>
    %w_i8_92 = vector.load %w1_block_t[%ck_92, %c0] : memref<3072x128xi8>, vector<32x128xi8>
    %w_f32_92 = arith.sitofp %w_i8_92 : vector<32x128xi8> to vector<32x128xf32>
    %w_scaled_92 = arith.mulf %w_f32_92, %scale_b : vector<32x128xf32>
    %h_bf16_92 = vector.load %hidden[%c0, %ck_92] : memref<8x3072xbf16>, vector<8x32xbf16>
    %h_f32_92 = arith.extf %h_bf16_92 : vector<8x32xbf16> to vector<8x32xf32>
    %acc_92 = vector.contract #w1_dot_trait %h_f32_92, %w_scaled_92, %acc_91 : vector<8x32xf32>, vector<32x128xf32> into vector<8x128xf32>
    %w_i8_93 = vector.load %w1_block_t[%ck_93, %c0] : memref<3072x128xi8>, vector<32x128xi8>
    %w_f32_93 = arith.sitofp %w_i8_93 : vector<32x128xi8> to vector<32x128xf32>
    %w_scaled_93 = arith.mulf %w_f32_93, %scale_b : vector<32x128xf32>
    %h_bf16_93 = vector.load %hidden[%c0, %ck_93] : memref<8x3072xbf16>, vector<8x32xbf16>
    %h_f32_93 = arith.extf %h_bf16_93 : vector<8x32xbf16> to vector<8x32xf32>
    %acc_93 = vector.contract #w1_dot_trait %h_f32_93, %w_scaled_93, %acc_92 : vector<8x32xf32>, vector<32x128xf32> into vector<8x128xf32>
    %w_i8_94 = vector.load %w1_block_t[%ck_94, %c0] : memref<3072x128xi8>, vector<32x128xi8>
    %w_f32_94 = arith.sitofp %w_i8_94 : vector<32x128xi8> to vector<32x128xf32>
    %w_scaled_94 = arith.mulf %w_f32_94, %scale_b : vector<32x128xf32>
    %h_bf16_94 = vector.load %hidden[%c0, %ck_94] : memref<8x3072xbf16>, vector<8x32xbf16>
    %h_f32_94 = arith.extf %h_bf16_94 : vector<8x32xbf16> to vector<8x32xf32>
    %acc_94 = vector.contract #w1_dot_trait %h_f32_94, %w_scaled_94, %acc_93 : vector<8x32xf32>, vector<32x128xf32> into vector<8x128xf32>
    %w_i8_95 = vector.load %w1_block_t[%ck_95, %c0] : memref<3072x128xi8>, vector<32x128xi8>
    %w_f32_95 = arith.sitofp %w_i8_95 : vector<32x128xi8> to vector<32x128xf32>
    %w_scaled_95 = arith.mulf %w_f32_95, %scale_b : vector<32x128xf32>
    %h_bf16_95 = vector.load %hidden[%c0, %ck_95] : memref<8x3072xbf16>, vector<8x32xbf16>
    %h_f32_95 = arith.extf %h_bf16_95 : vector<8x32xbf16> to vector<8x32xf32>
    %acc_95 = vector.contract #w1_dot_trait %h_f32_95, %w_scaled_95, %acc_94 : vector<8x32xf32>, vector<32x128xf32> into vector<8x128xf32>
    %out_bf16 = arith.truncf %acc_95 : vector<8x128xf32> to vector<8x128xbf16>
    vector.store %out_bf16, %hidden_out[%c0, %c0] : memref<8x3072xbf16>, vector<8x128xbf16>
    return
  }
}
