module attributes {rvllm.kind = "m2_decode_graph"} {
  func.func @main(
      %token_ids: tensor<8xi32>,
      %positions: tensor<8xi32>,
      %kv_cache: tensor<2080374784xi8>,
      %weight_arena: tensor<134412674816xi8>)
      -> (tensor<8x200064xbf16>, tensor<8xi32>, tensor<2080374784xi8>)
      attributes {
        rvllm.signature = "token_ids,positions,kv_cache,weight_arena -> logits,next_token,kv_cache",
        rvllm.phase = "decode",
        rvllm.batch = 8 : i64,
        rvllm.ctx = 2048 : i64,
        rvllm.layers = 62 : i64,
        rvllm.hidden = 3072 : i64,
        rvllm.vocab = 200064 : i64,
        rvllm.kv_cache_bytes = 2080374784 : i64,
        rvllm.weight_arena_bytes = 134412674816 : i64,
        rvllm.weight_entries = 191069 : i64,
        rvllm.weight_alignment = 128 : i64,
        rvllm.weight_input_scales_missing = 18 : i64,
        rvllm.weight_metadata = "compile_time_offsets_from_M2WeightArenaPlan",
        rvllm.lowering = "rust_xla_custom_call",
        rvllm.lowering_plan = "embed -> 62 fused decode-layer custom calls -> flat-arena dense loads -> fused attention -> top-k router -> flat-arena NVFP4 experts -> final norm -> lm_head -> argmax"
      } {
    %h_embed = "stablehlo.custom_call"(%token_ids, %weight_arena) {
      call_target_name = "rvllm.m2.embed",
      backend_config = "target=rvllm.m2.embed;embed_offset=0;embed_nbytes=1229193216",
      called_computations = [],
      has_side_effect = false,
      api_version = 2 : i32
    } : (tensor<8xi32>, tensor<134412674816xi8>) -> tensor<8x3072xbf16>
    %h_l0, %kv_l0 = "stablehlo.custom_call"(%h_embed, %positions, %kv_cache, %weight_arena) {
      call_target_name = "rvllm.m2.decode_layer.fused_attention_nvfp4_moe",
      backend_config = "target=rvllm.m2.decode_layer.fused_attention_nvfp4_moe;custom_call_abi=m2_decode_layer_v1;layer=0;batch=8;ctx=2048;kv_dtype=i8;kv_cache_bytes=2080374784;hidden=3072;num_q_heads=48;num_kv_heads=8;head_dim=128;rotary_dim=64;top_k=8;expert_count=256;nvfp4_group=16;weight_arena=flat_i8_offsets;weight_arena_bytes=134412674816;weight_arena_alignment=128;weight_arena_dense_offsets=input_norm,post_attention_norm,q_proj,k_proj,v_proj,o_proj,q_norm,k_norm,router,router_bias;input_norm_offset=2458392576;post_attention_norm_offset=2458398720;q_proj_offset=2458404864;k_proj_offset=2496153600;v_proj_offset=2502445056;o_proj_offset=2508736512;q_norm_offset=2546485248;k_norm_offset=2546485504;router_offset=2546485760;router_bias_offset=2548058624;w1_first_packed_offset=2548059136;w1_first_scale_offset=2550418432;w1_first_global_scale_offset=2550713344;w1_first_input_scale_offset=2550713472;w2_first_packed_offset=2550713600;w3_first_packed_offset=2553368064;w3_last_packed_offset=4584032256;input_scales_missing=6;expert_directory=packed_i64_offsets;expert_directory_cols=13;expert_directory_first=[0,2548059136,2550418432,2550713344,2550713472,2550713600,2553072896,2553367808,2553367936,2553368064,2555727360,2556022272,2556022400];expert_directory_last=[255,4578723328,4581082624,4581377536,4581377664,4581377792,4583737088,4584032000,4584032128,4584032256,4586391552,4586686464,4586686592];dispatch=fused_attention_topk_nvfp4_moe;lowering=rust_xla_custom_call",
      called_computations = [],
      has_side_effect = false,
      api_version = 2 : i32
    } : (tensor<8x3072xbf16>, tensor<8xi32>, tensor<2080374784xi8>, tensor<134412674816xi8>) -> (tensor<8x3072xbf16>, tensor<2080374784xi8>)
    %h_l1, %kv_l1 = "stablehlo.custom_call"(%h_l0, %positions, %kv_l0, %weight_arena) {
      call_target_name = "rvllm.m2.decode_layer.fused_attention_nvfp4_moe",
      backend_config = "target=rvllm.m2.decode_layer.fused_attention_nvfp4_moe;custom_call_abi=m2_decode_layer_v1;layer=1;batch=8;ctx=2048;kv_dtype=i8;kv_cache_bytes=2080374784;hidden=3072;num_q_heads=48;num_kv_heads=8;head_dim=128;rotary_dim=64;top_k=8;expert_count=256;nvfp4_group=16;weight_arena=flat_i8_offsets;weight_arena_bytes=134412674816;weight_arena_alignment=128;weight_arena_dense_offsets=input_norm,post_attention_norm,q_proj,k_proj,v_proj,o_proj,q_norm,k_norm,router,router_bias;input_norm_offset=4586686720;post_attention_norm_offset=4586692864;q_proj_offset=4586699008;k_proj_offset=4624447744;v_proj_offset=4630739200;o_proj_offset=4637030656;q_norm_offset=4674779392;k_norm_offset=4674779648;router_offset=4674779904;router_bias_offset=4676352768;w1_first_packed_offset=4676353280;w1_first_scale_offset=4678712576;w1_first_global_scale_offset=4679007488;w1_first_input_scale_offset=4679007616;w2_first_packed_offset=4679007744;w3_first_packed_offset=4681662208;w3_last_packed_offset=6712327168;input_scales_missing=0;expert_directory=packed_i64_offsets;expert_directory_cols=13;expert_directory_first=[0,4676353280,4678712576,4679007488,4679007616,4679007744,4681367040,4681661952,4681662080,4681662208,4684021504,4684316416,4684316544];expert_directory_last=[255,6707018240,6709377536,6709672448,6709672576,6709672704,6712032000,6712326912,6712327040,6712327168,6714686464,6714981376,6714981504];dispatch=fused_attention_topk_nvfp4_moe;lowering=rust_xla_custom_call",
      called_computations = [],
      has_side_effect = false,
      api_version = 2 : i32
    } : (tensor<8x3072xbf16>, tensor<8xi32>, tensor<2080374784xi8>, tensor<134412674816xi8>) -> (tensor<8x3072xbf16>, tensor<2080374784xi8>)
    %h_l2, %kv_l2 = "stablehlo.custom_call"(%h_l1, %positions, %kv_l1, %weight_arena) {
      call_target_name = "rvllm.m2.decode_layer.fused_attention_nvfp4_moe",
      backend_config = "target=rvllm.m2.decode_layer.fused_attention_nvfp4_moe;custom_call_abi=m2_decode_layer_v1;layer=2;batch=8;ctx=2048;kv_dtype=i8;kv_cache_bytes=2080374784;hidden=3072;num_q_heads=48;num_kv_heads=8;head_dim=128;rotary_dim=64;top_k=8;expert_count=256;nvfp4_group=16;weight_arena=flat_i8_offsets;weight_arena_bytes=134412674816;weight_arena_alignment=128;weight_arena_dense_offsets=input_norm,post_attention_norm,q_proj,k_proj,v_proj,o_proj,q_norm,k_norm,router,router_bias;input_norm_offset=6714981632;post_attention_norm_offset=6714987776;q_proj_offset=6714993920;k_proj_offset=6752742656;v_proj_offset=6759034112;o_proj_offset=6765325568;q_norm_offset=6803074304;k_norm_offset=6803074560;router_offset=6803074816;router_bias_offset=6804647680;w1_first_packed_offset=6804648192;w1_first_scale_offset=6807007488;w1_first_global_scale_offset=6807302400;w1_first_input_scale_offset=6807302528;w2_first_packed_offset=6807302656;w3_first_packed_offset=6809957120;w3_last_packed_offset=8840622080;input_scales_missing=0;expert_directory=packed_i64_offsets;expert_directory_cols=13;expert_directory_first=[0,6804648192,6807007488,6807302400,6807302528,6807302656,6809661952,6809956864,6809956992,6809957120,6812316416,6812611328,6812611456];expert_directory_last=[255,8835313152,8837672448,8837967360,8837967488,8837967616,8840326912,8840621824,8840621952,8840622080,8842981376,8843276288,8843276416];dispatch=fused_attention_topk_nvfp4_moe;lowering=rust_xla_custom_call",
      called_computations = [],
      has_side_effect = false,
      api_version = 2 : i32
    } : (tensor<8x3072xbf16>, tensor<8xi32>, tensor<2080374784xi8>, tensor<134412674816xi8>) -> (tensor<8x3072xbf16>, tensor<2080374784xi8>)
    %h_l3, %kv_l3 = "stablehlo.custom_call"(%h_l2, %positions, %kv_l2, %weight_arena) {
      call_target_name = "rvllm.m2.decode_layer.fused_attention_nvfp4_moe",
      backend_config = "target=rvllm.m2.decode_layer.fused_attention_nvfp4_moe;custom_call_abi=m2_decode_layer_v1;layer=3;batch=8;ctx=2048;kv_dtype=i8;kv_cache_bytes=2080374784;hidden=3072;num_q_heads=48;num_kv_heads=8;head_dim=128;rotary_dim=64;top_k=8;expert_count=256;nvfp4_group=16;weight_arena=flat_i8_offsets;weight_arena_bytes=134412674816;weight_arena_alignment=128;weight_arena_dense_offsets=input_norm,post_attention_norm,q_proj,k_proj,v_proj,o_proj,q_norm,k_norm,router,router_bias;input_norm_offset=8843276544;post_attention_norm_offset=8843282688;q_proj_offset=8843288832;k_proj_offset=8881037568;v_proj_offset=8887329024;o_proj_offset=8893620480;q_norm_offset=8931369216;k_norm_offset=8931369472;router_offset=8931369728;router_bias_offset=8932942592;w1_first_packed_offset=8932943104;w1_first_scale_offset=8935302400;w1_first_global_scale_offset=8935597312;w1_first_input_scale_offset=8935597440;w2_first_packed_offset=8935597568;w3_first_packed_offset=8938252032;w3_last_packed_offset=10968916992;input_scales_missing=0;expert_directory=packed_i64_offsets;expert_directory_cols=13;expert_directory_first=[0,8932943104,8935302400,8935597312,8935597440,8935597568,8937956864,8938251776,8938251904,8938252032,8940611328,8940906240,8940906368];expert_directory_last=[255,10963608064,10965967360,10966262272,10966262400,10966262528,10968621824,10968916736,10968916864,10968916992,10971276288,10971571200,10971571328];dispatch=fused_attention_topk_nvfp4_moe;lowering=rust_xla_custom_call",
      called_computations = [],
      has_side_effect = false,
      api_version = 2 : i32
    } : (tensor<8x3072xbf16>, tensor<8xi32>, tensor<2080374784xi8>, tensor<134412674816xi8>) -> (tensor<8x3072xbf16>, tensor<2080374784xi8>)
    %h_l4, %kv_l4 = "stablehlo.custom_call"(%h_l3, %positions, %kv_l3, %weight_arena) {
      call_target_name = "rvllm.m2.decode_layer.fused_attention_nvfp4_moe",
      backend_config = "target=rvllm.m2.decode_layer.fused_attention_nvfp4_moe;custom_call_abi=m2_decode_layer_v1;layer=4;batch=8;ctx=2048;kv_dtype=i8;kv_cache_bytes=2080374784;hidden=3072;num_q_heads=48;num_kv_heads=8;head_dim=128;rotary_dim=64;top_k=8;expert_count=256;nvfp4_group=16;weight_arena=flat_i8_offsets;weight_arena_bytes=134412674816;weight_arena_alignment=128;weight_arena_dense_offsets=input_norm,post_attention_norm,q_proj,k_proj,v_proj,o_proj,q_norm,k_norm,router,router_bias;input_norm_offset=10971571456;post_attention_norm_offset=10971577600;q_proj_offset=10971583744;k_proj_offset=11009332480;v_proj_offset=11015623936;o_proj_offset=11021915392;q_norm_offset=11059664128;k_norm_offset=11059664384;router_offset=11059664640;router_bias_offset=11061237504;w1_first_packed_offset=11061238016;w1_first_scale_offset=11063597312;w1_first_global_scale_offset=11063892224;w1_first_input_scale_offset=11063892352;w2_first_packed_offset=11063892480;w3_first_packed_offset=11066546944;w3_last_packed_offset=13097211904;input_scales_missing=0;expert_directory=packed_i64_offsets;expert_directory_cols=13;expert_directory_first=[0,11061238016,11063597312,11063892224,11063892352,11063892480,11066251776,11066546688,11066546816,11066546944,11068906240,11069201152,11069201280];expert_directory_last=[255,13091902976,13094262272,13094557184,13094557312,13094557440,13096916736,13097211648,13097211776,13097211904,13099571200,13099866112,13099866240];dispatch=fused_attention_topk_nvfp4_moe;lowering=rust_xla_custom_call",
      called_computations = [],
      has_side_effect = false,
      api_version = 2 : i32
    } : (tensor<8x3072xbf16>, tensor<8xi32>, tensor<2080374784xi8>, tensor<134412674816xi8>) -> (tensor<8x3072xbf16>, tensor<2080374784xi8>)
    %h_l5, %kv_l5 = "stablehlo.custom_call"(%h_l4, %positions, %kv_l4, %weight_arena) {
      call_target_name = "rvllm.m2.decode_layer.fused_attention_nvfp4_moe",
      backend_config = "target=rvllm.m2.decode_layer.fused_attention_nvfp4_moe;custom_call_abi=m2_decode_layer_v1;layer=5;batch=8;ctx=2048;kv_dtype=i8;kv_cache_bytes=2080374784;hidden=3072;num_q_heads=48;num_kv_heads=8;head_dim=128;rotary_dim=64;top_k=8;expert_count=256;nvfp4_group=16;weight_arena=flat_i8_offsets;weight_arena_bytes=134412674816;weight_arena_alignment=128;weight_arena_dense_offsets=input_norm,post_attention_norm,q_proj,k_proj,v_proj,o_proj,q_norm,k_norm,router,router_bias;input_norm_offset=13099866368;post_attention_norm_offset=13099872512;q_proj_offset=13099878656;k_proj_offset=13137627392;v_proj_offset=13143918848;o_proj_offset=13150210304;q_norm_offset=13187959040;k_norm_offset=13187959296;router_offset=13187959552;router_bias_offset=13189532416;w1_first_packed_offset=13189532928;w1_first_scale_offset=13191892224;w1_first_global_scale_offset=13192187136;w1_first_input_scale_offset=13192187264;w2_first_packed_offset=13192187392;w3_first_packed_offset=13194841856;w3_last_packed_offset=15225506816;input_scales_missing=0;expert_directory=packed_i64_offsets;expert_directory_cols=13;expert_directory_first=[0,13189532928,13191892224,13192187136,13192187264,13192187392,13194546688,13194841600,13194841728,13194841856,13197201152,13197496064,13197496192];expert_directory_last=[255,15220197888,15222557184,15222852096,15222852224,15222852352,15225211648,15225506560,15225506688,15225506816,15227866112,15228161024,15228161152];dispatch=fused_attention_topk_nvfp4_moe;lowering=rust_xla_custom_call",
      called_computations = [],
      has_side_effect = false,
      api_version = 2 : i32
    } : (tensor<8x3072xbf16>, tensor<8xi32>, tensor<2080374784xi8>, tensor<134412674816xi8>) -> (tensor<8x3072xbf16>, tensor<2080374784xi8>)
    %h_l6, %kv_l6 = "stablehlo.custom_call"(%h_l5, %positions, %kv_l5, %weight_arena) {
      call_target_name = "rvllm.m2.decode_layer.fused_attention_nvfp4_moe",
      backend_config = "target=rvllm.m2.decode_layer.fused_attention_nvfp4_moe;custom_call_abi=m2_decode_layer_v1;layer=6;batch=8;ctx=2048;kv_dtype=i8;kv_cache_bytes=2080374784;hidden=3072;num_q_heads=48;num_kv_heads=8;head_dim=128;rotary_dim=64;top_k=8;expert_count=256;nvfp4_group=16;weight_arena=flat_i8_offsets;weight_arena_bytes=134412674816;weight_arena_alignment=128;weight_arena_dense_offsets=input_norm,post_attention_norm,q_proj,k_proj,v_proj,o_proj,q_norm,k_norm,router,router_bias;input_norm_offset=15228161280;post_attention_norm_offset=15228167424;q_proj_offset=15228173568;k_proj_offset=15265922304;v_proj_offset=15272213760;o_proj_offset=15278505216;q_norm_offset=15316253952;k_norm_offset=15316254208;router_offset=15316254464;router_bias_offset=15317827328;w1_first_packed_offset=15317827840;w1_first_scale_offset=15320187136;w1_first_global_scale_offset=15320482048;w1_first_input_scale_offset=15320482176;w2_first_packed_offset=15320482304;w3_first_packed_offset=15323136768;w3_last_packed_offset=17353801728;input_scales_missing=0;expert_directory=packed_i64_offsets;expert_directory_cols=13;expert_directory_first=[0,15317827840,15320187136,15320482048,15320482176,15320482304,15322841600,15323136512,15323136640,15323136768,15325496064,15325790976,15325791104];expert_directory_last=[255,17348492800,17350852096,17351147008,17351147136,17351147264,17353506560,17353801472,17353801600,17353801728,17356161024,17356455936,17356456064];dispatch=fused_attention_topk_nvfp4_moe;lowering=rust_xla_custom_call",
      called_computations = [],
      has_side_effect = false,
      api_version = 2 : i32
    } : (tensor<8x3072xbf16>, tensor<8xi32>, tensor<2080374784xi8>, tensor<134412674816xi8>) -> (tensor<8x3072xbf16>, tensor<2080374784xi8>)
    %h_l7, %kv_l7 = "stablehlo.custom_call"(%h_l6, %positions, %kv_l6, %weight_arena) {
      call_target_name = "rvllm.m2.decode_layer.fused_attention_nvfp4_moe",
      backend_config = "target=rvllm.m2.decode_layer.fused_attention_nvfp4_moe;custom_call_abi=m2_decode_layer_v1;layer=7;batch=8;ctx=2048;kv_dtype=i8;kv_cache_bytes=2080374784;hidden=3072;num_q_heads=48;num_kv_heads=8;head_dim=128;rotary_dim=64;top_k=8;expert_count=256;nvfp4_group=16;weight_arena=flat_i8_offsets;weight_arena_bytes=134412674816;weight_arena_alignment=128;weight_arena_dense_offsets=input_norm,post_attention_norm,q_proj,k_proj,v_proj,o_proj,q_norm,k_norm,router,router_bias;input_norm_offset=17356456192;post_attention_norm_offset=17356462336;q_proj_offset=17356468480;k_proj_offset=17394217216;v_proj_offset=17400508672;o_proj_offset=17406800128;q_norm_offset=17444548864;k_norm_offset=17444549120;router_offset=17444549376;router_bias_offset=17446122240;w1_first_packed_offset=17446122752;w1_first_scale_offset=17448482048;w1_first_global_scale_offset=17448776960;w1_first_input_scale_offset=17448777088;w2_first_packed_offset=17448777216;w3_first_packed_offset=17451431680;w3_last_packed_offset=19482096640;input_scales_missing=0;expert_directory=packed_i64_offsets;expert_directory_cols=13;expert_directory_first=[0,17446122752,17448482048,17448776960,17448777088,17448777216,17451136512,17451431424,17451431552,17451431680,17453790976,17454085888,17454086016];expert_directory_last=[255,19476787712,19479147008,19479441920,19479442048,19479442176,19481801472,19482096384,19482096512,19482096640,19484455936,19484750848,19484750976];dispatch=fused_attention_topk_nvfp4_moe;lowering=rust_xla_custom_call",
      called_computations = [],
      has_side_effect = false,
      api_version = 2 : i32
    } : (tensor<8x3072xbf16>, tensor<8xi32>, tensor<2080374784xi8>, tensor<134412674816xi8>) -> (tensor<8x3072xbf16>, tensor<2080374784xi8>)
    %h_l8, %kv_l8 = "stablehlo.custom_call"(%h_l7, %positions, %kv_l7, %weight_arena) {
      call_target_name = "rvllm.m2.decode_layer.fused_attention_nvfp4_moe",
      backend_config = "target=rvllm.m2.decode_layer.fused_attention_nvfp4_moe;custom_call_abi=m2_decode_layer_v1;layer=8;batch=8;ctx=2048;kv_dtype=i8;kv_cache_bytes=2080374784;hidden=3072;num_q_heads=48;num_kv_heads=8;head_dim=128;rotary_dim=64;top_k=8;expert_count=256;nvfp4_group=16;weight_arena=flat_i8_offsets;weight_arena_bytes=134412674816;weight_arena_alignment=128;weight_arena_dense_offsets=input_norm,post_attention_norm,q_proj,k_proj,v_proj,o_proj,q_norm,k_norm,router,router_bias;input_norm_offset=19484751104;post_attention_norm_offset=19484757248;q_proj_offset=19484763392;k_proj_offset=19522512128;v_proj_offset=19528803584;o_proj_offset=19535095040;q_norm_offset=19572843776;k_norm_offset=19572844032;router_offset=19572844288;router_bias_offset=19574417152;w1_first_packed_offset=19574417664;w1_first_scale_offset=19576776960;w1_first_global_scale_offset=19577071872;w1_first_input_scale_offset=19577072000;w2_first_packed_offset=19577072128;w3_first_packed_offset=19579726592;w3_last_packed_offset=21610391552;input_scales_missing=0;expert_directory=packed_i64_offsets;expert_directory_cols=13;expert_directory_first=[0,19574417664,19576776960,19577071872,19577072000,19577072128,19579431424,19579726336,19579726464,19579726592,19582085888,19582380800,19582380928];expert_directory_last=[255,21605082624,21607441920,21607736832,21607736960,21607737088,21610096384,21610391296,21610391424,21610391552,21612750848,21613045760,21613045888];dispatch=fused_attention_topk_nvfp4_moe;lowering=rust_xla_custom_call",
      called_computations = [],
      has_side_effect = false,
      api_version = 2 : i32
    } : (tensor<8x3072xbf16>, tensor<8xi32>, tensor<2080374784xi8>, tensor<134412674816xi8>) -> (tensor<8x3072xbf16>, tensor<2080374784xi8>)
    %h_l9, %kv_l9 = "stablehlo.custom_call"(%h_l8, %positions, %kv_l8, %weight_arena) {
      call_target_name = "rvllm.m2.decode_layer.fused_attention_nvfp4_moe",
      backend_config = "target=rvllm.m2.decode_layer.fused_attention_nvfp4_moe;custom_call_abi=m2_decode_layer_v1;layer=9;batch=8;ctx=2048;kv_dtype=i8;kv_cache_bytes=2080374784;hidden=3072;num_q_heads=48;num_kv_heads=8;head_dim=128;rotary_dim=64;top_k=8;expert_count=256;nvfp4_group=16;weight_arena=flat_i8_offsets;weight_arena_bytes=134412674816;weight_arena_alignment=128;weight_arena_dense_offsets=input_norm,post_attention_norm,q_proj,k_proj,v_proj,o_proj,q_norm,k_norm,router,router_bias;input_norm_offset=21613046016;post_attention_norm_offset=21613052160;q_proj_offset=21613058304;k_proj_offset=21650807040;v_proj_offset=21657098496;o_proj_offset=21663389952;q_norm_offset=21701138688;k_norm_offset=21701138944;router_offset=21701139200;router_bias_offset=21702712064;w1_first_packed_offset=21702712576;w1_first_scale_offset=21705071872;w1_first_global_scale_offset=21705366784;w1_first_input_scale_offset=21705366912;w2_first_packed_offset=21705367040;w3_first_packed_offset=21708021504;w3_last_packed_offset=23738686464;input_scales_missing=0;expert_directory=packed_i64_offsets;expert_directory_cols=13;expert_directory_first=[0,21702712576,21705071872,21705366784,21705366912,21705367040,21707726336,21708021248,21708021376,21708021504,21710380800,21710675712,21710675840];expert_directory_last=[255,23733377536,23735736832,23736031744,23736031872,23736032000,23738391296,23738686208,23738686336,23738686464,23741045760,23741340672,23741340800];dispatch=fused_attention_topk_nvfp4_moe;lowering=rust_xla_custom_call",
      called_computations = [],
      has_side_effect = false,
      api_version = 2 : i32
    } : (tensor<8x3072xbf16>, tensor<8xi32>, tensor<2080374784xi8>, tensor<134412674816xi8>) -> (tensor<8x3072xbf16>, tensor<2080374784xi8>)
    %h_l10, %kv_l10 = "stablehlo.custom_call"(%h_l9, %positions, %kv_l9, %weight_arena) {
      call_target_name = "rvllm.m2.decode_layer.fused_attention_nvfp4_moe",
      backend_config = "target=rvllm.m2.decode_layer.fused_attention_nvfp4_moe;custom_call_abi=m2_decode_layer_v1;layer=10;batch=8;ctx=2048;kv_dtype=i8;kv_cache_bytes=2080374784;hidden=3072;num_q_heads=48;num_kv_heads=8;head_dim=128;rotary_dim=64;top_k=8;expert_count=256;nvfp4_group=16;weight_arena=flat_i8_offsets;weight_arena_bytes=134412674816;weight_arena_alignment=128;weight_arena_dense_offsets=input_norm,post_attention_norm,q_proj,k_proj,v_proj,o_proj,q_norm,k_norm,router,router_bias;input_norm_offset=23741340928;post_attention_norm_offset=23741347072;q_proj_offset=23741353216;k_proj_offset=23779101952;v_proj_offset=23785393408;o_proj_offset=23791684864;q_norm_offset=23829433600;k_norm_offset=23829433856;router_offset=23829434112;router_bias_offset=23831006976;w1_first_packed_offset=23831007488;w1_first_scale_offset=23833366784;w1_first_global_scale_offset=23833661696;w1_first_input_scale_offset=23833661824;w2_first_packed_offset=23833661952;w3_first_packed_offset=23836316416;w3_last_packed_offset=25866981376;input_scales_missing=0;expert_directory=packed_i64_offsets;expert_directory_cols=13;expert_directory_first=[0,23831007488,23833366784,23833661696,23833661824,23833661952,23836021248,23836316160,23836316288,23836316416,23838675712,23838970624,23838970752];expert_directory_last=[255,25861672448,25864031744,25864326656,25864326784,25864326912,25866686208,25866981120,25866981248,25866981376,25869340672,25869635584,25869635712];dispatch=fused_attention_topk_nvfp4_moe;lowering=rust_xla_custom_call",
      called_computations = [],
      has_side_effect = false,
      api_version = 2 : i32
    } : (tensor<8x3072xbf16>, tensor<8xi32>, tensor<2080374784xi8>, tensor<134412674816xi8>) -> (tensor<8x3072xbf16>, tensor<2080374784xi8>)
    %h_l11, %kv_l11 = "stablehlo.custom_call"(%h_l10, %positions, %kv_l10, %weight_arena) {
      call_target_name = "rvllm.m2.decode_layer.fused_attention_nvfp4_moe",
      backend_config = "target=rvllm.m2.decode_layer.fused_attention_nvfp4_moe;custom_call_abi=m2_decode_layer_v1;layer=11;batch=8;ctx=2048;kv_dtype=i8;kv_cache_bytes=2080374784;hidden=3072;num_q_heads=48;num_kv_heads=8;head_dim=128;rotary_dim=64;top_k=8;expert_count=256;nvfp4_group=16;weight_arena=flat_i8_offsets;weight_arena_bytes=134412674816;weight_arena_alignment=128;weight_arena_dense_offsets=input_norm,post_attention_norm,q_proj,k_proj,v_proj,o_proj,q_norm,k_norm,router,router_bias;input_norm_offset=25869635840;post_attention_norm_offset=25869641984;q_proj_offset=25869648128;k_proj_offset=25907396864;v_proj_offset=25913688320;o_proj_offset=25919979776;q_norm_offset=25957728512;k_norm_offset=25957728768;router_offset=25957729024;router_bias_offset=25959301888;w1_first_packed_offset=25959302400;w1_first_scale_offset=25961661696;w1_first_global_scale_offset=25961956608;w1_first_input_scale_offset=25961956736;w2_first_packed_offset=25961956864;w3_first_packed_offset=25964611328;w3_last_packed_offset=27995276288;input_scales_missing=0;expert_directory=packed_i64_offsets;expert_directory_cols=13;expert_directory_first=[0,25959302400,25961661696,25961956608,25961956736,25961956864,25964316160,25964611072,25964611200,25964611328,25966970624,25967265536,25967265664];expert_directory_last=[255,27989967360,27992326656,27992621568,27992621696,27992621824,27994981120,27995276032,27995276160,27995276288,27997635584,27997930496,27997930624];dispatch=fused_attention_topk_nvfp4_moe;lowering=rust_xla_custom_call",
      called_computations = [],
      has_side_effect = false,
      api_version = 2 : i32
    } : (tensor<8x3072xbf16>, tensor<8xi32>, tensor<2080374784xi8>, tensor<134412674816xi8>) -> (tensor<8x3072xbf16>, tensor<2080374784xi8>)
    %h_l12, %kv_l12 = "stablehlo.custom_call"(%h_l11, %positions, %kv_l11, %weight_arena) {
      call_target_name = "rvllm.m2.decode_layer.fused_attention_nvfp4_moe",
      backend_config = "target=rvllm.m2.decode_layer.fused_attention_nvfp4_moe;custom_call_abi=m2_decode_layer_v1;layer=12;batch=8;ctx=2048;kv_dtype=i8;kv_cache_bytes=2080374784;hidden=3072;num_q_heads=48;num_kv_heads=8;head_dim=128;rotary_dim=64;top_k=8;expert_count=256;nvfp4_group=16;weight_arena=flat_i8_offsets;weight_arena_bytes=134412674816;weight_arena_alignment=128;weight_arena_dense_offsets=input_norm,post_attention_norm,q_proj,k_proj,v_proj,o_proj,q_norm,k_norm,router,router_bias;input_norm_offset=27997930752;post_attention_norm_offset=27997936896;q_proj_offset=27997943040;k_proj_offset=28035691776;v_proj_offset=28041983232;o_proj_offset=28048274688;q_norm_offset=28086023424;k_norm_offset=28086023680;router_offset=28086023936;router_bias_offset=28087596800;w1_first_packed_offset=28087597312;w1_first_scale_offset=28089956608;w1_first_global_scale_offset=28090251520;w1_first_input_scale_offset=28090251648;w2_first_packed_offset=28090251776;w3_first_packed_offset=28092906240;w3_last_packed_offset=30123571200;input_scales_missing=0;expert_directory=packed_i64_offsets;expert_directory_cols=13;expert_directory_first=[0,28087597312,28089956608,28090251520,28090251648,28090251776,28092611072,28092905984,28092906112,28092906240,28095265536,28095560448,28095560576];expert_directory_last=[255,30118262272,30120621568,30120916480,30120916608,30120916736,30123276032,30123570944,30123571072,30123571200,30125930496,30126225408,30126225536];dispatch=fused_attention_topk_nvfp4_moe;lowering=rust_xla_custom_call",
      called_computations = [],
      has_side_effect = false,
      api_version = 2 : i32
    } : (tensor<8x3072xbf16>, tensor<8xi32>, tensor<2080374784xi8>, tensor<134412674816xi8>) -> (tensor<8x3072xbf16>, tensor<2080374784xi8>)
    %h_l13, %kv_l13 = "stablehlo.custom_call"(%h_l12, %positions, %kv_l12, %weight_arena) {
      call_target_name = "rvllm.m2.decode_layer.fused_attention_nvfp4_moe",
      backend_config = "target=rvllm.m2.decode_layer.fused_attention_nvfp4_moe;custom_call_abi=m2_decode_layer_v1;layer=13;batch=8;ctx=2048;kv_dtype=i8;kv_cache_bytes=2080374784;hidden=3072;num_q_heads=48;num_kv_heads=8;head_dim=128;rotary_dim=64;top_k=8;expert_count=256;nvfp4_group=16;weight_arena=flat_i8_offsets;weight_arena_bytes=134412674816;weight_arena_alignment=128;weight_arena_dense_offsets=input_norm,post_attention_norm,q_proj,k_proj,v_proj,o_proj,q_norm,k_norm,router,router_bias;input_norm_offset=30126225664;post_attention_norm_offset=30126231808;q_proj_offset=30126237952;k_proj_offset=30163986688;v_proj_offset=30170278144;o_proj_offset=30176569600;q_norm_offset=30214318336;k_norm_offset=30214318592;router_offset=30214318848;router_bias_offset=30215891712;w1_first_packed_offset=30215892224;w1_first_scale_offset=30218251520;w1_first_global_scale_offset=30218546432;w1_first_input_scale_offset=30218546560;w2_first_packed_offset=30218546688;w3_first_packed_offset=30221201152;w3_last_packed_offset=32251866112;input_scales_missing=0;expert_directory=packed_i64_offsets;expert_directory_cols=13;expert_directory_first=[0,30215892224,30218251520,30218546432,30218546560,30218546688,30220905984,30221200896,30221201024,30221201152,30223560448,30223855360,30223855488];expert_directory_last=[255,32246557184,32248916480,32249211392,32249211520,32249211648,32251570944,32251865856,32251865984,32251866112,32254225408,32254520320,32254520448];dispatch=fused_attention_topk_nvfp4_moe;lowering=rust_xla_custom_call",
      called_computations = [],
      has_side_effect = false,
      api_version = 2 : i32
    } : (tensor<8x3072xbf16>, tensor<8xi32>, tensor<2080374784xi8>, tensor<134412674816xi8>) -> (tensor<8x3072xbf16>, tensor<2080374784xi8>)
    %h_l14, %kv_l14 = "stablehlo.custom_call"(%h_l13, %positions, %kv_l13, %weight_arena) {
      call_target_name = "rvllm.m2.decode_layer.fused_attention_nvfp4_moe",
      backend_config = "target=rvllm.m2.decode_layer.fused_attention_nvfp4_moe;custom_call_abi=m2_decode_layer_v1;layer=14;batch=8;ctx=2048;kv_dtype=i8;kv_cache_bytes=2080374784;hidden=3072;num_q_heads=48;num_kv_heads=8;head_dim=128;rotary_dim=64;top_k=8;expert_count=256;nvfp4_group=16;weight_arena=flat_i8_offsets;weight_arena_bytes=134412674816;weight_arena_alignment=128;weight_arena_dense_offsets=input_norm,post_attention_norm,q_proj,k_proj,v_proj,o_proj,q_norm,k_norm,router,router_bias;input_norm_offset=32254520576;post_attention_norm_offset=32254526720;q_proj_offset=32254532864;k_proj_offset=32292281600;v_proj_offset=32298573056;o_proj_offset=32304864512;q_norm_offset=32342613248;k_norm_offset=32342613504;router_offset=32342613760;router_bias_offset=32344186624;w1_first_packed_offset=32344187136;w1_first_scale_offset=32346546432;w1_first_global_scale_offset=32346841344;w1_first_input_scale_offset=32346841472;w2_first_packed_offset=32346841600;w3_first_packed_offset=32349496064;w3_last_packed_offset=34380161024;input_scales_missing=0;expert_directory=packed_i64_offsets;expert_directory_cols=13;expert_directory_first=[0,32344187136,32346546432,32346841344,32346841472,32346841600,32349200896,32349495808,32349495936,32349496064,32351855360,32352150272,32352150400];expert_directory_last=[255,34374852096,34377211392,34377506304,34377506432,34377506560,34379865856,34380160768,34380160896,34380161024,34382520320,34382815232,34382815360];dispatch=fused_attention_topk_nvfp4_moe;lowering=rust_xla_custom_call",
      called_computations = [],
      has_side_effect = false,
      api_version = 2 : i32
    } : (tensor<8x3072xbf16>, tensor<8xi32>, tensor<2080374784xi8>, tensor<134412674816xi8>) -> (tensor<8x3072xbf16>, tensor<2080374784xi8>)
    %h_l15, %kv_l15 = "stablehlo.custom_call"(%h_l14, %positions, %kv_l14, %weight_arena) {
      call_target_name = "rvllm.m2.decode_layer.fused_attention_nvfp4_moe",
      backend_config = "target=rvllm.m2.decode_layer.fused_attention_nvfp4_moe;custom_call_abi=m2_decode_layer_v1;layer=15;batch=8;ctx=2048;kv_dtype=i8;kv_cache_bytes=2080374784;hidden=3072;num_q_heads=48;num_kv_heads=8;head_dim=128;rotary_dim=64;top_k=8;expert_count=256;nvfp4_group=16;weight_arena=flat_i8_offsets;weight_arena_bytes=134412674816;weight_arena_alignment=128;weight_arena_dense_offsets=input_norm,post_attention_norm,q_proj,k_proj,v_proj,o_proj,q_norm,k_norm,router,router_bias;input_norm_offset=34382815488;post_attention_norm_offset=34382821632;q_proj_offset=34382827776;k_proj_offset=34420576512;v_proj_offset=34426867968;o_proj_offset=34433159424;q_norm_offset=34470908160;k_norm_offset=34470908416;router_offset=34470908672;router_bias_offset=34472481536;w1_first_packed_offset=34472482048;w1_first_scale_offset=34474841344;w1_first_global_scale_offset=34475136256;w1_first_input_scale_offset=34475136384;w2_first_packed_offset=34475136512;w3_first_packed_offset=34477790976;w3_last_packed_offset=36508455936;input_scales_missing=0;expert_directory=packed_i64_offsets;expert_directory_cols=13;expert_directory_first=[0,34472482048,34474841344,34475136256,34475136384,34475136512,34477495808,34477790720,34477790848,34477790976,34480150272,34480445184,34480445312];expert_directory_last=[255,36503147008,36505506304,36505801216,36505801344,36505801472,36508160768,36508455680,36508455808,36508455936,36510815232,36511110144,36511110272];dispatch=fused_attention_topk_nvfp4_moe;lowering=rust_xla_custom_call",
      called_computations = [],
      has_side_effect = false,
      api_version = 2 : i32
    } : (tensor<8x3072xbf16>, tensor<8xi32>, tensor<2080374784xi8>, tensor<134412674816xi8>) -> (tensor<8x3072xbf16>, tensor<2080374784xi8>)
    %h_l16, %kv_l16 = "stablehlo.custom_call"(%h_l15, %positions, %kv_l15, %weight_arena) {
      call_target_name = "rvllm.m2.decode_layer.fused_attention_nvfp4_moe",
      backend_config = "target=rvllm.m2.decode_layer.fused_attention_nvfp4_moe;custom_call_abi=m2_decode_layer_v1;layer=16;batch=8;ctx=2048;kv_dtype=i8;kv_cache_bytes=2080374784;hidden=3072;num_q_heads=48;num_kv_heads=8;head_dim=128;rotary_dim=64;top_k=8;expert_count=256;nvfp4_group=16;weight_arena=flat_i8_offsets;weight_arena_bytes=134412674816;weight_arena_alignment=128;weight_arena_dense_offsets=input_norm,post_attention_norm,q_proj,k_proj,v_proj,o_proj,q_norm,k_norm,router,router_bias;input_norm_offset=36511110400;post_attention_norm_offset=36511116544;q_proj_offset=36511122688;k_proj_offset=36548871424;v_proj_offset=36555162880;o_proj_offset=36561454336;q_norm_offset=36599203072;k_norm_offset=36599203328;router_offset=36599203584;router_bias_offset=36600776448;w1_first_packed_offset=36600776960;w1_first_scale_offset=36603136256;w1_first_global_scale_offset=36603431168;w1_first_input_scale_offset=36603431296;w2_first_packed_offset=36603431424;w3_first_packed_offset=36606085888;w3_last_packed_offset=38636750848;input_scales_missing=0;expert_directory=packed_i64_offsets;expert_directory_cols=13;expert_directory_first=[0,36600776960,36603136256,36603431168,36603431296,36603431424,36605790720,36606085632,36606085760,36606085888,36608445184,36608740096,36608740224];expert_directory_last=[255,38631441920,38633801216,38634096128,38634096256,38634096384,38636455680,38636750592,38636750720,38636750848,38639110144,38639405056,38639405184];dispatch=fused_attention_topk_nvfp4_moe;lowering=rust_xla_custom_call",
      called_computations = [],
      has_side_effect = false,
      api_version = 2 : i32
    } : (tensor<8x3072xbf16>, tensor<8xi32>, tensor<2080374784xi8>, tensor<134412674816xi8>) -> (tensor<8x3072xbf16>, tensor<2080374784xi8>)
    %h_l17, %kv_l17 = "stablehlo.custom_call"(%h_l16, %positions, %kv_l16, %weight_arena) {
      call_target_name = "rvllm.m2.decode_layer.fused_attention_nvfp4_moe",
      backend_config = "target=rvllm.m2.decode_layer.fused_attention_nvfp4_moe;custom_call_abi=m2_decode_layer_v1;layer=17;batch=8;ctx=2048;kv_dtype=i8;kv_cache_bytes=2080374784;hidden=3072;num_q_heads=48;num_kv_heads=8;head_dim=128;rotary_dim=64;top_k=8;expert_count=256;nvfp4_group=16;weight_arena=flat_i8_offsets;weight_arena_bytes=134412674816;weight_arena_alignment=128;weight_arena_dense_offsets=input_norm,post_attention_norm,q_proj,k_proj,v_proj,o_proj,q_norm,k_norm,router,router_bias;input_norm_offset=38639405312;post_attention_norm_offset=38639411456;q_proj_offset=38639417600;k_proj_offset=38677166336;v_proj_offset=38683457792;o_proj_offset=38689749248;q_norm_offset=38727497984;k_norm_offset=38727498240;router_offset=38727498496;router_bias_offset=38729071360;w1_first_packed_offset=38729071872;w1_first_scale_offset=38731431168;w1_first_global_scale_offset=38731726080;w1_first_input_scale_offset=38731726208;w2_first_packed_offset=38731726336;w3_first_packed_offset=38734380800;w3_last_packed_offset=40765045760;input_scales_missing=0;expert_directory=packed_i64_offsets;expert_directory_cols=13;expert_directory_first=[0,38729071872,38731431168,38731726080,38731726208,38731726336,38734085632,38734380544,38734380672,38734380800,38736740096,38737035008,38737035136];expert_directory_last=[255,40759736832,40762096128,40762391040,40762391168,40762391296,40764750592,40765045504,40765045632,40765045760,40767405056,40767699968,40767700096];dispatch=fused_attention_topk_nvfp4_moe;lowering=rust_xla_custom_call",
      called_computations = [],
      has_side_effect = false,
      api_version = 2 : i32
    } : (tensor<8x3072xbf16>, tensor<8xi32>, tensor<2080374784xi8>, tensor<134412674816xi8>) -> (tensor<8x3072xbf16>, tensor<2080374784xi8>)
    %h_l18, %kv_l18 = "stablehlo.custom_call"(%h_l17, %positions, %kv_l17, %weight_arena) {
      call_target_name = "rvllm.m2.decode_layer.fused_attention_nvfp4_moe",
      backend_config = "target=rvllm.m2.decode_layer.fused_attention_nvfp4_moe;custom_call_abi=m2_decode_layer_v1;layer=18;batch=8;ctx=2048;kv_dtype=i8;kv_cache_bytes=2080374784;hidden=3072;num_q_heads=48;num_kv_heads=8;head_dim=128;rotary_dim=64;top_k=8;expert_count=256;nvfp4_group=16;weight_arena=flat_i8_offsets;weight_arena_bytes=134412674816;weight_arena_alignment=128;weight_arena_dense_offsets=input_norm,post_attention_norm,q_proj,k_proj,v_proj,o_proj,q_norm,k_norm,router,router_bias;input_norm_offset=40767700224;post_attention_norm_offset=40767706368;q_proj_offset=40767712512;k_proj_offset=40805461248;v_proj_offset=40811752704;o_proj_offset=40818044160;q_norm_offset=40855792896;k_norm_offset=40855793152;router_offset=40855793408;router_bias_offset=40857366272;w1_first_packed_offset=40857366784;w1_first_scale_offset=40859726080;w1_first_global_scale_offset=40860020992;w1_first_input_scale_offset=40860021120;w2_first_packed_offset=40860021248;w3_first_packed_offset=40862675712;w3_last_packed_offset=42893340672;input_scales_missing=0;expert_directory=packed_i64_offsets;expert_directory_cols=13;expert_directory_first=[0,40857366784,40859726080,40860020992,40860021120,40860021248,40862380544,40862675456,40862675584,40862675712,40865035008,40865329920,40865330048];expert_directory_last=[255,42888031744,42890391040,42890685952,42890686080,42890686208,42893045504,42893340416,42893340544,42893340672,42895699968,42895994880,42895995008];dispatch=fused_attention_topk_nvfp4_moe;lowering=rust_xla_custom_call",
      called_computations = [],
      has_side_effect = false,
      api_version = 2 : i32
    } : (tensor<8x3072xbf16>, tensor<8xi32>, tensor<2080374784xi8>, tensor<134412674816xi8>) -> (tensor<8x3072xbf16>, tensor<2080374784xi8>)
    %h_l19, %kv_l19 = "stablehlo.custom_call"(%h_l18, %positions, %kv_l18, %weight_arena) {
      call_target_name = "rvllm.m2.decode_layer.fused_attention_nvfp4_moe",
      backend_config = "target=rvllm.m2.decode_layer.fused_attention_nvfp4_moe;custom_call_abi=m2_decode_layer_v1;layer=19;batch=8;ctx=2048;kv_dtype=i8;kv_cache_bytes=2080374784;hidden=3072;num_q_heads=48;num_kv_heads=8;head_dim=128;rotary_dim=64;top_k=8;expert_count=256;nvfp4_group=16;weight_arena=flat_i8_offsets;weight_arena_bytes=134412674816;weight_arena_alignment=128;weight_arena_dense_offsets=input_norm,post_attention_norm,q_proj,k_proj,v_proj,o_proj,q_norm,k_norm,router,router_bias;input_norm_offset=42895995136;post_attention_norm_offset=42896001280;q_proj_offset=42896007424;k_proj_offset=42933756160;v_proj_offset=42940047616;o_proj_offset=42946339072;q_norm_offset=42984087808;k_norm_offset=42984088064;router_offset=42984088320;router_bias_offset=42985661184;w1_first_packed_offset=42985661696;w1_first_scale_offset=42988020992;w1_first_global_scale_offset=42988315904;w1_first_input_scale_offset=42988316032;w2_first_packed_offset=42988316160;w3_first_packed_offset=42990970624;w3_last_packed_offset=45021635584;input_scales_missing=0;expert_directory=packed_i64_offsets;expert_directory_cols=13;expert_directory_first=[0,42985661696,42988020992,42988315904,42988316032,42988316160,42990675456,42990970368,42990970496,42990970624,42993329920,42993624832,42993624960];expert_directory_last=[255,45016326656,45018685952,45018980864,45018980992,45018981120,45021340416,45021635328,45021635456,45021635584,45023994880,45024289792,45024289920];dispatch=fused_attention_topk_nvfp4_moe;lowering=rust_xla_custom_call",
      called_computations = [],
      has_side_effect = false,
      api_version = 2 : i32
    } : (tensor<8x3072xbf16>, tensor<8xi32>, tensor<2080374784xi8>, tensor<134412674816xi8>) -> (tensor<8x3072xbf16>, tensor<2080374784xi8>)
    %h_l20, %kv_l20 = "stablehlo.custom_call"(%h_l19, %positions, %kv_l19, %weight_arena) {
      call_target_name = "rvllm.m2.decode_layer.fused_attention_nvfp4_moe",
      backend_config = "target=rvllm.m2.decode_layer.fused_attention_nvfp4_moe;custom_call_abi=m2_decode_layer_v1;layer=20;batch=8;ctx=2048;kv_dtype=i8;kv_cache_bytes=2080374784;hidden=3072;num_q_heads=48;num_kv_heads=8;head_dim=128;rotary_dim=64;top_k=8;expert_count=256;nvfp4_group=16;weight_arena=flat_i8_offsets;weight_arena_bytes=134412674816;weight_arena_alignment=128;weight_arena_dense_offsets=input_norm,post_attention_norm,q_proj,k_proj,v_proj,o_proj,q_norm,k_norm,router,router_bias;input_norm_offset=45024290048;post_attention_norm_offset=45024296192;q_proj_offset=45024302336;k_proj_offset=45062051072;v_proj_offset=45068342528;o_proj_offset=45074633984;q_norm_offset=45112382720;k_norm_offset=45112382976;router_offset=45112383232;router_bias_offset=45113956096;w1_first_packed_offset=45113956608;w1_first_scale_offset=45116315904;w1_first_global_scale_offset=45116610816;w1_first_input_scale_offset=45116610944;w2_first_packed_offset=45116611072;w3_first_packed_offset=45119265536;w3_last_packed_offset=47149930496;input_scales_missing=0;expert_directory=packed_i64_offsets;expert_directory_cols=13;expert_directory_first=[0,45113956608,45116315904,45116610816,45116610944,45116611072,45118970368,45119265280,45119265408,45119265536,45121624832,45121919744,45121919872];expert_directory_last=[255,47144621568,47146980864,47147275776,47147275904,47147276032,47149635328,47149930240,47149930368,47149930496,47152289792,47152584704,47152584832];dispatch=fused_attention_topk_nvfp4_moe;lowering=rust_xla_custom_call",
      called_computations = [],
      has_side_effect = false,
      api_version = 2 : i32
    } : (tensor<8x3072xbf16>, tensor<8xi32>, tensor<2080374784xi8>, tensor<134412674816xi8>) -> (tensor<8x3072xbf16>, tensor<2080374784xi8>)
    %h_l21, %kv_l21 = "stablehlo.custom_call"(%h_l20, %positions, %kv_l20, %weight_arena) {
      call_target_name = "rvllm.m2.decode_layer.fused_attention_nvfp4_moe",
      backend_config = "target=rvllm.m2.decode_layer.fused_attention_nvfp4_moe;custom_call_abi=m2_decode_layer_v1;layer=21;batch=8;ctx=2048;kv_dtype=i8;kv_cache_bytes=2080374784;hidden=3072;num_q_heads=48;num_kv_heads=8;head_dim=128;rotary_dim=64;top_k=8;expert_count=256;nvfp4_group=16;weight_arena=flat_i8_offsets;weight_arena_bytes=134412674816;weight_arena_alignment=128;weight_arena_dense_offsets=input_norm,post_attention_norm,q_proj,k_proj,v_proj,o_proj,q_norm,k_norm,router,router_bias;input_norm_offset=47152584960;post_attention_norm_offset=47152591104;q_proj_offset=47152597248;k_proj_offset=47190345984;v_proj_offset=47196637440;o_proj_offset=47202928896;q_norm_offset=47240677632;k_norm_offset=47240677888;router_offset=47240678144;router_bias_offset=47242251008;w1_first_packed_offset=47242251520;w1_first_scale_offset=47244610816;w1_first_global_scale_offset=47244905728;w1_first_input_scale_offset=47244905856;w2_first_packed_offset=47244905984;w3_first_packed_offset=47247560448;w3_last_packed_offset=49278225408;input_scales_missing=0;expert_directory=packed_i64_offsets;expert_directory_cols=13;expert_directory_first=[0,47242251520,47244610816,47244905728,47244905856,47244905984,47247265280,47247560192,47247560320,47247560448,47249919744,47250214656,47250214784];expert_directory_last=[255,49272916480,49275275776,49275570688,49275570816,49275570944,49277930240,49278225152,49278225280,49278225408,49280584704,49280879616,49280879744];dispatch=fused_attention_topk_nvfp4_moe;lowering=rust_xla_custom_call",
      called_computations = [],
      has_side_effect = false,
      api_version = 2 : i32
    } : (tensor<8x3072xbf16>, tensor<8xi32>, tensor<2080374784xi8>, tensor<134412674816xi8>) -> (tensor<8x3072xbf16>, tensor<2080374784xi8>)
    %h_l22, %kv_l22 = "stablehlo.custom_call"(%h_l21, %positions, %kv_l21, %weight_arena) {
      call_target_name = "rvllm.m2.decode_layer.fused_attention_nvfp4_moe",
      backend_config = "target=rvllm.m2.decode_layer.fused_attention_nvfp4_moe;custom_call_abi=m2_decode_layer_v1;layer=22;batch=8;ctx=2048;kv_dtype=i8;kv_cache_bytes=2080374784;hidden=3072;num_q_heads=48;num_kv_heads=8;head_dim=128;rotary_dim=64;top_k=8;expert_count=256;nvfp4_group=16;weight_arena=flat_i8_offsets;weight_arena_bytes=134412674816;weight_arena_alignment=128;weight_arena_dense_offsets=input_norm,post_attention_norm,q_proj,k_proj,v_proj,o_proj,q_norm,k_norm,router,router_bias;input_norm_offset=49280879872;post_attention_norm_offset=49280886016;q_proj_offset=49280892160;k_proj_offset=49318640896;v_proj_offset=49324932352;o_proj_offset=49331223808;q_norm_offset=49368972544;k_norm_offset=49368972800;router_offset=49368973056;router_bias_offset=49370545920;w1_first_packed_offset=49370546432;w1_first_scale_offset=49372905728;w1_first_global_scale_offset=49373200640;w1_first_input_scale_offset=49373200768;w2_first_packed_offset=49373200896;w3_first_packed_offset=49375855360;w3_last_packed_offset=51406520320;input_scales_missing=0;expert_directory=packed_i64_offsets;expert_directory_cols=13;expert_directory_first=[0,49370546432,49372905728,49373200640,49373200768,49373200896,49375560192,49375855104,49375855232,49375855360,49378214656,49378509568,49378509696];expert_directory_last=[255,51401211392,51403570688,51403865600,51403865728,51403865856,51406225152,51406520064,51406520192,51406520320,51408879616,51409174528,51409174656];dispatch=fused_attention_topk_nvfp4_moe;lowering=rust_xla_custom_call",
      called_computations = [],
      has_side_effect = false,
      api_version = 2 : i32
    } : (tensor<8x3072xbf16>, tensor<8xi32>, tensor<2080374784xi8>, tensor<134412674816xi8>) -> (tensor<8x3072xbf16>, tensor<2080374784xi8>)
    %h_l23, %kv_l23 = "stablehlo.custom_call"(%h_l22, %positions, %kv_l22, %weight_arena) {
      call_target_name = "rvllm.m2.decode_layer.fused_attention_nvfp4_moe",
      backend_config = "target=rvllm.m2.decode_layer.fused_attention_nvfp4_moe;custom_call_abi=m2_decode_layer_v1;layer=23;batch=8;ctx=2048;kv_dtype=i8;kv_cache_bytes=2080374784;hidden=3072;num_q_heads=48;num_kv_heads=8;head_dim=128;rotary_dim=64;top_k=8;expert_count=256;nvfp4_group=16;weight_arena=flat_i8_offsets;weight_arena_bytes=134412674816;weight_arena_alignment=128;weight_arena_dense_offsets=input_norm,post_attention_norm,q_proj,k_proj,v_proj,o_proj,q_norm,k_norm,router,router_bias;input_norm_offset=51409174784;post_attention_norm_offset=51409180928;q_proj_offset=51409187072;k_proj_offset=51446935808;v_proj_offset=51453227264;o_proj_offset=51459518720;q_norm_offset=51497267456;k_norm_offset=51497267712;router_offset=51497267968;router_bias_offset=51498840832;w1_first_packed_offset=51498841344;w1_first_scale_offset=51501200640;w1_first_global_scale_offset=51501495552;w1_first_input_scale_offset=51501495680;w2_first_packed_offset=51501495808;w3_first_packed_offset=51504150272;w3_last_packed_offset=53534815232;input_scales_missing=0;expert_directory=packed_i64_offsets;expert_directory_cols=13;expert_directory_first=[0,51498841344,51501200640,51501495552,51501495680,51501495808,51503855104,51504150016,51504150144,51504150272,51506509568,51506804480,51506804608];expert_directory_last=[255,53529506304,53531865600,53532160512,53532160640,53532160768,53534520064,53534814976,53534815104,53534815232,53537174528,53537469440,53537469568];dispatch=fused_attention_topk_nvfp4_moe;lowering=rust_xla_custom_call",
      called_computations = [],
      has_side_effect = false,
      api_version = 2 : i32
    } : (tensor<8x3072xbf16>, tensor<8xi32>, tensor<2080374784xi8>, tensor<134412674816xi8>) -> (tensor<8x3072xbf16>, tensor<2080374784xi8>)
    %h_l24, %kv_l24 = "stablehlo.custom_call"(%h_l23, %positions, %kv_l23, %weight_arena) {
      call_target_name = "rvllm.m2.decode_layer.fused_attention_nvfp4_moe",
      backend_config = "target=rvllm.m2.decode_layer.fused_attention_nvfp4_moe;custom_call_abi=m2_decode_layer_v1;layer=24;batch=8;ctx=2048;kv_dtype=i8;kv_cache_bytes=2080374784;hidden=3072;num_q_heads=48;num_kv_heads=8;head_dim=128;rotary_dim=64;top_k=8;expert_count=256;nvfp4_group=16;weight_arena=flat_i8_offsets;weight_arena_bytes=134412674816;weight_arena_alignment=128;weight_arena_dense_offsets=input_norm,post_attention_norm,q_proj,k_proj,v_proj,o_proj,q_norm,k_norm,router,router_bias;input_norm_offset=53537469696;post_attention_norm_offset=53537475840;q_proj_offset=53537481984;k_proj_offset=53575230720;v_proj_offset=53581522176;o_proj_offset=53587813632;q_norm_offset=53625562368;k_norm_offset=53625562624;router_offset=53625562880;router_bias_offset=53627135744;w1_first_packed_offset=53627136256;w1_first_scale_offset=53629495552;w1_first_global_scale_offset=53629790464;w1_first_input_scale_offset=53629790592;w2_first_packed_offset=53629790720;w3_first_packed_offset=53632445184;w3_last_packed_offset=55663110144;input_scales_missing=0;expert_directory=packed_i64_offsets;expert_directory_cols=13;expert_directory_first=[0,53627136256,53629495552,53629790464,53629790592,53629790720,53632150016,53632444928,53632445056,53632445184,53634804480,53635099392,53635099520];expert_directory_last=[255,55657801216,55660160512,55660455424,55660455552,55660455680,55662814976,55663109888,55663110016,55663110144,55665469440,55665764352,55665764480];dispatch=fused_attention_topk_nvfp4_moe;lowering=rust_xla_custom_call",
      called_computations = [],
      has_side_effect = false,
      api_version = 2 : i32
    } : (tensor<8x3072xbf16>, tensor<8xi32>, tensor<2080374784xi8>, tensor<134412674816xi8>) -> (tensor<8x3072xbf16>, tensor<2080374784xi8>)
    %h_l25, %kv_l25 = "stablehlo.custom_call"(%h_l24, %positions, %kv_l24, %weight_arena) {
      call_target_name = "rvllm.m2.decode_layer.fused_attention_nvfp4_moe",
      backend_config = "target=rvllm.m2.decode_layer.fused_attention_nvfp4_moe;custom_call_abi=m2_decode_layer_v1;layer=25;batch=8;ctx=2048;kv_dtype=i8;kv_cache_bytes=2080374784;hidden=3072;num_q_heads=48;num_kv_heads=8;head_dim=128;rotary_dim=64;top_k=8;expert_count=256;nvfp4_group=16;weight_arena=flat_i8_offsets;weight_arena_bytes=134412674816;weight_arena_alignment=128;weight_arena_dense_offsets=input_norm,post_attention_norm,q_proj,k_proj,v_proj,o_proj,q_norm,k_norm,router,router_bias;input_norm_offset=55665764608;post_attention_norm_offset=55665770752;q_proj_offset=55665776896;k_proj_offset=55703525632;v_proj_offset=55709817088;o_proj_offset=55716108544;q_norm_offset=55753857280;k_norm_offset=55753857536;router_offset=55753857792;router_bias_offset=55755430656;w1_first_packed_offset=55755431168;w1_first_scale_offset=55757790464;w1_first_global_scale_offset=55758085376;w1_first_input_scale_offset=55758085504;w2_first_packed_offset=55758085632;w3_first_packed_offset=55760740096;w3_last_packed_offset=57791405056;input_scales_missing=0;expert_directory=packed_i64_offsets;expert_directory_cols=13;expert_directory_first=[0,55755431168,55757790464,55758085376,55758085504,55758085632,55760444928,55760739840,55760739968,55760740096,55763099392,55763394304,55763394432];expert_directory_last=[255,57786096128,57788455424,57788750336,57788750464,57788750592,57791109888,57791404800,57791404928,57791405056,57793764352,57794059264,57794059392];dispatch=fused_attention_topk_nvfp4_moe;lowering=rust_xla_custom_call",
      called_computations = [],
      has_side_effect = false,
      api_version = 2 : i32
    } : (tensor<8x3072xbf16>, tensor<8xi32>, tensor<2080374784xi8>, tensor<134412674816xi8>) -> (tensor<8x3072xbf16>, tensor<2080374784xi8>)
    %h_l26, %kv_l26 = "stablehlo.custom_call"(%h_l25, %positions, %kv_l25, %weight_arena) {
      call_target_name = "rvllm.m2.decode_layer.fused_attention_nvfp4_moe",
      backend_config = "target=rvllm.m2.decode_layer.fused_attention_nvfp4_moe;custom_call_abi=m2_decode_layer_v1;layer=26;batch=8;ctx=2048;kv_dtype=i8;kv_cache_bytes=2080374784;hidden=3072;num_q_heads=48;num_kv_heads=8;head_dim=128;rotary_dim=64;top_k=8;expert_count=256;nvfp4_group=16;weight_arena=flat_i8_offsets;weight_arena_bytes=134412674816;weight_arena_alignment=128;weight_arena_dense_offsets=input_norm,post_attention_norm,q_proj,k_proj,v_proj,o_proj,q_norm,k_norm,router,router_bias;input_norm_offset=57794059520;post_attention_norm_offset=57794065664;q_proj_offset=57794071808;k_proj_offset=57831820544;v_proj_offset=57838112000;o_proj_offset=57844403456;q_norm_offset=57882152192;k_norm_offset=57882152448;router_offset=57882152704;router_bias_offset=57883725568;w1_first_packed_offset=57883726080;w1_first_scale_offset=57886085376;w1_first_global_scale_offset=57886380288;w1_first_input_scale_offset=57886380416;w2_first_packed_offset=57886380544;w3_first_packed_offset=57889035008;w3_last_packed_offset=59919699968;input_scales_missing=0;expert_directory=packed_i64_offsets;expert_directory_cols=13;expert_directory_first=[0,57883726080,57886085376,57886380288,57886380416,57886380544,57888739840,57889034752,57889034880,57889035008,57891394304,57891689216,57891689344];expert_directory_last=[255,59914391040,59916750336,59917045248,59917045376,59917045504,59919404800,59919699712,59919699840,59919699968,59922059264,59922354176,59922354304];dispatch=fused_attention_topk_nvfp4_moe;lowering=rust_xla_custom_call",
      called_computations = [],
      has_side_effect = false,
      api_version = 2 : i32
    } : (tensor<8x3072xbf16>, tensor<8xi32>, tensor<2080374784xi8>, tensor<134412674816xi8>) -> (tensor<8x3072xbf16>, tensor<2080374784xi8>)
    %h_l27, %kv_l27 = "stablehlo.custom_call"(%h_l26, %positions, %kv_l26, %weight_arena) {
      call_target_name = "rvllm.m2.decode_layer.fused_attention_nvfp4_moe",
      backend_config = "target=rvllm.m2.decode_layer.fused_attention_nvfp4_moe;custom_call_abi=m2_decode_layer_v1;layer=27;batch=8;ctx=2048;kv_dtype=i8;kv_cache_bytes=2080374784;hidden=3072;num_q_heads=48;num_kv_heads=8;head_dim=128;rotary_dim=64;top_k=8;expert_count=256;nvfp4_group=16;weight_arena=flat_i8_offsets;weight_arena_bytes=134412674816;weight_arena_alignment=128;weight_arena_dense_offsets=input_norm,post_attention_norm,q_proj,k_proj,v_proj,o_proj,q_norm,k_norm,router,router_bias;input_norm_offset=59922354432;post_attention_norm_offset=59922360576;q_proj_offset=59922366720;k_proj_offset=59960115456;v_proj_offset=59966406912;o_proj_offset=59972698368;q_norm_offset=60010447104;k_norm_offset=60010447360;router_offset=60010447616;router_bias_offset=60012020480;w1_first_packed_offset=60012020992;w1_first_scale_offset=60014380288;w1_first_global_scale_offset=60014675200;w1_first_input_scale_offset=60014675328;w2_first_packed_offset=60014675456;w3_first_packed_offset=60017329920;w3_last_packed_offset=62047994880;input_scales_missing=0;expert_directory=packed_i64_offsets;expert_directory_cols=13;expert_directory_first=[0,60012020992,60014380288,60014675200,60014675328,60014675456,60017034752,60017329664,60017329792,60017329920,60019689216,60019984128,60019984256];expert_directory_last=[255,62042685952,62045045248,62045340160,62045340288,62045340416,62047699712,62047994624,62047994752,62047994880,62050354176,62050649088,62050649216];dispatch=fused_attention_topk_nvfp4_moe;lowering=rust_xla_custom_call",
      called_computations = [],
      has_side_effect = false,
      api_version = 2 : i32
    } : (tensor<8x3072xbf16>, tensor<8xi32>, tensor<2080374784xi8>, tensor<134412674816xi8>) -> (tensor<8x3072xbf16>, tensor<2080374784xi8>)
    %h_l28, %kv_l28 = "stablehlo.custom_call"(%h_l27, %positions, %kv_l27, %weight_arena) {
      call_target_name = "rvllm.m2.decode_layer.fused_attention_nvfp4_moe",
      backend_config = "target=rvllm.m2.decode_layer.fused_attention_nvfp4_moe;custom_call_abi=m2_decode_layer_v1;layer=28;batch=8;ctx=2048;kv_dtype=i8;kv_cache_bytes=2080374784;hidden=3072;num_q_heads=48;num_kv_heads=8;head_dim=128;rotary_dim=64;top_k=8;expert_count=256;nvfp4_group=16;weight_arena=flat_i8_offsets;weight_arena_bytes=134412674816;weight_arena_alignment=128;weight_arena_dense_offsets=input_norm,post_attention_norm,q_proj,k_proj,v_proj,o_proj,q_norm,k_norm,router,router_bias;input_norm_offset=62050649344;post_attention_norm_offset=62050655488;q_proj_offset=62050661632;k_proj_offset=62088410368;v_proj_offset=62094701824;o_proj_offset=62100993280;q_norm_offset=62138742016;k_norm_offset=62138742272;router_offset=62138742528;router_bias_offset=62140315392;w1_first_packed_offset=62140315904;w1_first_scale_offset=62142675200;w1_first_global_scale_offset=62142970112;w1_first_input_scale_offset=62142970240;w2_first_packed_offset=62142970368;w3_first_packed_offset=62145624832;w3_last_packed_offset=64176289792;input_scales_missing=0;expert_directory=packed_i64_offsets;expert_directory_cols=13;expert_directory_first=[0,62140315904,62142675200,62142970112,62142970240,62142970368,62145329664,62145624576,62145624704,62145624832,62147984128,62148279040,62148279168];expert_directory_last=[255,64170980864,64173340160,64173635072,64173635200,64173635328,64175994624,64176289536,64176289664,64176289792,64178649088,64178944000,64178944128];dispatch=fused_attention_topk_nvfp4_moe;lowering=rust_xla_custom_call",
      called_computations = [],
      has_side_effect = false,
      api_version = 2 : i32
    } : (tensor<8x3072xbf16>, tensor<8xi32>, tensor<2080374784xi8>, tensor<134412674816xi8>) -> (tensor<8x3072xbf16>, tensor<2080374784xi8>)
    %h_l29, %kv_l29 = "stablehlo.custom_call"(%h_l28, %positions, %kv_l28, %weight_arena) {
      call_target_name = "rvllm.m2.decode_layer.fused_attention_nvfp4_moe",
      backend_config = "target=rvllm.m2.decode_layer.fused_attention_nvfp4_moe;custom_call_abi=m2_decode_layer_v1;layer=29;batch=8;ctx=2048;kv_dtype=i8;kv_cache_bytes=2080374784;hidden=3072;num_q_heads=48;num_kv_heads=8;head_dim=128;rotary_dim=64;top_k=8;expert_count=256;nvfp4_group=16;weight_arena=flat_i8_offsets;weight_arena_bytes=134412674816;weight_arena_alignment=128;weight_arena_dense_offsets=input_norm,post_attention_norm,q_proj,k_proj,v_proj,o_proj,q_norm,k_norm,router,router_bias;input_norm_offset=64178944256;post_attention_norm_offset=64178950400;q_proj_offset=64178956544;k_proj_offset=64216705280;v_proj_offset=64222996736;o_proj_offset=64229288192;q_norm_offset=64267036928;k_norm_offset=64267037184;router_offset=64267037440;router_bias_offset=64268610304;w1_first_packed_offset=64268610816;w1_first_scale_offset=64270970112;w1_first_global_scale_offset=64271265024;w1_first_input_scale_offset=64271265152;w2_first_packed_offset=64271265280;w3_first_packed_offset=64273919744;w3_last_packed_offset=66304584704;input_scales_missing=0;expert_directory=packed_i64_offsets;expert_directory_cols=13;expert_directory_first=[0,64268610816,64270970112,64271265024,64271265152,64271265280,64273624576,64273919488,64273919616,64273919744,64276279040,64276573952,64276574080];expert_directory_last=[255,66299275776,66301635072,66301929984,66301930112,66301930240,66304289536,66304584448,66304584576,66304584704,66306944000,66307238912,66307239040];dispatch=fused_attention_topk_nvfp4_moe;lowering=rust_xla_custom_call",
      called_computations = [],
      has_side_effect = false,
      api_version = 2 : i32
    } : (tensor<8x3072xbf16>, tensor<8xi32>, tensor<2080374784xi8>, tensor<134412674816xi8>) -> (tensor<8x3072xbf16>, tensor<2080374784xi8>)
    %h_l30, %kv_l30 = "stablehlo.custom_call"(%h_l29, %positions, %kv_l29, %weight_arena) {
      call_target_name = "rvllm.m2.decode_layer.fused_attention_nvfp4_moe",
      backend_config = "target=rvllm.m2.decode_layer.fused_attention_nvfp4_moe;custom_call_abi=m2_decode_layer_v1;layer=30;batch=8;ctx=2048;kv_dtype=i8;kv_cache_bytes=2080374784;hidden=3072;num_q_heads=48;num_kv_heads=8;head_dim=128;rotary_dim=64;top_k=8;expert_count=256;nvfp4_group=16;weight_arena=flat_i8_offsets;weight_arena_bytes=134412674816;weight_arena_alignment=128;weight_arena_dense_offsets=input_norm,post_attention_norm,q_proj,k_proj,v_proj,o_proj,q_norm,k_norm,router,router_bias;input_norm_offset=66307239168;post_attention_norm_offset=66307245312;q_proj_offset=66307251456;k_proj_offset=66345000192;v_proj_offset=66351291648;o_proj_offset=66357583104;q_norm_offset=66395331840;k_norm_offset=66395332096;router_offset=66395332352;router_bias_offset=66396905216;w1_first_packed_offset=66396905728;w1_first_scale_offset=66399265024;w1_first_global_scale_offset=66399559936;w1_first_input_scale_offset=66399560064;w2_first_packed_offset=66399560192;w3_first_packed_offset=66402214656;w3_last_packed_offset=68432879616;input_scales_missing=0;expert_directory=packed_i64_offsets;expert_directory_cols=13;expert_directory_first=[0,66396905728,66399265024,66399559936,66399560064,66399560192,66401919488,66402214400,66402214528,66402214656,66404573952,66404868864,66404868992];expert_directory_last=[255,68427570688,68429929984,68430224896,68430225024,68430225152,68432584448,68432879360,68432879488,68432879616,68435238912,68435533824,68435533952];dispatch=fused_attention_topk_nvfp4_moe;lowering=rust_xla_custom_call",
      called_computations = [],
      has_side_effect = false,
      api_version = 2 : i32
    } : (tensor<8x3072xbf16>, tensor<8xi32>, tensor<2080374784xi8>, tensor<134412674816xi8>) -> (tensor<8x3072xbf16>, tensor<2080374784xi8>)
    %h_l31, %kv_l31 = "stablehlo.custom_call"(%h_l30, %positions, %kv_l30, %weight_arena) {
      call_target_name = "rvllm.m2.decode_layer.fused_attention_nvfp4_moe",
      backend_config = "target=rvllm.m2.decode_layer.fused_attention_nvfp4_moe;custom_call_abi=m2_decode_layer_v1;layer=31;batch=8;ctx=2048;kv_dtype=i8;kv_cache_bytes=2080374784;hidden=3072;num_q_heads=48;num_kv_heads=8;head_dim=128;rotary_dim=64;top_k=8;expert_count=256;nvfp4_group=16;weight_arena=flat_i8_offsets;weight_arena_bytes=134412674816;weight_arena_alignment=128;weight_arena_dense_offsets=input_norm,post_attention_norm,q_proj,k_proj,v_proj,o_proj,q_norm,k_norm,router,router_bias;input_norm_offset=68435534080;post_attention_norm_offset=68435540224;q_proj_offset=68435546368;k_proj_offset=68473295104;v_proj_offset=68479586560;o_proj_offset=68485878016;q_norm_offset=68523626752;k_norm_offset=68523627008;router_offset=68523627264;router_bias_offset=68525200128;w1_first_packed_offset=68525200640;w1_first_scale_offset=68527559936;w1_first_global_scale_offset=68527854848;w1_first_input_scale_offset=68527854976;w2_first_packed_offset=68527855104;w3_first_packed_offset=68530509568;w3_last_packed_offset=70561174528;input_scales_missing=0;expert_directory=packed_i64_offsets;expert_directory_cols=13;expert_directory_first=[0,68525200640,68527559936,68527854848,68527854976,68527855104,68530214400,68530509312,68530509440,68530509568,68532868864,68533163776,68533163904];expert_directory_last=[255,70555865600,70558224896,70558519808,70558519936,70558520064,70560879360,70561174272,70561174400,70561174528,70563533824,70563828736,70563828864];dispatch=fused_attention_topk_nvfp4_moe;lowering=rust_xla_custom_call",
      called_computations = [],
      has_side_effect = false,
      api_version = 2 : i32
    } : (tensor<8x3072xbf16>, tensor<8xi32>, tensor<2080374784xi8>, tensor<134412674816xi8>) -> (tensor<8x3072xbf16>, tensor<2080374784xi8>)
    %h_l32, %kv_l32 = "stablehlo.custom_call"(%h_l31, %positions, %kv_l31, %weight_arena) {
      call_target_name = "rvllm.m2.decode_layer.fused_attention_nvfp4_moe",
      backend_config = "target=rvllm.m2.decode_layer.fused_attention_nvfp4_moe;custom_call_abi=m2_decode_layer_v1;layer=32;batch=8;ctx=2048;kv_dtype=i8;kv_cache_bytes=2080374784;hidden=3072;num_q_heads=48;num_kv_heads=8;head_dim=128;rotary_dim=64;top_k=8;expert_count=256;nvfp4_group=16;weight_arena=flat_i8_offsets;weight_arena_bytes=134412674816;weight_arena_alignment=128;weight_arena_dense_offsets=input_norm,post_attention_norm,q_proj,k_proj,v_proj,o_proj,q_norm,k_norm,router,router_bias;input_norm_offset=70563828992;post_attention_norm_offset=70563835136;q_proj_offset=70563841280;k_proj_offset=70601590016;v_proj_offset=70607881472;o_proj_offset=70614172928;q_norm_offset=70651921664;k_norm_offset=70651921920;router_offset=70651922176;router_bias_offset=70653495040;w1_first_packed_offset=70653495552;w1_first_scale_offset=70655854848;w1_first_global_scale_offset=70656149760;w1_first_input_scale_offset=70656149888;w2_first_packed_offset=70656150016;w3_first_packed_offset=70658804480;w3_last_packed_offset=72689469440;input_scales_missing=0;expert_directory=packed_i64_offsets;expert_directory_cols=13;expert_directory_first=[0,70653495552,70655854848,70656149760,70656149888,70656150016,70658509312,70658804224,70658804352,70658804480,70661163776,70661458688,70661458816];expert_directory_last=[255,72684160512,72686519808,72686814720,72686814848,72686814976,72689174272,72689469184,72689469312,72689469440,72691828736,72692123648,72692123776];dispatch=fused_attention_topk_nvfp4_moe;lowering=rust_xla_custom_call",
      called_computations = [],
      has_side_effect = false,
      api_version = 2 : i32
    } : (tensor<8x3072xbf16>, tensor<8xi32>, tensor<2080374784xi8>, tensor<134412674816xi8>) -> (tensor<8x3072xbf16>, tensor<2080374784xi8>)
    %h_l33, %kv_l33 = "stablehlo.custom_call"(%h_l32, %positions, %kv_l32, %weight_arena) {
      call_target_name = "rvllm.m2.decode_layer.fused_attention_nvfp4_moe",
      backend_config = "target=rvllm.m2.decode_layer.fused_attention_nvfp4_moe;custom_call_abi=m2_decode_layer_v1;layer=33;batch=8;ctx=2048;kv_dtype=i8;kv_cache_bytes=2080374784;hidden=3072;num_q_heads=48;num_kv_heads=8;head_dim=128;rotary_dim=64;top_k=8;expert_count=256;nvfp4_group=16;weight_arena=flat_i8_offsets;weight_arena_bytes=134412674816;weight_arena_alignment=128;weight_arena_dense_offsets=input_norm,post_attention_norm,q_proj,k_proj,v_proj,o_proj,q_norm,k_norm,router,router_bias;input_norm_offset=72692123904;post_attention_norm_offset=72692130048;q_proj_offset=72692136192;k_proj_offset=72729884928;v_proj_offset=72736176384;o_proj_offset=72742467840;q_norm_offset=72780216576;k_norm_offset=72780216832;router_offset=72780217088;router_bias_offset=72781789952;w1_first_packed_offset=72781790464;w1_first_scale_offset=72784149760;w1_first_global_scale_offset=72784444672;w1_first_input_scale_offset=72784444800;w2_first_packed_offset=72784444928;w3_first_packed_offset=72787099392;w3_last_packed_offset=74817764352;input_scales_missing=0;expert_directory=packed_i64_offsets;expert_directory_cols=13;expert_directory_first=[0,72781790464,72784149760,72784444672,72784444800,72784444928,72786804224,72787099136,72787099264,72787099392,72789458688,72789753600,72789753728];expert_directory_last=[255,74812455424,74814814720,74815109632,74815109760,74815109888,74817469184,74817764096,74817764224,74817764352,74820123648,74820418560,74820418688];dispatch=fused_attention_topk_nvfp4_moe;lowering=rust_xla_custom_call",
      called_computations = [],
      has_side_effect = false,
      api_version = 2 : i32
    } : (tensor<8x3072xbf16>, tensor<8xi32>, tensor<2080374784xi8>, tensor<134412674816xi8>) -> (tensor<8x3072xbf16>, tensor<2080374784xi8>)
    %h_l34, %kv_l34 = "stablehlo.custom_call"(%h_l33, %positions, %kv_l33, %weight_arena) {
      call_target_name = "rvllm.m2.decode_layer.fused_attention_nvfp4_moe",
      backend_config = "target=rvllm.m2.decode_layer.fused_attention_nvfp4_moe;custom_call_abi=m2_decode_layer_v1;layer=34;batch=8;ctx=2048;kv_dtype=i8;kv_cache_bytes=2080374784;hidden=3072;num_q_heads=48;num_kv_heads=8;head_dim=128;rotary_dim=64;top_k=8;expert_count=256;nvfp4_group=16;weight_arena=flat_i8_offsets;weight_arena_bytes=134412674816;weight_arena_alignment=128;weight_arena_dense_offsets=input_norm,post_attention_norm,q_proj,k_proj,v_proj,o_proj,q_norm,k_norm,router,router_bias;input_norm_offset=74820418816;post_attention_norm_offset=74820424960;q_proj_offset=74820431104;k_proj_offset=74858179840;v_proj_offset=74864471296;o_proj_offset=74870762752;q_norm_offset=74908511488;k_norm_offset=74908511744;router_offset=74908512000;router_bias_offset=74910084864;w1_first_packed_offset=74910085376;w1_first_scale_offset=74912444672;w1_first_global_scale_offset=74912739584;w1_first_input_scale_offset=74912739712;w2_first_packed_offset=74912739840;w3_first_packed_offset=74915394304;w3_last_packed_offset=76946059264;input_scales_missing=0;expert_directory=packed_i64_offsets;expert_directory_cols=13;expert_directory_first=[0,74910085376,74912444672,74912739584,74912739712,74912739840,74915099136,74915394048,74915394176,74915394304,74917753600,74918048512,74918048640];expert_directory_last=[255,76940750336,76943109632,76943404544,76943404672,76943404800,76945764096,76946059008,76946059136,76946059264,76948418560,76948713472,76948713600];dispatch=fused_attention_topk_nvfp4_moe;lowering=rust_xla_custom_call",
      called_computations = [],
      has_side_effect = false,
      api_version = 2 : i32
    } : (tensor<8x3072xbf16>, tensor<8xi32>, tensor<2080374784xi8>, tensor<134412674816xi8>) -> (tensor<8x3072xbf16>, tensor<2080374784xi8>)
    %h_l35, %kv_l35 = "stablehlo.custom_call"(%h_l34, %positions, %kv_l34, %weight_arena) {
      call_target_name = "rvllm.m2.decode_layer.fused_attention_nvfp4_moe",
      backend_config = "target=rvllm.m2.decode_layer.fused_attention_nvfp4_moe;custom_call_abi=m2_decode_layer_v1;layer=35;batch=8;ctx=2048;kv_dtype=i8;kv_cache_bytes=2080374784;hidden=3072;num_q_heads=48;num_kv_heads=8;head_dim=128;rotary_dim=64;top_k=8;expert_count=256;nvfp4_group=16;weight_arena=flat_i8_offsets;weight_arena_bytes=134412674816;weight_arena_alignment=128;weight_arena_dense_offsets=input_norm,post_attention_norm,q_proj,k_proj,v_proj,o_proj,q_norm,k_norm,router,router_bias;input_norm_offset=76948713728;post_attention_norm_offset=76948719872;q_proj_offset=76948726016;k_proj_offset=76986474752;v_proj_offset=76992766208;o_proj_offset=76999057664;q_norm_offset=77036806400;k_norm_offset=77036806656;router_offset=77036806912;router_bias_offset=77038379776;w1_first_packed_offset=77038380288;w1_first_scale_offset=77040739584;w1_first_global_scale_offset=77041034496;w1_first_input_scale_offset=77041034624;w2_first_packed_offset=77041034752;w3_first_packed_offset=77043689216;w3_last_packed_offset=79074354176;input_scales_missing=0;expert_directory=packed_i64_offsets;expert_directory_cols=13;expert_directory_first=[0,77038380288,77040739584,77041034496,77041034624,77041034752,77043394048,77043688960,77043689088,77043689216,77046048512,77046343424,77046343552];expert_directory_last=[255,79069045248,79071404544,79071699456,79071699584,79071699712,79074059008,79074353920,79074354048,79074354176,79076713472,79077008384,79077008512];dispatch=fused_attention_topk_nvfp4_moe;lowering=rust_xla_custom_call",
      called_computations = [],
      has_side_effect = false,
      api_version = 2 : i32
    } : (tensor<8x3072xbf16>, tensor<8xi32>, tensor<2080374784xi8>, tensor<134412674816xi8>) -> (tensor<8x3072xbf16>, tensor<2080374784xi8>)
    %h_l36, %kv_l36 = "stablehlo.custom_call"(%h_l35, %positions, %kv_l35, %weight_arena) {
      call_target_name = "rvllm.m2.decode_layer.fused_attention_nvfp4_moe",
      backend_config = "target=rvllm.m2.decode_layer.fused_attention_nvfp4_moe;custom_call_abi=m2_decode_layer_v1;layer=36;batch=8;ctx=2048;kv_dtype=i8;kv_cache_bytes=2080374784;hidden=3072;num_q_heads=48;num_kv_heads=8;head_dim=128;rotary_dim=64;top_k=8;expert_count=256;nvfp4_group=16;weight_arena=flat_i8_offsets;weight_arena_bytes=134412674816;weight_arena_alignment=128;weight_arena_dense_offsets=input_norm,post_attention_norm,q_proj,k_proj,v_proj,o_proj,q_norm,k_norm,router,router_bias;input_norm_offset=79077008640;post_attention_norm_offset=79077014784;q_proj_offset=79077020928;k_proj_offset=79114769664;v_proj_offset=79121061120;o_proj_offset=79127352576;q_norm_offset=79165101312;k_norm_offset=79165101568;router_offset=79165101824;router_bias_offset=79166674688;w1_first_packed_offset=79166675200;w1_first_scale_offset=79169034496;w1_first_global_scale_offset=79169329408;w1_first_input_scale_offset=79169329536;w2_first_packed_offset=79169329664;w3_first_packed_offset=79171984128;w3_last_packed_offset=81202649088;input_scales_missing=0;expert_directory=packed_i64_offsets;expert_directory_cols=13;expert_directory_first=[0,79166675200,79169034496,79169329408,79169329536,79169329664,79171688960,79171983872,79171984000,79171984128,79174343424,79174638336,79174638464];expert_directory_last=[255,81197340160,81199699456,81199994368,81199994496,81199994624,81202353920,81202648832,81202648960,81202649088,81205008384,81205303296,81205303424];dispatch=fused_attention_topk_nvfp4_moe;lowering=rust_xla_custom_call",
      called_computations = [],
      has_side_effect = false,
      api_version = 2 : i32
    } : (tensor<8x3072xbf16>, tensor<8xi32>, tensor<2080374784xi8>, tensor<134412674816xi8>) -> (tensor<8x3072xbf16>, tensor<2080374784xi8>)
    %h_l37, %kv_l37 = "stablehlo.custom_call"(%h_l36, %positions, %kv_l36, %weight_arena) {
      call_target_name = "rvllm.m2.decode_layer.fused_attention_nvfp4_moe",
      backend_config = "target=rvllm.m2.decode_layer.fused_attention_nvfp4_moe;custom_call_abi=m2_decode_layer_v1;layer=37;batch=8;ctx=2048;kv_dtype=i8;kv_cache_bytes=2080374784;hidden=3072;num_q_heads=48;num_kv_heads=8;head_dim=128;rotary_dim=64;top_k=8;expert_count=256;nvfp4_group=16;weight_arena=flat_i8_offsets;weight_arena_bytes=134412674816;weight_arena_alignment=128;weight_arena_dense_offsets=input_norm,post_attention_norm,q_proj,k_proj,v_proj,o_proj,q_norm,k_norm,router,router_bias;input_norm_offset=81205303552;post_attention_norm_offset=81205309696;q_proj_offset=81205315840;k_proj_offset=81243064576;v_proj_offset=81249356032;o_proj_offset=81255647488;q_norm_offset=81293396224;k_norm_offset=81293396480;router_offset=81293396736;router_bias_offset=81294969600;w1_first_packed_offset=81294970112;w1_first_scale_offset=81297329408;w1_first_global_scale_offset=81297624320;w1_first_input_scale_offset=81297624448;w2_first_packed_offset=81297624576;w3_first_packed_offset=81300279040;w3_last_packed_offset=83330944000;input_scales_missing=0;expert_directory=packed_i64_offsets;expert_directory_cols=13;expert_directory_first=[0,81294970112,81297329408,81297624320,81297624448,81297624576,81299983872,81300278784,81300278912,81300279040,81302638336,81302933248,81302933376];expert_directory_last=[255,83325635072,83327994368,83328289280,83328289408,83328289536,83330648832,83330943744,83330943872,83330944000,83333303296,83333598208,83333598336];dispatch=fused_attention_topk_nvfp4_moe;lowering=rust_xla_custom_call",
      called_computations = [],
      has_side_effect = false,
      api_version = 2 : i32
    } : (tensor<8x3072xbf16>, tensor<8xi32>, tensor<2080374784xi8>, tensor<134412674816xi8>) -> (tensor<8x3072xbf16>, tensor<2080374784xi8>)
    %h_l38, %kv_l38 = "stablehlo.custom_call"(%h_l37, %positions, %kv_l37, %weight_arena) {
      call_target_name = "rvllm.m2.decode_layer.fused_attention_nvfp4_moe",
      backend_config = "target=rvllm.m2.decode_layer.fused_attention_nvfp4_moe;custom_call_abi=m2_decode_layer_v1;layer=38;batch=8;ctx=2048;kv_dtype=i8;kv_cache_bytes=2080374784;hidden=3072;num_q_heads=48;num_kv_heads=8;head_dim=128;rotary_dim=64;top_k=8;expert_count=256;nvfp4_group=16;weight_arena=flat_i8_offsets;weight_arena_bytes=134412674816;weight_arena_alignment=128;weight_arena_dense_offsets=input_norm,post_attention_norm,q_proj,k_proj,v_proj,o_proj,q_norm,k_norm,router,router_bias;input_norm_offset=83333598464;post_attention_norm_offset=83333604608;q_proj_offset=83333610752;k_proj_offset=83371359488;v_proj_offset=83377650944;o_proj_offset=83383942400;q_norm_offset=83421691136;k_norm_offset=83421691392;router_offset=83421691648;router_bias_offset=83423264512;w1_first_packed_offset=83423265024;w1_first_scale_offset=83425624320;w1_first_global_scale_offset=83425919232;w1_first_input_scale_offset=83425919360;w2_first_packed_offset=83425919488;w3_first_packed_offset=83428573952;w3_last_packed_offset=85459238912;input_scales_missing=0;expert_directory=packed_i64_offsets;expert_directory_cols=13;expert_directory_first=[0,83423265024,83425624320,83425919232,83425919360,83425919488,83428278784,83428573696,83428573824,83428573952,83430933248,83431228160,83431228288];expert_directory_last=[255,85453929984,85456289280,85456584192,85456584320,85456584448,85458943744,85459238656,85459238784,85459238912,85461598208,85461893120,85461893248];dispatch=fused_attention_topk_nvfp4_moe;lowering=rust_xla_custom_call",
      called_computations = [],
      has_side_effect = false,
      api_version = 2 : i32
    } : (tensor<8x3072xbf16>, tensor<8xi32>, tensor<2080374784xi8>, tensor<134412674816xi8>) -> (tensor<8x3072xbf16>, tensor<2080374784xi8>)
    %h_l39, %kv_l39 = "stablehlo.custom_call"(%h_l38, %positions, %kv_l38, %weight_arena) {
      call_target_name = "rvllm.m2.decode_layer.fused_attention_nvfp4_moe",
      backend_config = "target=rvllm.m2.decode_layer.fused_attention_nvfp4_moe;custom_call_abi=m2_decode_layer_v1;layer=39;batch=8;ctx=2048;kv_dtype=i8;kv_cache_bytes=2080374784;hidden=3072;num_q_heads=48;num_kv_heads=8;head_dim=128;rotary_dim=64;top_k=8;expert_count=256;nvfp4_group=16;weight_arena=flat_i8_offsets;weight_arena_bytes=134412674816;weight_arena_alignment=128;weight_arena_dense_offsets=input_norm,post_attention_norm,q_proj,k_proj,v_proj,o_proj,q_norm,k_norm,router,router_bias;input_norm_offset=85461893376;post_attention_norm_offset=85461899520;q_proj_offset=85461905664;k_proj_offset=85499654400;v_proj_offset=85505945856;o_proj_offset=85512237312;q_norm_offset=85549986048;k_norm_offset=85549986304;router_offset=85549986560;router_bias_offset=85551559424;w1_first_packed_offset=85551559936;w1_first_scale_offset=85553919232;w1_first_global_scale_offset=85554214144;w1_first_input_scale_offset=85554214272;w2_first_packed_offset=85554214400;w3_first_packed_offset=85556868864;w3_last_packed_offset=87587533824;input_scales_missing=0;expert_directory=packed_i64_offsets;expert_directory_cols=13;expert_directory_first=[0,85551559936,85553919232,85554214144,85554214272,85554214400,85556573696,85556868608,85556868736,85556868864,85559228160,85559523072,85559523200];expert_directory_last=[255,87582224896,87584584192,87584879104,87584879232,87584879360,87587238656,87587533568,87587533696,87587533824,87589893120,87590188032,87590188160];dispatch=fused_attention_topk_nvfp4_moe;lowering=rust_xla_custom_call",
      called_computations = [],
      has_side_effect = false,
      api_version = 2 : i32
    } : (tensor<8x3072xbf16>, tensor<8xi32>, tensor<2080374784xi8>, tensor<134412674816xi8>) -> (tensor<8x3072xbf16>, tensor<2080374784xi8>)
    %h_l40, %kv_l40 = "stablehlo.custom_call"(%h_l39, %positions, %kv_l39, %weight_arena) {
      call_target_name = "rvllm.m2.decode_layer.fused_attention_nvfp4_moe",
      backend_config = "target=rvllm.m2.decode_layer.fused_attention_nvfp4_moe;custom_call_abi=m2_decode_layer_v1;layer=40;batch=8;ctx=2048;kv_dtype=i8;kv_cache_bytes=2080374784;hidden=3072;num_q_heads=48;num_kv_heads=8;head_dim=128;rotary_dim=64;top_k=8;expert_count=256;nvfp4_group=16;weight_arena=flat_i8_offsets;weight_arena_bytes=134412674816;weight_arena_alignment=128;weight_arena_dense_offsets=input_norm,post_attention_norm,q_proj,k_proj,v_proj,o_proj,q_norm,k_norm,router,router_bias;input_norm_offset=87590188288;post_attention_norm_offset=87590194432;q_proj_offset=87590200576;k_proj_offset=87627949312;v_proj_offset=87634240768;o_proj_offset=87640532224;q_norm_offset=87678280960;k_norm_offset=87678281216;router_offset=87678281472;router_bias_offset=87679854336;w1_first_packed_offset=87679854848;w1_first_scale_offset=87682214144;w1_first_global_scale_offset=87682509056;w1_first_input_scale_offset=87682509184;w2_first_packed_offset=87682509312;w3_first_packed_offset=87685163776;w3_last_packed_offset=89715828736;input_scales_missing=0;expert_directory=packed_i64_offsets;expert_directory_cols=13;expert_directory_first=[0,87679854848,87682214144,87682509056,87682509184,87682509312,87684868608,87685163520,87685163648,87685163776,87687523072,87687817984,87687818112];expert_directory_last=[255,89710519808,89712879104,89713174016,89713174144,89713174272,89715533568,89715828480,89715828608,89715828736,89718188032,89718482944,89718483072];dispatch=fused_attention_topk_nvfp4_moe;lowering=rust_xla_custom_call",
      called_computations = [],
      has_side_effect = false,
      api_version = 2 : i32
    } : (tensor<8x3072xbf16>, tensor<8xi32>, tensor<2080374784xi8>, tensor<134412674816xi8>) -> (tensor<8x3072xbf16>, tensor<2080374784xi8>)
    %h_l41, %kv_l41 = "stablehlo.custom_call"(%h_l40, %positions, %kv_l40, %weight_arena) {
      call_target_name = "rvllm.m2.decode_layer.fused_attention_nvfp4_moe",
      backend_config = "target=rvllm.m2.decode_layer.fused_attention_nvfp4_moe;custom_call_abi=m2_decode_layer_v1;layer=41;batch=8;ctx=2048;kv_dtype=i8;kv_cache_bytes=2080374784;hidden=3072;num_q_heads=48;num_kv_heads=8;head_dim=128;rotary_dim=64;top_k=8;expert_count=256;nvfp4_group=16;weight_arena=flat_i8_offsets;weight_arena_bytes=134412674816;weight_arena_alignment=128;weight_arena_dense_offsets=input_norm,post_attention_norm,q_proj,k_proj,v_proj,o_proj,q_norm,k_norm,router,router_bias;input_norm_offset=89718483200;post_attention_norm_offset=89718489344;q_proj_offset=89718495488;k_proj_offset=89756244224;v_proj_offset=89762535680;o_proj_offset=89768827136;q_norm_offset=89806575872;k_norm_offset=89806576128;router_offset=89806576384;router_bias_offset=89808149248;w1_first_packed_offset=89808149760;w1_first_scale_offset=89810509056;w1_first_global_scale_offset=89810803968;w1_first_input_scale_offset=89810804096;w2_first_packed_offset=89810804224;w3_first_packed_offset=89813458688;w3_last_packed_offset=91844123648;input_scales_missing=0;expert_directory=packed_i64_offsets;expert_directory_cols=13;expert_directory_first=[0,89808149760,89810509056,89810803968,89810804096,89810804224,89813163520,89813458432,89813458560,89813458688,89815817984,89816112896,89816113024];expert_directory_last=[255,91838814720,91841174016,91841468928,91841469056,91841469184,91843828480,91844123392,91844123520,91844123648,91846482944,91846777856,91846777984];dispatch=fused_attention_topk_nvfp4_moe;lowering=rust_xla_custom_call",
      called_computations = [],
      has_side_effect = false,
      api_version = 2 : i32
    } : (tensor<8x3072xbf16>, tensor<8xi32>, tensor<2080374784xi8>, tensor<134412674816xi8>) -> (tensor<8x3072xbf16>, tensor<2080374784xi8>)
    %h_l42, %kv_l42 = "stablehlo.custom_call"(%h_l41, %positions, %kv_l41, %weight_arena) {
      call_target_name = "rvllm.m2.decode_layer.fused_attention_nvfp4_moe",
      backend_config = "target=rvllm.m2.decode_layer.fused_attention_nvfp4_moe;custom_call_abi=m2_decode_layer_v1;layer=42;batch=8;ctx=2048;kv_dtype=i8;kv_cache_bytes=2080374784;hidden=3072;num_q_heads=48;num_kv_heads=8;head_dim=128;rotary_dim=64;top_k=8;expert_count=256;nvfp4_group=16;weight_arena=flat_i8_offsets;weight_arena_bytes=134412674816;weight_arena_alignment=128;weight_arena_dense_offsets=input_norm,post_attention_norm,q_proj,k_proj,v_proj,o_proj,q_norm,k_norm,router,router_bias;input_norm_offset=91846778112;post_attention_norm_offset=91846784256;q_proj_offset=91846790400;k_proj_offset=91884539136;v_proj_offset=91890830592;o_proj_offset=91897122048;q_norm_offset=91934870784;k_norm_offset=91934871040;router_offset=91934871296;router_bias_offset=91936444160;w1_first_packed_offset=91936444672;w1_first_scale_offset=91938803968;w1_first_global_scale_offset=91939098880;w1_first_input_scale_offset=91939099008;w2_first_packed_offset=91939099136;w3_first_packed_offset=91941753600;w3_last_packed_offset=93972418560;input_scales_missing=0;expert_directory=packed_i64_offsets;expert_directory_cols=13;expert_directory_first=[0,91936444672,91938803968,91939098880,91939099008,91939099136,91941458432,91941753344,91941753472,91941753600,91944112896,91944407808,91944407936];expert_directory_last=[255,93967109632,93969468928,93969763840,93969763968,93969764096,93972123392,93972418304,93972418432,93972418560,93974777856,93975072768,93975072896];dispatch=fused_attention_topk_nvfp4_moe;lowering=rust_xla_custom_call",
      called_computations = [],
      has_side_effect = false,
      api_version = 2 : i32
    } : (tensor<8x3072xbf16>, tensor<8xi32>, tensor<2080374784xi8>, tensor<134412674816xi8>) -> (tensor<8x3072xbf16>, tensor<2080374784xi8>)
    %h_l43, %kv_l43 = "stablehlo.custom_call"(%h_l42, %positions, %kv_l42, %weight_arena) {
      call_target_name = "rvllm.m2.decode_layer.fused_attention_nvfp4_moe",
      backend_config = "target=rvllm.m2.decode_layer.fused_attention_nvfp4_moe;custom_call_abi=m2_decode_layer_v1;layer=43;batch=8;ctx=2048;kv_dtype=i8;kv_cache_bytes=2080374784;hidden=3072;num_q_heads=48;num_kv_heads=8;head_dim=128;rotary_dim=64;top_k=8;expert_count=256;nvfp4_group=16;weight_arena=flat_i8_offsets;weight_arena_bytes=134412674816;weight_arena_alignment=128;weight_arena_dense_offsets=input_norm,post_attention_norm,q_proj,k_proj,v_proj,o_proj,q_norm,k_norm,router,router_bias;input_norm_offset=93975073024;post_attention_norm_offset=93975079168;q_proj_offset=93975085312;k_proj_offset=94012834048;v_proj_offset=94019125504;o_proj_offset=94025416960;q_norm_offset=94063165696;k_norm_offset=94063165952;router_offset=94063166208;router_bias_offset=94064739072;w1_first_packed_offset=94064739584;w1_first_scale_offset=94067098880;w1_first_global_scale_offset=94067393792;w1_first_input_scale_offset=94067393920;w2_first_packed_offset=94067394048;w3_first_packed_offset=94070048512;w3_last_packed_offset=96100713472;input_scales_missing=0;expert_directory=packed_i64_offsets;expert_directory_cols=13;expert_directory_first=[0,94064739584,94067098880,94067393792,94067393920,94067394048,94069753344,94070048256,94070048384,94070048512,94072407808,94072702720,94072702848];expert_directory_last=[255,96095404544,96097763840,96098058752,96098058880,96098059008,96100418304,96100713216,96100713344,96100713472,96103072768,96103367680,96103367808];dispatch=fused_attention_topk_nvfp4_moe;lowering=rust_xla_custom_call",
      called_computations = [],
      has_side_effect = false,
      api_version = 2 : i32
    } : (tensor<8x3072xbf16>, tensor<8xi32>, tensor<2080374784xi8>, tensor<134412674816xi8>) -> (tensor<8x3072xbf16>, tensor<2080374784xi8>)
    %h_l44, %kv_l44 = "stablehlo.custom_call"(%h_l43, %positions, %kv_l43, %weight_arena) {
      call_target_name = "rvllm.m2.decode_layer.fused_attention_nvfp4_moe",
      backend_config = "target=rvllm.m2.decode_layer.fused_attention_nvfp4_moe;custom_call_abi=m2_decode_layer_v1;layer=44;batch=8;ctx=2048;kv_dtype=i8;kv_cache_bytes=2080374784;hidden=3072;num_q_heads=48;num_kv_heads=8;head_dim=128;rotary_dim=64;top_k=8;expert_count=256;nvfp4_group=16;weight_arena=flat_i8_offsets;weight_arena_bytes=134412674816;weight_arena_alignment=128;weight_arena_dense_offsets=input_norm,post_attention_norm,q_proj,k_proj,v_proj,o_proj,q_norm,k_norm,router,router_bias;input_norm_offset=96103367936;post_attention_norm_offset=96103374080;q_proj_offset=96103380224;k_proj_offset=96141128960;v_proj_offset=96147420416;o_proj_offset=96153711872;q_norm_offset=96191460608;k_norm_offset=96191460864;router_offset=96191461120;router_bias_offset=96193033984;w1_first_packed_offset=96193034496;w1_first_scale_offset=96195393792;w1_first_global_scale_offset=96195688704;w1_first_input_scale_offset=96195688832;w2_first_packed_offset=96195688960;w3_first_packed_offset=96198343424;w3_last_packed_offset=98229008384;input_scales_missing=0;expert_directory=packed_i64_offsets;expert_directory_cols=13;expert_directory_first=[0,96193034496,96195393792,96195688704,96195688832,96195688960,96198048256,96198343168,96198343296,96198343424,96200702720,96200997632,96200997760];expert_directory_last=[255,98223699456,98226058752,98226353664,98226353792,98226353920,98228713216,98229008128,98229008256,98229008384,98231367680,98231662592,98231662720];dispatch=fused_attention_topk_nvfp4_moe;lowering=rust_xla_custom_call",
      called_computations = [],
      has_side_effect = false,
      api_version = 2 : i32
    } : (tensor<8x3072xbf16>, tensor<8xi32>, tensor<2080374784xi8>, tensor<134412674816xi8>) -> (tensor<8x3072xbf16>, tensor<2080374784xi8>)
    %h_l45, %kv_l45 = "stablehlo.custom_call"(%h_l44, %positions, %kv_l44, %weight_arena) {
      call_target_name = "rvllm.m2.decode_layer.fused_attention_nvfp4_moe",
      backend_config = "target=rvllm.m2.decode_layer.fused_attention_nvfp4_moe;custom_call_abi=m2_decode_layer_v1;layer=45;batch=8;ctx=2048;kv_dtype=i8;kv_cache_bytes=2080374784;hidden=3072;num_q_heads=48;num_kv_heads=8;head_dim=128;rotary_dim=64;top_k=8;expert_count=256;nvfp4_group=16;weight_arena=flat_i8_offsets;weight_arena_bytes=134412674816;weight_arena_alignment=128;weight_arena_dense_offsets=input_norm,post_attention_norm,q_proj,k_proj,v_proj,o_proj,q_norm,k_norm,router,router_bias;input_norm_offset=98231662848;post_attention_norm_offset=98231668992;q_proj_offset=98231675136;k_proj_offset=98269423872;v_proj_offset=98275715328;o_proj_offset=98282006784;q_norm_offset=98319755520;k_norm_offset=98319755776;router_offset=98319756032;router_bias_offset=98321328896;w1_first_packed_offset=98321329408;w1_first_scale_offset=98323688704;w1_first_global_scale_offset=98323983616;w1_first_input_scale_offset=98323983744;w2_first_packed_offset=98323983872;w3_first_packed_offset=98326638336;w3_last_packed_offset=100357303296;input_scales_missing=0;expert_directory=packed_i64_offsets;expert_directory_cols=13;expert_directory_first=[0,98321329408,98323688704,98323983616,98323983744,98323983872,98326343168,98326638080,98326638208,98326638336,98328997632,98329292544,98329292672];expert_directory_last=[255,100351994368,100354353664,100354648576,100354648704,100354648832,100357008128,100357303040,100357303168,100357303296,100359662592,100359957504,100359957632];dispatch=fused_attention_topk_nvfp4_moe;lowering=rust_xla_custom_call",
      called_computations = [],
      has_side_effect = false,
      api_version = 2 : i32
    } : (tensor<8x3072xbf16>, tensor<8xi32>, tensor<2080374784xi8>, tensor<134412674816xi8>) -> (tensor<8x3072xbf16>, tensor<2080374784xi8>)
    %h_l46, %kv_l46 = "stablehlo.custom_call"(%h_l45, %positions, %kv_l45, %weight_arena) {
      call_target_name = "rvllm.m2.decode_layer.fused_attention_nvfp4_moe",
      backend_config = "target=rvllm.m2.decode_layer.fused_attention_nvfp4_moe;custom_call_abi=m2_decode_layer_v1;layer=46;batch=8;ctx=2048;kv_dtype=i8;kv_cache_bytes=2080374784;hidden=3072;num_q_heads=48;num_kv_heads=8;head_dim=128;rotary_dim=64;top_k=8;expert_count=256;nvfp4_group=16;weight_arena=flat_i8_offsets;weight_arena_bytes=134412674816;weight_arena_alignment=128;weight_arena_dense_offsets=input_norm,post_attention_norm,q_proj,k_proj,v_proj,o_proj,q_norm,k_norm,router,router_bias;input_norm_offset=100359957760;post_attention_norm_offset=100359963904;q_proj_offset=100359970048;k_proj_offset=100397718784;v_proj_offset=100404010240;o_proj_offset=100410301696;q_norm_offset=100448050432;k_norm_offset=100448050688;router_offset=100448050944;router_bias_offset=100449623808;w1_first_packed_offset=100449624320;w1_first_scale_offset=100451983616;w1_first_global_scale_offset=100452278528;w1_first_input_scale_offset=100452278656;w2_first_packed_offset=100452278784;w3_first_packed_offset=100454933248;w3_last_packed_offset=102485598208;input_scales_missing=0;expert_directory=packed_i64_offsets;expert_directory_cols=13;expert_directory_first=[0,100449624320,100451983616,100452278528,100452278656,100452278784,100454638080,100454932992,100454933120,100454933248,100457292544,100457587456,100457587584];expert_directory_last=[255,102480289280,102482648576,102482943488,102482943616,102482943744,102485303040,102485597952,102485598080,102485598208,102487957504,102488252416,102488252544];dispatch=fused_attention_topk_nvfp4_moe;lowering=rust_xla_custom_call",
      called_computations = [],
      has_side_effect = false,
      api_version = 2 : i32
    } : (tensor<8x3072xbf16>, tensor<8xi32>, tensor<2080374784xi8>, tensor<134412674816xi8>) -> (tensor<8x3072xbf16>, tensor<2080374784xi8>)
    %h_l47, %kv_l47 = "stablehlo.custom_call"(%h_l46, %positions, %kv_l46, %weight_arena) {
      call_target_name = "rvllm.m2.decode_layer.fused_attention_nvfp4_moe",
      backend_config = "target=rvllm.m2.decode_layer.fused_attention_nvfp4_moe;custom_call_abi=m2_decode_layer_v1;layer=47;batch=8;ctx=2048;kv_dtype=i8;kv_cache_bytes=2080374784;hidden=3072;num_q_heads=48;num_kv_heads=8;head_dim=128;rotary_dim=64;top_k=8;expert_count=256;nvfp4_group=16;weight_arena=flat_i8_offsets;weight_arena_bytes=134412674816;weight_arena_alignment=128;weight_arena_dense_offsets=input_norm,post_attention_norm,q_proj,k_proj,v_proj,o_proj,q_norm,k_norm,router,router_bias;input_norm_offset=102488252672;post_attention_norm_offset=102488258816;q_proj_offset=102488264960;k_proj_offset=102526013696;v_proj_offset=102532305152;o_proj_offset=102538596608;q_norm_offset=102576345344;k_norm_offset=102576345600;router_offset=102576345856;router_bias_offset=102577918720;w1_first_packed_offset=102577919232;w1_first_scale_offset=102580278528;w1_first_global_scale_offset=102580573440;w1_first_input_scale_offset=102580573568;w2_first_packed_offset=102580573696;w3_first_packed_offset=102583228160;w3_last_packed_offset=104613893120;input_scales_missing=0;expert_directory=packed_i64_offsets;expert_directory_cols=13;expert_directory_first=[0,102577919232,102580278528,102580573440,102580573568,102580573696,102582932992,102583227904,102583228032,102583228160,102585587456,102585882368,102585882496];expert_directory_last=[255,104608584192,104610943488,104611238400,104611238528,104611238656,104613597952,104613892864,104613892992,104613893120,104616252416,104616547328,104616547456];dispatch=fused_attention_topk_nvfp4_moe;lowering=rust_xla_custom_call",
      called_computations = [],
      has_side_effect = false,
      api_version = 2 : i32
    } : (tensor<8x3072xbf16>, tensor<8xi32>, tensor<2080374784xi8>, tensor<134412674816xi8>) -> (tensor<8x3072xbf16>, tensor<2080374784xi8>)
    %h_l48, %kv_l48 = "stablehlo.custom_call"(%h_l47, %positions, %kv_l47, %weight_arena) {
      call_target_name = "rvllm.m2.decode_layer.fused_attention_nvfp4_moe",
      backend_config = "target=rvllm.m2.decode_layer.fused_attention_nvfp4_moe;custom_call_abi=m2_decode_layer_v1;layer=48;batch=8;ctx=2048;kv_dtype=i8;kv_cache_bytes=2080374784;hidden=3072;num_q_heads=48;num_kv_heads=8;head_dim=128;rotary_dim=64;top_k=8;expert_count=256;nvfp4_group=16;weight_arena=flat_i8_offsets;weight_arena_bytes=134412674816;weight_arena_alignment=128;weight_arena_dense_offsets=input_norm,post_attention_norm,q_proj,k_proj,v_proj,o_proj,q_norm,k_norm,router,router_bias;input_norm_offset=104616547584;post_attention_norm_offset=104616553728;q_proj_offset=104616559872;k_proj_offset=104654308608;v_proj_offset=104660600064;o_proj_offset=104666891520;q_norm_offset=104704640256;k_norm_offset=104704640512;router_offset=104704640768;router_bias_offset=104706213632;w1_first_packed_offset=104706214144;w1_first_scale_offset=104708573440;w1_first_global_scale_offset=104708868352;w1_first_input_scale_offset=104708868480;w2_first_packed_offset=104708868608;w3_first_packed_offset=104711523072;w3_last_packed_offset=106742188032;input_scales_missing=0;expert_directory=packed_i64_offsets;expert_directory_cols=13;expert_directory_first=[0,104706214144,104708573440,104708868352,104708868480,104708868608,104711227904,104711522816,104711522944,104711523072,104713882368,104714177280,104714177408];expert_directory_last=[255,106736879104,106739238400,106739533312,106739533440,106739533568,106741892864,106742187776,106742187904,106742188032,106744547328,106744842240,106744842368];dispatch=fused_attention_topk_nvfp4_moe;lowering=rust_xla_custom_call",
      called_computations = [],
      has_side_effect = false,
      api_version = 2 : i32
    } : (tensor<8x3072xbf16>, tensor<8xi32>, tensor<2080374784xi8>, tensor<134412674816xi8>) -> (tensor<8x3072xbf16>, tensor<2080374784xi8>)
    %h_l49, %kv_l49 = "stablehlo.custom_call"(%h_l48, %positions, %kv_l48, %weight_arena) {
      call_target_name = "rvllm.m2.decode_layer.fused_attention_nvfp4_moe",
      backend_config = "target=rvllm.m2.decode_layer.fused_attention_nvfp4_moe;custom_call_abi=m2_decode_layer_v1;layer=49;batch=8;ctx=2048;kv_dtype=i8;kv_cache_bytes=2080374784;hidden=3072;num_q_heads=48;num_kv_heads=8;head_dim=128;rotary_dim=64;top_k=8;expert_count=256;nvfp4_group=16;weight_arena=flat_i8_offsets;weight_arena_bytes=134412674816;weight_arena_alignment=128;weight_arena_dense_offsets=input_norm,post_attention_norm,q_proj,k_proj,v_proj,o_proj,q_norm,k_norm,router,router_bias;input_norm_offset=106744842496;post_attention_norm_offset=106744848640;q_proj_offset=106744854784;k_proj_offset=106782603520;v_proj_offset=106788894976;o_proj_offset=106795186432;q_norm_offset=106832935168;k_norm_offset=106832935424;router_offset=106832935680;router_bias_offset=106834508544;w1_first_packed_offset=106834509056;w1_first_scale_offset=106836868352;w1_first_global_scale_offset=106837163264;w1_first_input_scale_offset=106837163392;w2_first_packed_offset=106837163520;w3_first_packed_offset=106839817984;w3_last_packed_offset=108870482944;input_scales_missing=0;expert_directory=packed_i64_offsets;expert_directory_cols=13;expert_directory_first=[0,106834509056,106836868352,106837163264,106837163392,106837163520,106839522816,106839817728,106839817856,106839817984,106842177280,106842472192,106842472320];expert_directory_last=[255,108865174016,108867533312,108867828224,108867828352,108867828480,108870187776,108870482688,108870482816,108870482944,108872842240,108873137152,108873137280];dispatch=fused_attention_topk_nvfp4_moe;lowering=rust_xla_custom_call",
      called_computations = [],
      has_side_effect = false,
      api_version = 2 : i32
    } : (tensor<8x3072xbf16>, tensor<8xi32>, tensor<2080374784xi8>, tensor<134412674816xi8>) -> (tensor<8x3072xbf16>, tensor<2080374784xi8>)
    %h_l50, %kv_l50 = "stablehlo.custom_call"(%h_l49, %positions, %kv_l49, %weight_arena) {
      call_target_name = "rvllm.m2.decode_layer.fused_attention_nvfp4_moe",
      backend_config = "target=rvllm.m2.decode_layer.fused_attention_nvfp4_moe;custom_call_abi=m2_decode_layer_v1;layer=50;batch=8;ctx=2048;kv_dtype=i8;kv_cache_bytes=2080374784;hidden=3072;num_q_heads=48;num_kv_heads=8;head_dim=128;rotary_dim=64;top_k=8;expert_count=256;nvfp4_group=16;weight_arena=flat_i8_offsets;weight_arena_bytes=134412674816;weight_arena_alignment=128;weight_arena_dense_offsets=input_norm,post_attention_norm,q_proj,k_proj,v_proj,o_proj,q_norm,k_norm,router,router_bias;input_norm_offset=108873137408;post_attention_norm_offset=108873143552;q_proj_offset=108873149696;k_proj_offset=108910898432;v_proj_offset=108917189888;o_proj_offset=108923481344;q_norm_offset=108961230080;k_norm_offset=108961230336;router_offset=108961230592;router_bias_offset=108962803456;w1_first_packed_offset=108962803968;w1_first_scale_offset=108965163264;w1_first_global_scale_offset=108965458176;w1_first_input_scale_offset=108965458304;w2_first_packed_offset=108965458432;w3_first_packed_offset=108968112896;w3_last_packed_offset=110998777856;input_scales_missing=0;expert_directory=packed_i64_offsets;expert_directory_cols=13;expert_directory_first=[0,108962803968,108965163264,108965458176,108965458304,108965458432,108967817728,108968112640,108968112768,108968112896,108970472192,108970767104,108970767232];expert_directory_last=[255,110993468928,110995828224,110996123136,110996123264,110996123392,110998482688,110998777600,110998777728,110998777856,111001137152,111001432064,111001432192];dispatch=fused_attention_topk_nvfp4_moe;lowering=rust_xla_custom_call",
      called_computations = [],
      has_side_effect = false,
      api_version = 2 : i32
    } : (tensor<8x3072xbf16>, tensor<8xi32>, tensor<2080374784xi8>, tensor<134412674816xi8>) -> (tensor<8x3072xbf16>, tensor<2080374784xi8>)
    %h_l51, %kv_l51 = "stablehlo.custom_call"(%h_l50, %positions, %kv_l50, %weight_arena) {
      call_target_name = "rvllm.m2.decode_layer.fused_attention_nvfp4_moe",
      backend_config = "target=rvllm.m2.decode_layer.fused_attention_nvfp4_moe;custom_call_abi=m2_decode_layer_v1;layer=51;batch=8;ctx=2048;kv_dtype=i8;kv_cache_bytes=2080374784;hidden=3072;num_q_heads=48;num_kv_heads=8;head_dim=128;rotary_dim=64;top_k=8;expert_count=256;nvfp4_group=16;weight_arena=flat_i8_offsets;weight_arena_bytes=134412674816;weight_arena_alignment=128;weight_arena_dense_offsets=input_norm,post_attention_norm,q_proj,k_proj,v_proj,o_proj,q_norm,k_norm,router,router_bias;input_norm_offset=111001432320;post_attention_norm_offset=111001438464;q_proj_offset=111001444608;k_proj_offset=111039193344;v_proj_offset=111045484800;o_proj_offset=111051776256;q_norm_offset=111089524992;k_norm_offset=111089525248;router_offset=111089525504;router_bias_offset=111091098368;w1_first_packed_offset=111091098880;w1_first_scale_offset=111093458176;w1_first_global_scale_offset=111093753088;w1_first_input_scale_offset=111093753216;w2_first_packed_offset=111093753344;w3_first_packed_offset=111096407808;w3_last_packed_offset=113127072768;input_scales_missing=0;expert_directory=packed_i64_offsets;expert_directory_cols=13;expert_directory_first=[0,111091098880,111093458176,111093753088,111093753216,111093753344,111096112640,111096407552,111096407680,111096407808,111098767104,111099062016,111099062144];expert_directory_last=[255,113121763840,113124123136,113124418048,113124418176,113124418304,113126777600,113127072512,113127072640,113127072768,113129432064,113129726976,113129727104];dispatch=fused_attention_topk_nvfp4_moe;lowering=rust_xla_custom_call",
      called_computations = [],
      has_side_effect = false,
      api_version = 2 : i32
    } : (tensor<8x3072xbf16>, tensor<8xi32>, tensor<2080374784xi8>, tensor<134412674816xi8>) -> (tensor<8x3072xbf16>, tensor<2080374784xi8>)
    %h_l52, %kv_l52 = "stablehlo.custom_call"(%h_l51, %positions, %kv_l51, %weight_arena) {
      call_target_name = "rvllm.m2.decode_layer.fused_attention_nvfp4_moe",
      backend_config = "target=rvllm.m2.decode_layer.fused_attention_nvfp4_moe;custom_call_abi=m2_decode_layer_v1;layer=52;batch=8;ctx=2048;kv_dtype=i8;kv_cache_bytes=2080374784;hidden=3072;num_q_heads=48;num_kv_heads=8;head_dim=128;rotary_dim=64;top_k=8;expert_count=256;nvfp4_group=16;weight_arena=flat_i8_offsets;weight_arena_bytes=134412674816;weight_arena_alignment=128;weight_arena_dense_offsets=input_norm,post_attention_norm,q_proj,k_proj,v_proj,o_proj,q_norm,k_norm,router,router_bias;input_norm_offset=113129727232;post_attention_norm_offset=113129733376;q_proj_offset=113129739520;k_proj_offset=113167488256;v_proj_offset=113173779712;o_proj_offset=113180071168;q_norm_offset=113217819904;k_norm_offset=113217820160;router_offset=113217820416;router_bias_offset=113219393280;w1_first_packed_offset=113219393792;w1_first_scale_offset=113221753088;w1_first_global_scale_offset=113222048000;w1_first_input_scale_offset=113222048128;w2_first_packed_offset=113222048256;w3_first_packed_offset=113224702720;w3_last_packed_offset=115255367680;input_scales_missing=0;expert_directory=packed_i64_offsets;expert_directory_cols=13;expert_directory_first=[0,113219393792,113221753088,113222048000,113222048128,113222048256,113224407552,113224702464,113224702592,113224702720,113227062016,113227356928,113227357056];expert_directory_last=[255,115250058752,115252418048,115252712960,115252713088,115252713216,115255072512,115255367424,115255367552,115255367680,115257726976,115258021888,115258022016];dispatch=fused_attention_topk_nvfp4_moe;lowering=rust_xla_custom_call",
      called_computations = [],
      has_side_effect = false,
      api_version = 2 : i32
    } : (tensor<8x3072xbf16>, tensor<8xi32>, tensor<2080374784xi8>, tensor<134412674816xi8>) -> (tensor<8x3072xbf16>, tensor<2080374784xi8>)
    %h_l53, %kv_l53 = "stablehlo.custom_call"(%h_l52, %positions, %kv_l52, %weight_arena) {
      call_target_name = "rvllm.m2.decode_layer.fused_attention_nvfp4_moe",
      backend_config = "target=rvllm.m2.decode_layer.fused_attention_nvfp4_moe;custom_call_abi=m2_decode_layer_v1;layer=53;batch=8;ctx=2048;kv_dtype=i8;kv_cache_bytes=2080374784;hidden=3072;num_q_heads=48;num_kv_heads=8;head_dim=128;rotary_dim=64;top_k=8;expert_count=256;nvfp4_group=16;weight_arena=flat_i8_offsets;weight_arena_bytes=134412674816;weight_arena_alignment=128;weight_arena_dense_offsets=input_norm,post_attention_norm,q_proj,k_proj,v_proj,o_proj,q_norm,k_norm,router,router_bias;input_norm_offset=115258022144;post_attention_norm_offset=115258028288;q_proj_offset=115258034432;k_proj_offset=115295783168;v_proj_offset=115302074624;o_proj_offset=115308366080;q_norm_offset=115346114816;k_norm_offset=115346115072;router_offset=115346115328;router_bias_offset=115347688192;w1_first_packed_offset=115347688704;w1_first_scale_offset=115350048000;w1_first_global_scale_offset=115350342912;w1_first_input_scale_offset=115350343040;w2_first_packed_offset=115350343168;w3_first_packed_offset=115352997632;w3_last_packed_offset=117383662592;input_scales_missing=0;expert_directory=packed_i64_offsets;expert_directory_cols=13;expert_directory_first=[0,115347688704,115350048000,115350342912,115350343040,115350343168,115352702464,115352997376,115352997504,115352997632,115355356928,115355651840,115355651968];expert_directory_last=[255,117378353664,117380712960,117381007872,117381008000,117381008128,117383367424,117383662336,117383662464,117383662592,117386021888,117386316800,117386316928];dispatch=fused_attention_topk_nvfp4_moe;lowering=rust_xla_custom_call",
      called_computations = [],
      has_side_effect = false,
      api_version = 2 : i32
    } : (tensor<8x3072xbf16>, tensor<8xi32>, tensor<2080374784xi8>, tensor<134412674816xi8>) -> (tensor<8x3072xbf16>, tensor<2080374784xi8>)
    %h_l54, %kv_l54 = "stablehlo.custom_call"(%h_l53, %positions, %kv_l53, %weight_arena) {
      call_target_name = "rvllm.m2.decode_layer.fused_attention_nvfp4_moe",
      backend_config = "target=rvllm.m2.decode_layer.fused_attention_nvfp4_moe;custom_call_abi=m2_decode_layer_v1;layer=54;batch=8;ctx=2048;kv_dtype=i8;kv_cache_bytes=2080374784;hidden=3072;num_q_heads=48;num_kv_heads=8;head_dim=128;rotary_dim=64;top_k=8;expert_count=256;nvfp4_group=16;weight_arena=flat_i8_offsets;weight_arena_bytes=134412674816;weight_arena_alignment=128;weight_arena_dense_offsets=input_norm,post_attention_norm,q_proj,k_proj,v_proj,o_proj,q_norm,k_norm,router,router_bias;input_norm_offset=117386317056;post_attention_norm_offset=117386323200;q_proj_offset=117386329344;k_proj_offset=117424078080;v_proj_offset=117430369536;o_proj_offset=117436660992;q_norm_offset=117474409728;k_norm_offset=117474409984;router_offset=117474410240;router_bias_offset=117475983104;w1_first_packed_offset=117475983616;w1_first_scale_offset=117478342912;w1_first_global_scale_offset=117478637824;w1_first_input_scale_offset=117478637952;w2_first_packed_offset=117478638080;w3_first_packed_offset=117481292544;w3_last_packed_offset=119511957504;input_scales_missing=0;expert_directory=packed_i64_offsets;expert_directory_cols=13;expert_directory_first=[0,117475983616,117478342912,117478637824,117478637952,117478638080,117480997376,117481292288,117481292416,117481292544,117483651840,117483946752,117483946880];expert_directory_last=[255,119506648576,119509007872,119509302784,119509302912,119509303040,119511662336,119511957248,119511957376,119511957504,119514316800,119514611712,119514611840];dispatch=fused_attention_topk_nvfp4_moe;lowering=rust_xla_custom_call",
      called_computations = [],
      has_side_effect = false,
      api_version = 2 : i32
    } : (tensor<8x3072xbf16>, tensor<8xi32>, tensor<2080374784xi8>, tensor<134412674816xi8>) -> (tensor<8x3072xbf16>, tensor<2080374784xi8>)
    %h_l55, %kv_l55 = "stablehlo.custom_call"(%h_l54, %positions, %kv_l54, %weight_arena) {
      call_target_name = "rvllm.m2.decode_layer.fused_attention_nvfp4_moe",
      backend_config = "target=rvllm.m2.decode_layer.fused_attention_nvfp4_moe;custom_call_abi=m2_decode_layer_v1;layer=55;batch=8;ctx=2048;kv_dtype=i8;kv_cache_bytes=2080374784;hidden=3072;num_q_heads=48;num_kv_heads=8;head_dim=128;rotary_dim=64;top_k=8;expert_count=256;nvfp4_group=16;weight_arena=flat_i8_offsets;weight_arena_bytes=134412674816;weight_arena_alignment=128;weight_arena_dense_offsets=input_norm,post_attention_norm,q_proj,k_proj,v_proj,o_proj,q_norm,k_norm,router,router_bias;input_norm_offset=119514611968;post_attention_norm_offset=119514618112;q_proj_offset=119514624256;k_proj_offset=119552372992;v_proj_offset=119558664448;o_proj_offset=119564955904;q_norm_offset=119602704640;k_norm_offset=119602704896;router_offset=119602705152;router_bias_offset=119604278016;w1_first_packed_offset=119604278528;w1_first_scale_offset=119606637824;w1_first_global_scale_offset=119606932736;w1_first_input_scale_offset=119606932864;w2_first_packed_offset=119606932992;w3_first_packed_offset=119609587456;w3_last_packed_offset=121640252416;input_scales_missing=0;expert_directory=packed_i64_offsets;expert_directory_cols=13;expert_directory_first=[0,119604278528,119606637824,119606932736,119606932864,119606932992,119609292288,119609587200,119609587328,119609587456,119611946752,119612241664,119612241792];expert_directory_last=[255,121634943488,121637302784,121637597696,121637597824,121637597952,121639957248,121640252160,121640252288,121640252416,121642611712,121642906624,121642906752];dispatch=fused_attention_topk_nvfp4_moe;lowering=rust_xla_custom_call",
      called_computations = [],
      has_side_effect = false,
      api_version = 2 : i32
    } : (tensor<8x3072xbf16>, tensor<8xi32>, tensor<2080374784xi8>, tensor<134412674816xi8>) -> (tensor<8x3072xbf16>, tensor<2080374784xi8>)
    %h_l56, %kv_l56 = "stablehlo.custom_call"(%h_l55, %positions, %kv_l55, %weight_arena) {
      call_target_name = "rvllm.m2.decode_layer.fused_attention_nvfp4_moe",
      backend_config = "target=rvllm.m2.decode_layer.fused_attention_nvfp4_moe;custom_call_abi=m2_decode_layer_v1;layer=56;batch=8;ctx=2048;kv_dtype=i8;kv_cache_bytes=2080374784;hidden=3072;num_q_heads=48;num_kv_heads=8;head_dim=128;rotary_dim=64;top_k=8;expert_count=256;nvfp4_group=16;weight_arena=flat_i8_offsets;weight_arena_bytes=134412674816;weight_arena_alignment=128;weight_arena_dense_offsets=input_norm,post_attention_norm,q_proj,k_proj,v_proj,o_proj,q_norm,k_norm,router,router_bias;input_norm_offset=121642906880;post_attention_norm_offset=121642913024;q_proj_offset=121642919168;k_proj_offset=121680667904;v_proj_offset=121686959360;o_proj_offset=121693250816;q_norm_offset=121730999552;k_norm_offset=121730999808;router_offset=121731000064;router_bias_offset=121732572928;w1_first_packed_offset=121732573440;w1_first_scale_offset=121734932736;w1_first_global_scale_offset=121735227648;w1_first_input_scale_offset=121735227776;w2_first_packed_offset=121735227904;w3_first_packed_offset=121737882368;w3_last_packed_offset=123768547328;input_scales_missing=0;expert_directory=packed_i64_offsets;expert_directory_cols=13;expert_directory_first=[0,121732573440,121734932736,121735227648,121735227776,121735227904,121737587200,121737882112,121737882240,121737882368,121740241664,121740536576,121740536704];expert_directory_last=[255,123763238400,123765597696,123765892608,123765892736,123765892864,123768252160,123768547072,123768547200,123768547328,123770906624,123771201536,123771201664];dispatch=fused_attention_topk_nvfp4_moe;lowering=rust_xla_custom_call",
      called_computations = [],
      has_side_effect = false,
      api_version = 2 : i32
    } : (tensor<8x3072xbf16>, tensor<8xi32>, tensor<2080374784xi8>, tensor<134412674816xi8>) -> (tensor<8x3072xbf16>, tensor<2080374784xi8>)
    %h_l57, %kv_l57 = "stablehlo.custom_call"(%h_l56, %positions, %kv_l56, %weight_arena) {
      call_target_name = "rvllm.m2.decode_layer.fused_attention_nvfp4_moe",
      backend_config = "target=rvllm.m2.decode_layer.fused_attention_nvfp4_moe;custom_call_abi=m2_decode_layer_v1;layer=57;batch=8;ctx=2048;kv_dtype=i8;kv_cache_bytes=2080374784;hidden=3072;num_q_heads=48;num_kv_heads=8;head_dim=128;rotary_dim=64;top_k=8;expert_count=256;nvfp4_group=16;weight_arena=flat_i8_offsets;weight_arena_bytes=134412674816;weight_arena_alignment=128;weight_arena_dense_offsets=input_norm,post_attention_norm,q_proj,k_proj,v_proj,o_proj,q_norm,k_norm,router,router_bias;input_norm_offset=123771201792;post_attention_norm_offset=123771207936;q_proj_offset=123771214080;k_proj_offset=123808962816;v_proj_offset=123815254272;o_proj_offset=123821545728;q_norm_offset=123859294464;k_norm_offset=123859294720;router_offset=123859294976;router_bias_offset=123860867840;w1_first_packed_offset=123860868352;w1_first_scale_offset=123863227648;w1_first_global_scale_offset=123863522560;w1_first_input_scale_offset=123863522688;w2_first_packed_offset=123863522816;w3_first_packed_offset=123866177280;w3_last_packed_offset=125896842240;input_scales_missing=0;expert_directory=packed_i64_offsets;expert_directory_cols=13;expert_directory_first=[0,123860868352,123863227648,123863522560,123863522688,123863522816,123865882112,123866177024,123866177152,123866177280,123868536576,123868831488,123868831616];expert_directory_last=[255,125891533312,125893892608,125894187520,125894187648,125894187776,125896547072,125896841984,125896842112,125896842240,125899201536,125899496448,125899496576];dispatch=fused_attention_topk_nvfp4_moe;lowering=rust_xla_custom_call",
      called_computations = [],
      has_side_effect = false,
      api_version = 2 : i32
    } : (tensor<8x3072xbf16>, tensor<8xi32>, tensor<2080374784xi8>, tensor<134412674816xi8>) -> (tensor<8x3072xbf16>, tensor<2080374784xi8>)
    %h_l58, %kv_l58 = "stablehlo.custom_call"(%h_l57, %positions, %kv_l57, %weight_arena) {
      call_target_name = "rvllm.m2.decode_layer.fused_attention_nvfp4_moe",
      backend_config = "target=rvllm.m2.decode_layer.fused_attention_nvfp4_moe;custom_call_abi=m2_decode_layer_v1;layer=58;batch=8;ctx=2048;kv_dtype=i8;kv_cache_bytes=2080374784;hidden=3072;num_q_heads=48;num_kv_heads=8;head_dim=128;rotary_dim=64;top_k=8;expert_count=256;nvfp4_group=16;weight_arena=flat_i8_offsets;weight_arena_bytes=134412674816;weight_arena_alignment=128;weight_arena_dense_offsets=input_norm,post_attention_norm,q_proj,k_proj,v_proj,o_proj,q_norm,k_norm,router,router_bias;input_norm_offset=125899496704;post_attention_norm_offset=125899502848;q_proj_offset=125899508992;k_proj_offset=125937257728;v_proj_offset=125943549184;o_proj_offset=125949840640;q_norm_offset=125987589376;k_norm_offset=125987589632;router_offset=125987589888;router_bias_offset=125989162752;w1_first_packed_offset=125989163264;w1_first_scale_offset=125991522560;w1_first_global_scale_offset=125991817472;w1_first_input_scale_offset=125991817600;w2_first_packed_offset=125991817728;w3_first_packed_offset=125994472192;w3_last_packed_offset=128025137152;input_scales_missing=0;expert_directory=packed_i64_offsets;expert_directory_cols=13;expert_directory_first=[0,125989163264,125991522560,125991817472,125991817600,125991817728,125994177024,125994471936,125994472064,125994472192,125996831488,125997126400,125997126528];expert_directory_last=[255,128019828224,128022187520,128022482432,128022482560,128022482688,128024841984,128025136896,128025137024,128025137152,128027496448,128027791360,128027791488];dispatch=fused_attention_topk_nvfp4_moe;lowering=rust_xla_custom_call",
      called_computations = [],
      has_side_effect = false,
      api_version = 2 : i32
    } : (tensor<8x3072xbf16>, tensor<8xi32>, tensor<2080374784xi8>, tensor<134412674816xi8>) -> (tensor<8x3072xbf16>, tensor<2080374784xi8>)
    %h_l59, %kv_l59 = "stablehlo.custom_call"(%h_l58, %positions, %kv_l58, %weight_arena) {
      call_target_name = "rvllm.m2.decode_layer.fused_attention_nvfp4_moe",
      backend_config = "target=rvllm.m2.decode_layer.fused_attention_nvfp4_moe;custom_call_abi=m2_decode_layer_v1;layer=59;batch=8;ctx=2048;kv_dtype=i8;kv_cache_bytes=2080374784;hidden=3072;num_q_heads=48;num_kv_heads=8;head_dim=128;rotary_dim=64;top_k=8;expert_count=256;nvfp4_group=16;weight_arena=flat_i8_offsets;weight_arena_bytes=134412674816;weight_arena_alignment=128;weight_arena_dense_offsets=input_norm,post_attention_norm,q_proj,k_proj,v_proj,o_proj,q_norm,k_norm,router,router_bias;input_norm_offset=128027791616;post_attention_norm_offset=128027797760;q_proj_offset=128027803904;k_proj_offset=128065552640;v_proj_offset=128071844096;o_proj_offset=128078135552;q_norm_offset=128115884288;k_norm_offset=128115884544;router_offset=128115884800;router_bias_offset=128117457664;w1_first_packed_offset=128117458176;w1_first_scale_offset=128119817472;w1_first_global_scale_offset=128120112384;w1_first_input_scale_offset=128120112512;w2_first_packed_offset=128120112640;w3_first_packed_offset=128122767104;w3_last_packed_offset=130153432064;input_scales_missing=0;expert_directory=packed_i64_offsets;expert_directory_cols=13;expert_directory_first=[0,128117458176,128119817472,128120112384,128120112512,128120112640,128122471936,128122766848,128122766976,128122767104,128125126400,128125421312,128125421440];expert_directory_last=[255,130148123136,130150482432,130150777344,130150777472,130150777600,130153136896,130153431808,130153431936,130153432064,130155791360,130156086272,130156086400];dispatch=fused_attention_topk_nvfp4_moe;lowering=rust_xla_custom_call",
      called_computations = [],
      has_side_effect = false,
      api_version = 2 : i32
    } : (tensor<8x3072xbf16>, tensor<8xi32>, tensor<2080374784xi8>, tensor<134412674816xi8>) -> (tensor<8x3072xbf16>, tensor<2080374784xi8>)
    %h_l60, %kv_l60 = "stablehlo.custom_call"(%h_l59, %positions, %kv_l59, %weight_arena) {
      call_target_name = "rvllm.m2.decode_layer.fused_attention_nvfp4_moe",
      backend_config = "target=rvllm.m2.decode_layer.fused_attention_nvfp4_moe;custom_call_abi=m2_decode_layer_v1;layer=60;batch=8;ctx=2048;kv_dtype=i8;kv_cache_bytes=2080374784;hidden=3072;num_q_heads=48;num_kv_heads=8;head_dim=128;rotary_dim=64;top_k=8;expert_count=256;nvfp4_group=16;weight_arena=flat_i8_offsets;weight_arena_bytes=134412674816;weight_arena_alignment=128;weight_arena_dense_offsets=input_norm,post_attention_norm,q_proj,k_proj,v_proj,o_proj,q_norm,k_norm,router,router_bias;input_norm_offset=130156086528;post_attention_norm_offset=130156092672;q_proj_offset=130156098816;k_proj_offset=130193847552;v_proj_offset=130200139008;o_proj_offset=130206430464;q_norm_offset=130244179200;k_norm_offset=130244179456;router_offset=130244179712;router_bias_offset=130245752576;w1_first_packed_offset=130245753088;w1_first_scale_offset=130248112384;w1_first_global_scale_offset=130248407296;w1_first_input_scale_offset=130248407424;w2_first_packed_offset=130248407552;w3_first_packed_offset=130251062016;w3_last_packed_offset=132281726976;input_scales_missing=0;expert_directory=packed_i64_offsets;expert_directory_cols=13;expert_directory_first=[0,130245753088,130248112384,130248407296,130248407424,130248407552,130250766848,130251061760,130251061888,130251062016,130253421312,130253716224,130253716352];expert_directory_last=[255,132276418048,132278777344,132279072256,132279072384,132279072512,132281431808,132281726720,132281726848,132281726976,132284086272,132284381184,132284381312];dispatch=fused_attention_topk_nvfp4_moe;lowering=rust_xla_custom_call",
      called_computations = [],
      has_side_effect = false,
      api_version = 2 : i32
    } : (tensor<8x3072xbf16>, tensor<8xi32>, tensor<2080374784xi8>, tensor<134412674816xi8>) -> (tensor<8x3072xbf16>, tensor<2080374784xi8>)
    %h_l61, %kv_l61 = "stablehlo.custom_call"(%h_l60, %positions, %kv_l60, %weight_arena) {
      call_target_name = "rvllm.m2.decode_layer.fused_attention_nvfp4_moe",
      backend_config = "target=rvllm.m2.decode_layer.fused_attention_nvfp4_moe;custom_call_abi=m2_decode_layer_v1;layer=61;batch=8;ctx=2048;kv_dtype=i8;kv_cache_bytes=2080374784;hidden=3072;num_q_heads=48;num_kv_heads=8;head_dim=128;rotary_dim=64;top_k=8;expert_count=256;nvfp4_group=16;weight_arena=flat_i8_offsets;weight_arena_bytes=134412674816;weight_arena_alignment=128;weight_arena_dense_offsets=input_norm,post_attention_norm,q_proj,k_proj,v_proj,o_proj,q_norm,k_norm,router,router_bias;input_norm_offset=132284381440;post_attention_norm_offset=132284387584;q_proj_offset=132284393728;k_proj_offset=132322142464;v_proj_offset=132328433920;o_proj_offset=132334725376;q_norm_offset=132372474112;k_norm_offset=132372474368;router_offset=132372474624;router_bias_offset=132374047488;w1_first_packed_offset=132374048000;w1_first_scale_offset=132376407296;w1_first_global_scale_offset=132376702208;w1_first_input_scale_offset=132376702336;w2_first_packed_offset=132376702464;w3_first_packed_offset=132379356928;w3_last_packed_offset=134410020352;input_scales_missing=12;expert_directory=packed_i64_offsets;expert_directory_cols=13;expert_directory_first=[0,132374048000,132376407296,132376702208,132376702336,132376702464,132379061760,132379356672,132379356800,132379356928,132381716224,132382011136,132382011264];expert_directory_last=[255,134404711424,134407070720,134407365632,134407365760,134407365888,134409725184,134410020096,134410020224,134410020352,134412379648,134412674560,134412674688];dispatch=fused_attention_topk_nvfp4_moe;lowering=rust_xla_custom_call",
      called_computations = [],
      has_side_effect = false,
      api_version = 2 : i32
    } : (tensor<8x3072xbf16>, tensor<8xi32>, tensor<2080374784xi8>, tensor<134412674816xi8>) -> (tensor<8x3072xbf16>, tensor<2080374784xi8>)
    %logits, %next_token = "stablehlo.custom_call"(%h_l61, %weight_arena) {
      call_target_name = "rvllm.m2.final_logits",
      backend_config = "target=rvllm.m2.final_logits;norm_offset=1229193216;lm_head_offset=1229199360;vocab=200064",
      called_computations = [],
      has_side_effect = false,
      api_version = 2 : i32
    } : (tensor<8x3072xbf16>, tensor<134412674816xi8>) -> (tensor<8x200064xbf16>, tensor<8xi32>)
    return %logits, %next_token, %kv_l61 : tensor<8x200064xbf16>, tensor<8xi32>, tensor<2080374784xi8>

  }
}
