module attributes {rvllm.kind = "m2_decode_graph"} {
  func.func @rvllm_m2_decode(
      %token_ids: memref<8xi32>,
      %positions: memref<8xi32>,
      %kv_cache: memref<2080374784xi8>,
      %weight_arena: memref<134412674816xi8>)
      -> (memref<8x200064xbf16>, memref<8xi32>, memref<2080374784xi8>)
      attributes {
        rvllm.signature = "token_ids,positions,kv_cache,weight_arena -> logits,next_token,kv_cache",
        rvllm.phase = "decode",
        rvllm.batch = 8 : i64,
        rvllm.ctx = 2048 : i64,
        rvllm.layers = 62 : i64,
        rvllm.hidden = 3072 : i64,
        rvllm.vocab = 200064 : i64,
        rvllm.kv_cache_bytes = 2080374784 : i64,
        rvllm.weight_arena_bytes = 134412674816 : i64,
        rvllm.weight_entries = 191069 : i64,
        rvllm.weight_alignment = 128 : i64,
        rvllm.weight_input_scales_missing = 18 : i64,
        rvllm.weight_metadata = "compile_time_offsets_from_M2WeightArenaPlan",
        rvllm.lowering = "rust_mlir_custom_call",
        rvllm.lowering_plan = "embed -> 62 layer scan -> flat-arena dense loads -> flat-arena NVFP4 expert custom calls -> final norm -> lm_head -> argmax"
      } {
    %h0 = memref.alloc() : memref<8x3072xbf16>
    %h1 = memref.alloc() : memref<8x3072xbf16>
    %logits = memref.alloc() : memref<8x200064xbf16>
    %next_token = memref.alloc() : memref<8xi32>
    "rvllm.m2.embed"(%token_ids, %weight_arena, %h0) {
      rvllm.embed_offset = 0 : i64,
      rvllm.embed_nbytes = 1229193216 : i64
    } : (memref<8xi32>, memref<134412674816xi8>, memref<8x3072xbf16>) -> ()
    "rvllm.m2.decode_layer"(%h0, %positions, %kv_cache, %weight_arena, %h1) {
      rvllm.layer = 0 : i64,
      rvllm.hidden = 3072 : i64,
      rvllm.top_k = 8 : i64,
      rvllm.expert_count = 256 : i64,
      rvllm.input_norm_offset = 2458392576 : i64,
      rvllm.post_attention_norm_offset = 2458398720 : i64,
      rvllm.q_proj_offset = 2458404864 : i64,
      rvllm.k_proj_offset = 2496153600 : i64,
      rvllm.v_proj_offset = 2502445056 : i64,
      rvllm.o_proj_offset = 2508736512 : i64,
      rvllm.q_norm_offset = 2546485248 : i64,
      rvllm.k_norm_offset = 2546485504 : i64,
      rvllm.router_offset = 2546485760 : i64,
      rvllm.router_bias_offset = 2548058624 : i64,
      rvllm.w1_first_packed_offset = 2548059136 : i64,
      rvllm.w1_first_scale_offset = 2550418432 : i64,
      rvllm.w1_first_global_scale_offset = 2550713344 : i64,
      rvllm.w1_first_input_scale_offset = 2550713472 : i64,
      rvllm.w2_first_packed_offset = 2550713600 : i64,
      rvllm.w3_first_packed_offset = 2553368064 : i64,
      rvllm.w3_last_packed_offset = 4584032256 : i64,
      rvllm.input_scales_missing = 6 : i64,
      rvllm.expert_directory = "M2DecodeGraphPlan.layers[0].experts"
    } : (memref<8x3072xbf16>, memref<8xi32>, memref<2080374784xi8>, memref<134412674816xi8>, memref<8x3072xbf16>) -> ()
    "rvllm.m2.decode_layer"(%h1, %positions, %kv_cache, %weight_arena, %h0) {
      rvllm.layer = 1 : i64,
      rvllm.hidden = 3072 : i64,
      rvllm.top_k = 8 : i64,
      rvllm.expert_count = 256 : i64,
      rvllm.input_norm_offset = 4586686720 : i64,
      rvllm.post_attention_norm_offset = 4586692864 : i64,
      rvllm.q_proj_offset = 4586699008 : i64,
      rvllm.k_proj_offset = 4624447744 : i64,
      rvllm.v_proj_offset = 4630739200 : i64,
      rvllm.o_proj_offset = 4637030656 : i64,
      rvllm.q_norm_offset = 4674779392 : i64,
      rvllm.k_norm_offset = 4674779648 : i64,
      rvllm.router_offset = 4674779904 : i64,
      rvllm.router_bias_offset = 4676352768 : i64,
      rvllm.w1_first_packed_offset = 4676353280 : i64,
      rvllm.w1_first_scale_offset = 4678712576 : i64,
      rvllm.w1_first_global_scale_offset = 4679007488 : i64,
      rvllm.w1_first_input_scale_offset = 4679007616 : i64,
      rvllm.w2_first_packed_offset = 4679007744 : i64,
      rvllm.w3_first_packed_offset = 4681662208 : i64,
      rvllm.w3_last_packed_offset = 6712327168 : i64,
      rvllm.input_scales_missing = 0 : i64,
      rvllm.expert_directory = "M2DecodeGraphPlan.layers[1].experts"
    } : (memref<8x3072xbf16>, memref<8xi32>, memref<2080374784xi8>, memref<134412674816xi8>, memref<8x3072xbf16>) -> ()
    "rvllm.m2.decode_layer"(%h0, %positions, %kv_cache, %weight_arena, %h1) {
      rvllm.layer = 2 : i64,
      rvllm.hidden = 3072 : i64,
      rvllm.top_k = 8 : i64,
      rvllm.expert_count = 256 : i64,
      rvllm.input_norm_offset = 6714981632 : i64,
      rvllm.post_attention_norm_offset = 6714987776 : i64,
      rvllm.q_proj_offset = 6714993920 : i64,
      rvllm.k_proj_offset = 6752742656 : i64,
      rvllm.v_proj_offset = 6759034112 : i64,
      rvllm.o_proj_offset = 6765325568 : i64,
      rvllm.q_norm_offset = 6803074304 : i64,
      rvllm.k_norm_offset = 6803074560 : i64,
      rvllm.router_offset = 6803074816 : i64,
      rvllm.router_bias_offset = 6804647680 : i64,
      rvllm.w1_first_packed_offset = 6804648192 : i64,
      rvllm.w1_first_scale_offset = 6807007488 : i64,
      rvllm.w1_first_global_scale_offset = 6807302400 : i64,
      rvllm.w1_first_input_scale_offset = 6807302528 : i64,
      rvllm.w2_first_packed_offset = 6807302656 : i64,
      rvllm.w3_first_packed_offset = 6809957120 : i64,
      rvllm.w3_last_packed_offset = 8840622080 : i64,
      rvllm.input_scales_missing = 0 : i64,
      rvllm.expert_directory = "M2DecodeGraphPlan.layers[2].experts"
    } : (memref<8x3072xbf16>, memref<8xi32>, memref<2080374784xi8>, memref<134412674816xi8>, memref<8x3072xbf16>) -> ()
    "rvllm.m2.decode_layer"(%h1, %positions, %kv_cache, %weight_arena, %h0) {
      rvllm.layer = 3 : i64,
      rvllm.hidden = 3072 : i64,
      rvllm.top_k = 8 : i64,
      rvllm.expert_count = 256 : i64,
      rvllm.input_norm_offset = 8843276544 : i64,
      rvllm.post_attention_norm_offset = 8843282688 : i64,
      rvllm.q_proj_offset = 8843288832 : i64,
      rvllm.k_proj_offset = 8881037568 : i64,
      rvllm.v_proj_offset = 8887329024 : i64,
      rvllm.o_proj_offset = 8893620480 : i64,
      rvllm.q_norm_offset = 8931369216 : i64,
      rvllm.k_norm_offset = 8931369472 : i64,
      rvllm.router_offset = 8931369728 : i64,
      rvllm.router_bias_offset = 8932942592 : i64,
      rvllm.w1_first_packed_offset = 8932943104 : i64,
      rvllm.w1_first_scale_offset = 8935302400 : i64,
      rvllm.w1_first_global_scale_offset = 8935597312 : i64,
      rvllm.w1_first_input_scale_offset = 8935597440 : i64,
      rvllm.w2_first_packed_offset = 8935597568 : i64,
      rvllm.w3_first_packed_offset = 8938252032 : i64,
      rvllm.w3_last_packed_offset = 10968916992 : i64,
      rvllm.input_scales_missing = 0 : i64,
      rvllm.expert_directory = "M2DecodeGraphPlan.layers[3].experts"
    } : (memref<8x3072xbf16>, memref<8xi32>, memref<2080374784xi8>, memref<134412674816xi8>, memref<8x3072xbf16>) -> ()
    "rvllm.m2.decode_layer"(%h0, %positions, %kv_cache, %weight_arena, %h1) {
      rvllm.layer = 4 : i64,
      rvllm.hidden = 3072 : i64,
      rvllm.top_k = 8 : i64,
      rvllm.expert_count = 256 : i64,
      rvllm.input_norm_offset = 10971571456 : i64,
      rvllm.post_attention_norm_offset = 10971577600 : i64,
      rvllm.q_proj_offset = 10971583744 : i64,
      rvllm.k_proj_offset = 11009332480 : i64,
      rvllm.v_proj_offset = 11015623936 : i64,
      rvllm.o_proj_offset = 11021915392 : i64,
      rvllm.q_norm_offset = 11059664128 : i64,
      rvllm.k_norm_offset = 11059664384 : i64,
      rvllm.router_offset = 11059664640 : i64,
      rvllm.router_bias_offset = 11061237504 : i64,
      rvllm.w1_first_packed_offset = 11061238016 : i64,
      rvllm.w1_first_scale_offset = 11063597312 : i64,
      rvllm.w1_first_global_scale_offset = 11063892224 : i64,
      rvllm.w1_first_input_scale_offset = 11063892352 : i64,
      rvllm.w2_first_packed_offset = 11063892480 : i64,
      rvllm.w3_first_packed_offset = 11066546944 : i64,
      rvllm.w3_last_packed_offset = 13097211904 : i64,
      rvllm.input_scales_missing = 0 : i64,
      rvllm.expert_directory = "M2DecodeGraphPlan.layers[4].experts"
    } : (memref<8x3072xbf16>, memref<8xi32>, memref<2080374784xi8>, memref<134412674816xi8>, memref<8x3072xbf16>) -> ()
    "rvllm.m2.decode_layer"(%h1, %positions, %kv_cache, %weight_arena, %h0) {
      rvllm.layer = 5 : i64,
      rvllm.hidden = 3072 : i64,
      rvllm.top_k = 8 : i64,
      rvllm.expert_count = 256 : i64,
      rvllm.input_norm_offset = 13099866368 : i64,
      rvllm.post_attention_norm_offset = 13099872512 : i64,
      rvllm.q_proj_offset = 13099878656 : i64,
      rvllm.k_proj_offset = 13137627392 : i64,
      rvllm.v_proj_offset = 13143918848 : i64,
      rvllm.o_proj_offset = 13150210304 : i64,
      rvllm.q_norm_offset = 13187959040 : i64,
      rvllm.k_norm_offset = 13187959296 : i64,
      rvllm.router_offset = 13187959552 : i64,
      rvllm.router_bias_offset = 13189532416 : i64,
      rvllm.w1_first_packed_offset = 13189532928 : i64,
      rvllm.w1_first_scale_offset = 13191892224 : i64,
      rvllm.w1_first_global_scale_offset = 13192187136 : i64,
      rvllm.w1_first_input_scale_offset = 13192187264 : i64,
      rvllm.w2_first_packed_offset = 13192187392 : i64,
      rvllm.w3_first_packed_offset = 13194841856 : i64,
      rvllm.w3_last_packed_offset = 15225506816 : i64,
      rvllm.input_scales_missing = 0 : i64,
      rvllm.expert_directory = "M2DecodeGraphPlan.layers[5].experts"
    } : (memref<8x3072xbf16>, memref<8xi32>, memref<2080374784xi8>, memref<134412674816xi8>, memref<8x3072xbf16>) -> ()
    "rvllm.m2.decode_layer"(%h0, %positions, %kv_cache, %weight_arena, %h1) {
      rvllm.layer = 6 : i64,
      rvllm.hidden = 3072 : i64,
      rvllm.top_k = 8 : i64,
      rvllm.expert_count = 256 : i64,
      rvllm.input_norm_offset = 15228161280 : i64,
      rvllm.post_attention_norm_offset = 15228167424 : i64,
      rvllm.q_proj_offset = 15228173568 : i64,
      rvllm.k_proj_offset = 15265922304 : i64,
      rvllm.v_proj_offset = 15272213760 : i64,
      rvllm.o_proj_offset = 15278505216 : i64,
      rvllm.q_norm_offset = 15316253952 : i64,
      rvllm.k_norm_offset = 15316254208 : i64,
      rvllm.router_offset = 15316254464 : i64,
      rvllm.router_bias_offset = 15317827328 : i64,
      rvllm.w1_first_packed_offset = 15317827840 : i64,
      rvllm.w1_first_scale_offset = 15320187136 : i64,
      rvllm.w1_first_global_scale_offset = 15320482048 : i64,
      rvllm.w1_first_input_scale_offset = 15320482176 : i64,
      rvllm.w2_first_packed_offset = 15320482304 : i64,
      rvllm.w3_first_packed_offset = 15323136768 : i64,
      rvllm.w3_last_packed_offset = 17353801728 : i64,
      rvllm.input_scales_missing = 0 : i64,
      rvllm.expert_directory = "M2DecodeGraphPlan.layers[6].experts"
    } : (memref<8x3072xbf16>, memref<8xi32>, memref<2080374784xi8>, memref<134412674816xi8>, memref<8x3072xbf16>) -> ()
    "rvllm.m2.decode_layer"(%h1, %positions, %kv_cache, %weight_arena, %h0) {
      rvllm.layer = 7 : i64,
      rvllm.hidden = 3072 : i64,
      rvllm.top_k = 8 : i64,
      rvllm.expert_count = 256 : i64,
      rvllm.input_norm_offset = 17356456192 : i64,
      rvllm.post_attention_norm_offset = 17356462336 : i64,
      rvllm.q_proj_offset = 17356468480 : i64,
      rvllm.k_proj_offset = 17394217216 : i64,
      rvllm.v_proj_offset = 17400508672 : i64,
      rvllm.o_proj_offset = 17406800128 : i64,
      rvllm.q_norm_offset = 17444548864 : i64,
      rvllm.k_norm_offset = 17444549120 : i64,
      rvllm.router_offset = 17444549376 : i64,
      rvllm.router_bias_offset = 17446122240 : i64,
      rvllm.w1_first_packed_offset = 17446122752 : i64,
      rvllm.w1_first_scale_offset = 17448482048 : i64,
      rvllm.w1_first_global_scale_offset = 17448776960 : i64,
      rvllm.w1_first_input_scale_offset = 17448777088 : i64,
      rvllm.w2_first_packed_offset = 17448777216 : i64,
      rvllm.w3_first_packed_offset = 17451431680 : i64,
      rvllm.w3_last_packed_offset = 19482096640 : i64,
      rvllm.input_scales_missing = 0 : i64,
      rvllm.expert_directory = "M2DecodeGraphPlan.layers[7].experts"
    } : (memref<8x3072xbf16>, memref<8xi32>, memref<2080374784xi8>, memref<134412674816xi8>, memref<8x3072xbf16>) -> ()
    "rvllm.m2.decode_layer"(%h0, %positions, %kv_cache, %weight_arena, %h1) {
      rvllm.layer = 8 : i64,
      rvllm.hidden = 3072 : i64,
      rvllm.top_k = 8 : i64,
      rvllm.expert_count = 256 : i64,
      rvllm.input_norm_offset = 19484751104 : i64,
      rvllm.post_attention_norm_offset = 19484757248 : i64,
      rvllm.q_proj_offset = 19484763392 : i64,
      rvllm.k_proj_offset = 19522512128 : i64,
      rvllm.v_proj_offset = 19528803584 : i64,
      rvllm.o_proj_offset = 19535095040 : i64,
      rvllm.q_norm_offset = 19572843776 : i64,
      rvllm.k_norm_offset = 19572844032 : i64,
      rvllm.router_offset = 19572844288 : i64,
      rvllm.router_bias_offset = 19574417152 : i64,
      rvllm.w1_first_packed_offset = 19574417664 : i64,
      rvllm.w1_first_scale_offset = 19576776960 : i64,
      rvllm.w1_first_global_scale_offset = 19577071872 : i64,
      rvllm.w1_first_input_scale_offset = 19577072000 : i64,
      rvllm.w2_first_packed_offset = 19577072128 : i64,
      rvllm.w3_first_packed_offset = 19579726592 : i64,
      rvllm.w3_last_packed_offset = 21610391552 : i64,
      rvllm.input_scales_missing = 0 : i64,
      rvllm.expert_directory = "M2DecodeGraphPlan.layers[8].experts"
    } : (memref<8x3072xbf16>, memref<8xi32>, memref<2080374784xi8>, memref<134412674816xi8>, memref<8x3072xbf16>) -> ()
    "rvllm.m2.decode_layer"(%h1, %positions, %kv_cache, %weight_arena, %h0) {
      rvllm.layer = 9 : i64,
      rvllm.hidden = 3072 : i64,
      rvllm.top_k = 8 : i64,
      rvllm.expert_count = 256 : i64,
      rvllm.input_norm_offset = 21613046016 : i64,
      rvllm.post_attention_norm_offset = 21613052160 : i64,
      rvllm.q_proj_offset = 21613058304 : i64,
      rvllm.k_proj_offset = 21650807040 : i64,
      rvllm.v_proj_offset = 21657098496 : i64,
      rvllm.o_proj_offset = 21663389952 : i64,
      rvllm.q_norm_offset = 21701138688 : i64,
      rvllm.k_norm_offset = 21701138944 : i64,
      rvllm.router_offset = 21701139200 : i64,
      rvllm.router_bias_offset = 21702712064 : i64,
      rvllm.w1_first_packed_offset = 21702712576 : i64,
      rvllm.w1_first_scale_offset = 21705071872 : i64,
      rvllm.w1_first_global_scale_offset = 21705366784 : i64,
      rvllm.w1_first_input_scale_offset = 21705366912 : i64,
      rvllm.w2_first_packed_offset = 21705367040 : i64,
      rvllm.w3_first_packed_offset = 21708021504 : i64,
      rvllm.w3_last_packed_offset = 23738686464 : i64,
      rvllm.input_scales_missing = 0 : i64,
      rvllm.expert_directory = "M2DecodeGraphPlan.layers[9].experts"
    } : (memref<8x3072xbf16>, memref<8xi32>, memref<2080374784xi8>, memref<134412674816xi8>, memref<8x3072xbf16>) -> ()
    "rvllm.m2.decode_layer"(%h0, %positions, %kv_cache, %weight_arena, %h1) {
      rvllm.layer = 10 : i64,
      rvllm.hidden = 3072 : i64,
      rvllm.top_k = 8 : i64,
      rvllm.expert_count = 256 : i64,
      rvllm.input_norm_offset = 23741340928 : i64,
      rvllm.post_attention_norm_offset = 23741347072 : i64,
      rvllm.q_proj_offset = 23741353216 : i64,
      rvllm.k_proj_offset = 23779101952 : i64,
      rvllm.v_proj_offset = 23785393408 : i64,
      rvllm.o_proj_offset = 23791684864 : i64,
      rvllm.q_norm_offset = 23829433600 : i64,
      rvllm.k_norm_offset = 23829433856 : i64,
      rvllm.router_offset = 23829434112 : i64,
      rvllm.router_bias_offset = 23831006976 : i64,
      rvllm.w1_first_packed_offset = 23831007488 : i64,
      rvllm.w1_first_scale_offset = 23833366784 : i64,
      rvllm.w1_first_global_scale_offset = 23833661696 : i64,
      rvllm.w1_first_input_scale_offset = 23833661824 : i64,
      rvllm.w2_first_packed_offset = 23833661952 : i64,
      rvllm.w3_first_packed_offset = 23836316416 : i64,
      rvllm.w3_last_packed_offset = 25866981376 : i64,
      rvllm.input_scales_missing = 0 : i64,
      rvllm.expert_directory = "M2DecodeGraphPlan.layers[10].experts"
    } : (memref<8x3072xbf16>, memref<8xi32>, memref<2080374784xi8>, memref<134412674816xi8>, memref<8x3072xbf16>) -> ()
    "rvllm.m2.decode_layer"(%h1, %positions, %kv_cache, %weight_arena, %h0) {
      rvllm.layer = 11 : i64,
      rvllm.hidden = 3072 : i64,
      rvllm.top_k = 8 : i64,
      rvllm.expert_count = 256 : i64,
      rvllm.input_norm_offset = 25869635840 : i64,
      rvllm.post_attention_norm_offset = 25869641984 : i64,
      rvllm.q_proj_offset = 25869648128 : i64,
      rvllm.k_proj_offset = 25907396864 : i64,
      rvllm.v_proj_offset = 25913688320 : i64,
      rvllm.o_proj_offset = 25919979776 : i64,
      rvllm.q_norm_offset = 25957728512 : i64,
      rvllm.k_norm_offset = 25957728768 : i64,
      rvllm.router_offset = 25957729024 : i64,
      rvllm.router_bias_offset = 25959301888 : i64,
      rvllm.w1_first_packed_offset = 25959302400 : i64,
      rvllm.w1_first_scale_offset = 25961661696 : i64,
      rvllm.w1_first_global_scale_offset = 25961956608 : i64,
      rvllm.w1_first_input_scale_offset = 25961956736 : i64,
      rvllm.w2_first_packed_offset = 25961956864 : i64,
      rvllm.w3_first_packed_offset = 25964611328 : i64,
      rvllm.w3_last_packed_offset = 27995276288 : i64,
      rvllm.input_scales_missing = 0 : i64,
      rvllm.expert_directory = "M2DecodeGraphPlan.layers[11].experts"
    } : (memref<8x3072xbf16>, memref<8xi32>, memref<2080374784xi8>, memref<134412674816xi8>, memref<8x3072xbf16>) -> ()
    "rvllm.m2.decode_layer"(%h0, %positions, %kv_cache, %weight_arena, %h1) {
      rvllm.layer = 12 : i64,
      rvllm.hidden = 3072 : i64,
      rvllm.top_k = 8 : i64,
      rvllm.expert_count = 256 : i64,
      rvllm.input_norm_offset = 27997930752 : i64,
      rvllm.post_attention_norm_offset = 27997936896 : i64,
      rvllm.q_proj_offset = 27997943040 : i64,
      rvllm.k_proj_offset = 28035691776 : i64,
      rvllm.v_proj_offset = 28041983232 : i64,
      rvllm.o_proj_offset = 28048274688 : i64,
      rvllm.q_norm_offset = 28086023424 : i64,
      rvllm.k_norm_offset = 28086023680 : i64,
      rvllm.router_offset = 28086023936 : i64,
      rvllm.router_bias_offset = 28087596800 : i64,
      rvllm.w1_first_packed_offset = 28087597312 : i64,
      rvllm.w1_first_scale_offset = 28089956608 : i64,
      rvllm.w1_first_global_scale_offset = 28090251520 : i64,
      rvllm.w1_first_input_scale_offset = 28090251648 : i64,
      rvllm.w2_first_packed_offset = 28090251776 : i64,
      rvllm.w3_first_packed_offset = 28092906240 : i64,
      rvllm.w3_last_packed_offset = 30123571200 : i64,
      rvllm.input_scales_missing = 0 : i64,
      rvllm.expert_directory = "M2DecodeGraphPlan.layers[12].experts"
    } : (memref<8x3072xbf16>, memref<8xi32>, memref<2080374784xi8>, memref<134412674816xi8>, memref<8x3072xbf16>) -> ()
    "rvllm.m2.decode_layer"(%h1, %positions, %kv_cache, %weight_arena, %h0) {
      rvllm.layer = 13 : i64,
      rvllm.hidden = 3072 : i64,
      rvllm.top_k = 8 : i64,
      rvllm.expert_count = 256 : i64,
      rvllm.input_norm_offset = 30126225664 : i64,
      rvllm.post_attention_norm_offset = 30126231808 : i64,
      rvllm.q_proj_offset = 30126237952 : i64,
      rvllm.k_proj_offset = 30163986688 : i64,
      rvllm.v_proj_offset = 30170278144 : i64,
      rvllm.o_proj_offset = 30176569600 : i64,
      rvllm.q_norm_offset = 30214318336 : i64,
      rvllm.k_norm_offset = 30214318592 : i64,
      rvllm.router_offset = 30214318848 : i64,
      rvllm.router_bias_offset = 30215891712 : i64,
      rvllm.w1_first_packed_offset = 30215892224 : i64,
      rvllm.w1_first_scale_offset = 30218251520 : i64,
      rvllm.w1_first_global_scale_offset = 30218546432 : i64,
      rvllm.w1_first_input_scale_offset = 30218546560 : i64,
      rvllm.w2_first_packed_offset = 30218546688 : i64,
      rvllm.w3_first_packed_offset = 30221201152 : i64,
      rvllm.w3_last_packed_offset = 32251866112 : i64,
      rvllm.input_scales_missing = 0 : i64,
      rvllm.expert_directory = "M2DecodeGraphPlan.layers[13].experts"
    } : (memref<8x3072xbf16>, memref<8xi32>, memref<2080374784xi8>, memref<134412674816xi8>, memref<8x3072xbf16>) -> ()
    "rvllm.m2.decode_layer"(%h0, %positions, %kv_cache, %weight_arena, %h1) {
      rvllm.layer = 14 : i64,
      rvllm.hidden = 3072 : i64,
      rvllm.top_k = 8 : i64,
      rvllm.expert_count = 256 : i64,
      rvllm.input_norm_offset = 32254520576 : i64,
      rvllm.post_attention_norm_offset = 32254526720 : i64,
      rvllm.q_proj_offset = 32254532864 : i64,
      rvllm.k_proj_offset = 32292281600 : i64,
      rvllm.v_proj_offset = 32298573056 : i64,
      rvllm.o_proj_offset = 32304864512 : i64,
      rvllm.q_norm_offset = 32342613248 : i64,
      rvllm.k_norm_offset = 32342613504 : i64,
      rvllm.router_offset = 32342613760 : i64,
      rvllm.router_bias_offset = 32344186624 : i64,
      rvllm.w1_first_packed_offset = 32344187136 : i64,
      rvllm.w1_first_scale_offset = 32346546432 : i64,
      rvllm.w1_first_global_scale_offset = 32346841344 : i64,
      rvllm.w1_first_input_scale_offset = 32346841472 : i64,
      rvllm.w2_first_packed_offset = 32346841600 : i64,
      rvllm.w3_first_packed_offset = 32349496064 : i64,
      rvllm.w3_last_packed_offset = 34380161024 : i64,
      rvllm.input_scales_missing = 0 : i64,
      rvllm.expert_directory = "M2DecodeGraphPlan.layers[14].experts"
    } : (memref<8x3072xbf16>, memref<8xi32>, memref<2080374784xi8>, memref<134412674816xi8>, memref<8x3072xbf16>) -> ()
    "rvllm.m2.decode_layer"(%h1, %positions, %kv_cache, %weight_arena, %h0) {
      rvllm.layer = 15 : i64,
      rvllm.hidden = 3072 : i64,
      rvllm.top_k = 8 : i64,
      rvllm.expert_count = 256 : i64,
      rvllm.input_norm_offset = 34382815488 : i64,
      rvllm.post_attention_norm_offset = 34382821632 : i64,
      rvllm.q_proj_offset = 34382827776 : i64,
      rvllm.k_proj_offset = 34420576512 : i64,
      rvllm.v_proj_offset = 34426867968 : i64,
      rvllm.o_proj_offset = 34433159424 : i64,
      rvllm.q_norm_offset = 34470908160 : i64,
      rvllm.k_norm_offset = 34470908416 : i64,
      rvllm.router_offset = 34470908672 : i64,
      rvllm.router_bias_offset = 34472481536 : i64,
      rvllm.w1_first_packed_offset = 34472482048 : i64,
      rvllm.w1_first_scale_offset = 34474841344 : i64,
      rvllm.w1_first_global_scale_offset = 34475136256 : i64,
      rvllm.w1_first_input_scale_offset = 34475136384 : i64,
      rvllm.w2_first_packed_offset = 34475136512 : i64,
      rvllm.w3_first_packed_offset = 34477790976 : i64,
      rvllm.w3_last_packed_offset = 36508455936 : i64,
      rvllm.input_scales_missing = 0 : i64,
      rvllm.expert_directory = "M2DecodeGraphPlan.layers[15].experts"
    } : (memref<8x3072xbf16>, memref<8xi32>, memref<2080374784xi8>, memref<134412674816xi8>, memref<8x3072xbf16>) -> ()
    "rvllm.m2.decode_layer"(%h0, %positions, %kv_cache, %weight_arena, %h1) {
      rvllm.layer = 16 : i64,
      rvllm.hidden = 3072 : i64,
      rvllm.top_k = 8 : i64,
      rvllm.expert_count = 256 : i64,
      rvllm.input_norm_offset = 36511110400 : i64,
      rvllm.post_attention_norm_offset = 36511116544 : i64,
      rvllm.q_proj_offset = 36511122688 : i64,
      rvllm.k_proj_offset = 36548871424 : i64,
      rvllm.v_proj_offset = 36555162880 : i64,
      rvllm.o_proj_offset = 36561454336 : i64,
      rvllm.q_norm_offset = 36599203072 : i64,
      rvllm.k_norm_offset = 36599203328 : i64,
      rvllm.router_offset = 36599203584 : i64,
      rvllm.router_bias_offset = 36600776448 : i64,
      rvllm.w1_first_packed_offset = 36600776960 : i64,
      rvllm.w1_first_scale_offset = 36603136256 : i64,
      rvllm.w1_first_global_scale_offset = 36603431168 : i64,
      rvllm.w1_first_input_scale_offset = 36603431296 : i64,
      rvllm.w2_first_packed_offset = 36603431424 : i64,
      rvllm.w3_first_packed_offset = 36606085888 : i64,
      rvllm.w3_last_packed_offset = 38636750848 : i64,
      rvllm.input_scales_missing = 0 : i64,
      rvllm.expert_directory = "M2DecodeGraphPlan.layers[16].experts"
    } : (memref<8x3072xbf16>, memref<8xi32>, memref<2080374784xi8>, memref<134412674816xi8>, memref<8x3072xbf16>) -> ()
    "rvllm.m2.decode_layer"(%h1, %positions, %kv_cache, %weight_arena, %h0) {
      rvllm.layer = 17 : i64,
      rvllm.hidden = 3072 : i64,
      rvllm.top_k = 8 : i64,
      rvllm.expert_count = 256 : i64,
      rvllm.input_norm_offset = 38639405312 : i64,
      rvllm.post_attention_norm_offset = 38639411456 : i64,
      rvllm.q_proj_offset = 38639417600 : i64,
      rvllm.k_proj_offset = 38677166336 : i64,
      rvllm.v_proj_offset = 38683457792 : i64,
      rvllm.o_proj_offset = 38689749248 : i64,
      rvllm.q_norm_offset = 38727497984 : i64,
      rvllm.k_norm_offset = 38727498240 : i64,
      rvllm.router_offset = 38727498496 : i64,
      rvllm.router_bias_offset = 38729071360 : i64,
      rvllm.w1_first_packed_offset = 38729071872 : i64,
      rvllm.w1_first_scale_offset = 38731431168 : i64,
      rvllm.w1_first_global_scale_offset = 38731726080 : i64,
      rvllm.w1_first_input_scale_offset = 38731726208 : i64,
      rvllm.w2_first_packed_offset = 38731726336 : i64,
      rvllm.w3_first_packed_offset = 38734380800 : i64,
      rvllm.w3_last_packed_offset = 40765045760 : i64,
      rvllm.input_scales_missing = 0 : i64,
      rvllm.expert_directory = "M2DecodeGraphPlan.layers[17].experts"
    } : (memref<8x3072xbf16>, memref<8xi32>, memref<2080374784xi8>, memref<134412674816xi8>, memref<8x3072xbf16>) -> ()
    "rvllm.m2.decode_layer"(%h0, %positions, %kv_cache, %weight_arena, %h1) {
      rvllm.layer = 18 : i64,
      rvllm.hidden = 3072 : i64,
      rvllm.top_k = 8 : i64,
      rvllm.expert_count = 256 : i64,
      rvllm.input_norm_offset = 40767700224 : i64,
      rvllm.post_attention_norm_offset = 40767706368 : i64,
      rvllm.q_proj_offset = 40767712512 : i64,
      rvllm.k_proj_offset = 40805461248 : i64,
      rvllm.v_proj_offset = 40811752704 : i64,
      rvllm.o_proj_offset = 40818044160 : i64,
      rvllm.q_norm_offset = 40855792896 : i64,
      rvllm.k_norm_offset = 40855793152 : i64,
      rvllm.router_offset = 40855793408 : i64,
      rvllm.router_bias_offset = 40857366272 : i64,
      rvllm.w1_first_packed_offset = 40857366784 : i64,
      rvllm.w1_first_scale_offset = 40859726080 : i64,
      rvllm.w1_first_global_scale_offset = 40860020992 : i64,
      rvllm.w1_first_input_scale_offset = 40860021120 : i64,
      rvllm.w2_first_packed_offset = 40860021248 : i64,
      rvllm.w3_first_packed_offset = 40862675712 : i64,
      rvllm.w3_last_packed_offset = 42893340672 : i64,
      rvllm.input_scales_missing = 0 : i64,
      rvllm.expert_directory = "M2DecodeGraphPlan.layers[18].experts"
    } : (memref<8x3072xbf16>, memref<8xi32>, memref<2080374784xi8>, memref<134412674816xi8>, memref<8x3072xbf16>) -> ()
    "rvllm.m2.decode_layer"(%h1, %positions, %kv_cache, %weight_arena, %h0) {
      rvllm.layer = 19 : i64,
      rvllm.hidden = 3072 : i64,
      rvllm.top_k = 8 : i64,
      rvllm.expert_count = 256 : i64,
      rvllm.input_norm_offset = 42895995136 : i64,
      rvllm.post_attention_norm_offset = 42896001280 : i64,
      rvllm.q_proj_offset = 42896007424 : i64,
      rvllm.k_proj_offset = 42933756160 : i64,
      rvllm.v_proj_offset = 42940047616 : i64,
      rvllm.o_proj_offset = 42946339072 : i64,
      rvllm.q_norm_offset = 42984087808 : i64,
      rvllm.k_norm_offset = 42984088064 : i64,
      rvllm.router_offset = 42984088320 : i64,
      rvllm.router_bias_offset = 42985661184 : i64,
      rvllm.w1_first_packed_offset = 42985661696 : i64,
      rvllm.w1_first_scale_offset = 42988020992 : i64,
      rvllm.w1_first_global_scale_offset = 42988315904 : i64,
      rvllm.w1_first_input_scale_offset = 42988316032 : i64,
      rvllm.w2_first_packed_offset = 42988316160 : i64,
      rvllm.w3_first_packed_offset = 42990970624 : i64,
      rvllm.w3_last_packed_offset = 45021635584 : i64,
      rvllm.input_scales_missing = 0 : i64,
      rvllm.expert_directory = "M2DecodeGraphPlan.layers[19].experts"
    } : (memref<8x3072xbf16>, memref<8xi32>, memref<2080374784xi8>, memref<134412674816xi8>, memref<8x3072xbf16>) -> ()
    "rvllm.m2.decode_layer"(%h0, %positions, %kv_cache, %weight_arena, %h1) {
      rvllm.layer = 20 : i64,
      rvllm.hidden = 3072 : i64,
      rvllm.top_k = 8 : i64,
      rvllm.expert_count = 256 : i64,
      rvllm.input_norm_offset = 45024290048 : i64,
      rvllm.post_attention_norm_offset = 45024296192 : i64,
      rvllm.q_proj_offset = 45024302336 : i64,
      rvllm.k_proj_offset = 45062051072 : i64,
      rvllm.v_proj_offset = 45068342528 : i64,
      rvllm.o_proj_offset = 45074633984 : i64,
      rvllm.q_norm_offset = 45112382720 : i64,
      rvllm.k_norm_offset = 45112382976 : i64,
      rvllm.router_offset = 45112383232 : i64,
      rvllm.router_bias_offset = 45113956096 : i64,
      rvllm.w1_first_packed_offset = 45113956608 : i64,
      rvllm.w1_first_scale_offset = 45116315904 : i64,
      rvllm.w1_first_global_scale_offset = 45116610816 : i64,
      rvllm.w1_first_input_scale_offset = 45116610944 : i64,
      rvllm.w2_first_packed_offset = 45116611072 : i64,
      rvllm.w3_first_packed_offset = 45119265536 : i64,
      rvllm.w3_last_packed_offset = 47149930496 : i64,
      rvllm.input_scales_missing = 0 : i64,
      rvllm.expert_directory = "M2DecodeGraphPlan.layers[20].experts"
    } : (memref<8x3072xbf16>, memref<8xi32>, memref<2080374784xi8>, memref<134412674816xi8>, memref<8x3072xbf16>) -> ()
    "rvllm.m2.decode_layer"(%h1, %positions, %kv_cache, %weight_arena, %h0) {
      rvllm.layer = 21 : i64,
      rvllm.hidden = 3072 : i64,
      rvllm.top_k = 8 : i64,
      rvllm.expert_count = 256 : i64,
      rvllm.input_norm_offset = 47152584960 : i64,
      rvllm.post_attention_norm_offset = 47152591104 : i64,
      rvllm.q_proj_offset = 47152597248 : i64,
      rvllm.k_proj_offset = 47190345984 : i64,
      rvllm.v_proj_offset = 47196637440 : i64,
      rvllm.o_proj_offset = 47202928896 : i64,
      rvllm.q_norm_offset = 47240677632 : i64,
      rvllm.k_norm_offset = 47240677888 : i64,
      rvllm.router_offset = 47240678144 : i64,
      rvllm.router_bias_offset = 47242251008 : i64,
      rvllm.w1_first_packed_offset = 47242251520 : i64,
      rvllm.w1_first_scale_offset = 47244610816 : i64,
      rvllm.w1_first_global_scale_offset = 47244905728 : i64,
      rvllm.w1_first_input_scale_offset = 47244905856 : i64,
      rvllm.w2_first_packed_offset = 47244905984 : i64,
      rvllm.w3_first_packed_offset = 47247560448 : i64,
      rvllm.w3_last_packed_offset = 49278225408 : i64,
      rvllm.input_scales_missing = 0 : i64,
      rvllm.expert_directory = "M2DecodeGraphPlan.layers[21].experts"
    } : (memref<8x3072xbf16>, memref<8xi32>, memref<2080374784xi8>, memref<134412674816xi8>, memref<8x3072xbf16>) -> ()
    "rvllm.m2.decode_layer"(%h0, %positions, %kv_cache, %weight_arena, %h1) {
      rvllm.layer = 22 : i64,
      rvllm.hidden = 3072 : i64,
      rvllm.top_k = 8 : i64,
      rvllm.expert_count = 256 : i64,
      rvllm.input_norm_offset = 49280879872 : i64,
      rvllm.post_attention_norm_offset = 49280886016 : i64,
      rvllm.q_proj_offset = 49280892160 : i64,
      rvllm.k_proj_offset = 49318640896 : i64,
      rvllm.v_proj_offset = 49324932352 : i64,
      rvllm.o_proj_offset = 49331223808 : i64,
      rvllm.q_norm_offset = 49368972544 : i64,
      rvllm.k_norm_offset = 49368972800 : i64,
      rvllm.router_offset = 49368973056 : i64,
      rvllm.router_bias_offset = 49370545920 : i64,
      rvllm.w1_first_packed_offset = 49370546432 : i64,
      rvllm.w1_first_scale_offset = 49372905728 : i64,
      rvllm.w1_first_global_scale_offset = 49373200640 : i64,
      rvllm.w1_first_input_scale_offset = 49373200768 : i64,
      rvllm.w2_first_packed_offset = 49373200896 : i64,
      rvllm.w3_first_packed_offset = 49375855360 : i64,
      rvllm.w3_last_packed_offset = 51406520320 : i64,
      rvllm.input_scales_missing = 0 : i64,
      rvllm.expert_directory = "M2DecodeGraphPlan.layers[22].experts"
    } : (memref<8x3072xbf16>, memref<8xi32>, memref<2080374784xi8>, memref<134412674816xi8>, memref<8x3072xbf16>) -> ()
    "rvllm.m2.decode_layer"(%h1, %positions, %kv_cache, %weight_arena, %h0) {
      rvllm.layer = 23 : i64,
      rvllm.hidden = 3072 : i64,
      rvllm.top_k = 8 : i64,
      rvllm.expert_count = 256 : i64,
      rvllm.input_norm_offset = 51409174784 : i64,
      rvllm.post_attention_norm_offset = 51409180928 : i64,
      rvllm.q_proj_offset = 51409187072 : i64,
      rvllm.k_proj_offset = 51446935808 : i64,
      rvllm.v_proj_offset = 51453227264 : i64,
      rvllm.o_proj_offset = 51459518720 : i64,
      rvllm.q_norm_offset = 51497267456 : i64,
      rvllm.k_norm_offset = 51497267712 : i64,
      rvllm.router_offset = 51497267968 : i64,
      rvllm.router_bias_offset = 51498840832 : i64,
      rvllm.w1_first_packed_offset = 51498841344 : i64,
      rvllm.w1_first_scale_offset = 51501200640 : i64,
      rvllm.w1_first_global_scale_offset = 51501495552 : i64,
      rvllm.w1_first_input_scale_offset = 51501495680 : i64,
      rvllm.w2_first_packed_offset = 51501495808 : i64,
      rvllm.w3_first_packed_offset = 51504150272 : i64,
      rvllm.w3_last_packed_offset = 53534815232 : i64,
      rvllm.input_scales_missing = 0 : i64,
      rvllm.expert_directory = "M2DecodeGraphPlan.layers[23].experts"
    } : (memref<8x3072xbf16>, memref<8xi32>, memref<2080374784xi8>, memref<134412674816xi8>, memref<8x3072xbf16>) -> ()
    "rvllm.m2.decode_layer"(%h0, %positions, %kv_cache, %weight_arena, %h1) {
      rvllm.layer = 24 : i64,
      rvllm.hidden = 3072 : i64,
      rvllm.top_k = 8 : i64,
      rvllm.expert_count = 256 : i64,
      rvllm.input_norm_offset = 53537469696 : i64,
      rvllm.post_attention_norm_offset = 53537475840 : i64,
      rvllm.q_proj_offset = 53537481984 : i64,
      rvllm.k_proj_offset = 53575230720 : i64,
      rvllm.v_proj_offset = 53581522176 : i64,
      rvllm.o_proj_offset = 53587813632 : i64,
      rvllm.q_norm_offset = 53625562368 : i64,
      rvllm.k_norm_offset = 53625562624 : i64,
      rvllm.router_offset = 53625562880 : i64,
      rvllm.router_bias_offset = 53627135744 : i64,
      rvllm.w1_first_packed_offset = 53627136256 : i64,
      rvllm.w1_first_scale_offset = 53629495552 : i64,
      rvllm.w1_first_global_scale_offset = 53629790464 : i64,
      rvllm.w1_first_input_scale_offset = 53629790592 : i64,
      rvllm.w2_first_packed_offset = 53629790720 : i64,
      rvllm.w3_first_packed_offset = 53632445184 : i64,
      rvllm.w3_last_packed_offset = 55663110144 : i64,
      rvllm.input_scales_missing = 0 : i64,
      rvllm.expert_directory = "M2DecodeGraphPlan.layers[24].experts"
    } : (memref<8x3072xbf16>, memref<8xi32>, memref<2080374784xi8>, memref<134412674816xi8>, memref<8x3072xbf16>) -> ()
    "rvllm.m2.decode_layer"(%h1, %positions, %kv_cache, %weight_arena, %h0) {
      rvllm.layer = 25 : i64,
      rvllm.hidden = 3072 : i64,
      rvllm.top_k = 8 : i64,
      rvllm.expert_count = 256 : i64,
      rvllm.input_norm_offset = 55665764608 : i64,
      rvllm.post_attention_norm_offset = 55665770752 : i64,
      rvllm.q_proj_offset = 55665776896 : i64,
      rvllm.k_proj_offset = 55703525632 : i64,
      rvllm.v_proj_offset = 55709817088 : i64,
      rvllm.o_proj_offset = 55716108544 : i64,
      rvllm.q_norm_offset = 55753857280 : i64,
      rvllm.k_norm_offset = 55753857536 : i64,
      rvllm.router_offset = 55753857792 : i64,
      rvllm.router_bias_offset = 55755430656 : i64,
      rvllm.w1_first_packed_offset = 55755431168 : i64,
      rvllm.w1_first_scale_offset = 55757790464 : i64,
      rvllm.w1_first_global_scale_offset = 55758085376 : i64,
      rvllm.w1_first_input_scale_offset = 55758085504 : i64,
      rvllm.w2_first_packed_offset = 55758085632 : i64,
      rvllm.w3_first_packed_offset = 55760740096 : i64,
      rvllm.w3_last_packed_offset = 57791405056 : i64,
      rvllm.input_scales_missing = 0 : i64,
      rvllm.expert_directory = "M2DecodeGraphPlan.layers[25].experts"
    } : (memref<8x3072xbf16>, memref<8xi32>, memref<2080374784xi8>, memref<134412674816xi8>, memref<8x3072xbf16>) -> ()
    "rvllm.m2.decode_layer"(%h0, %positions, %kv_cache, %weight_arena, %h1) {
      rvllm.layer = 26 : i64,
      rvllm.hidden = 3072 : i64,
      rvllm.top_k = 8 : i64,
      rvllm.expert_count = 256 : i64,
      rvllm.input_norm_offset = 57794059520 : i64,
      rvllm.post_attention_norm_offset = 57794065664 : i64,
      rvllm.q_proj_offset = 57794071808 : i64,
      rvllm.k_proj_offset = 57831820544 : i64,
      rvllm.v_proj_offset = 57838112000 : i64,
      rvllm.o_proj_offset = 57844403456 : i64,
      rvllm.q_norm_offset = 57882152192 : i64,
      rvllm.k_norm_offset = 57882152448 : i64,
      rvllm.router_offset = 57882152704 : i64,
      rvllm.router_bias_offset = 57883725568 : i64,
      rvllm.w1_first_packed_offset = 57883726080 : i64,
      rvllm.w1_first_scale_offset = 57886085376 : i64,
      rvllm.w1_first_global_scale_offset = 57886380288 : i64,
      rvllm.w1_first_input_scale_offset = 57886380416 : i64,
      rvllm.w2_first_packed_offset = 57886380544 : i64,
      rvllm.w3_first_packed_offset = 57889035008 : i64,
      rvllm.w3_last_packed_offset = 59919699968 : i64,
      rvllm.input_scales_missing = 0 : i64,
      rvllm.expert_directory = "M2DecodeGraphPlan.layers[26].experts"
    } : (memref<8x3072xbf16>, memref<8xi32>, memref<2080374784xi8>, memref<134412674816xi8>, memref<8x3072xbf16>) -> ()
    "rvllm.m2.decode_layer"(%h1, %positions, %kv_cache, %weight_arena, %h0) {
      rvllm.layer = 27 : i64,
      rvllm.hidden = 3072 : i64,
      rvllm.top_k = 8 : i64,
      rvllm.expert_count = 256 : i64,
      rvllm.input_norm_offset = 59922354432 : i64,
      rvllm.post_attention_norm_offset = 59922360576 : i64,
      rvllm.q_proj_offset = 59922366720 : i64,
      rvllm.k_proj_offset = 59960115456 : i64,
      rvllm.v_proj_offset = 59966406912 : i64,
      rvllm.o_proj_offset = 59972698368 : i64,
      rvllm.q_norm_offset = 60010447104 : i64,
      rvllm.k_norm_offset = 60010447360 : i64,
      rvllm.router_offset = 60010447616 : i64,
      rvllm.router_bias_offset = 60012020480 : i64,
      rvllm.w1_first_packed_offset = 60012020992 : i64,
      rvllm.w1_first_scale_offset = 60014380288 : i64,
      rvllm.w1_first_global_scale_offset = 60014675200 : i64,
      rvllm.w1_first_input_scale_offset = 60014675328 : i64,
      rvllm.w2_first_packed_offset = 60014675456 : i64,
      rvllm.w3_first_packed_offset = 60017329920 : i64,
      rvllm.w3_last_packed_offset = 62047994880 : i64,
      rvllm.input_scales_missing = 0 : i64,
      rvllm.expert_directory = "M2DecodeGraphPlan.layers[27].experts"
    } : (memref<8x3072xbf16>, memref<8xi32>, memref<2080374784xi8>, memref<134412674816xi8>, memref<8x3072xbf16>) -> ()
    "rvllm.m2.decode_layer"(%h0, %positions, %kv_cache, %weight_arena, %h1) {
      rvllm.layer = 28 : i64,
      rvllm.hidden = 3072 : i64,
      rvllm.top_k = 8 : i64,
      rvllm.expert_count = 256 : i64,
      rvllm.input_norm_offset = 62050649344 : i64,
      rvllm.post_attention_norm_offset = 62050655488 : i64,
      rvllm.q_proj_offset = 62050661632 : i64,
      rvllm.k_proj_offset = 62088410368 : i64,
      rvllm.v_proj_offset = 62094701824 : i64,
      rvllm.o_proj_offset = 62100993280 : i64,
      rvllm.q_norm_offset = 62138742016 : i64,
      rvllm.k_norm_offset = 62138742272 : i64,
      rvllm.router_offset = 62138742528 : i64,
      rvllm.router_bias_offset = 62140315392 : i64,
      rvllm.w1_first_packed_offset = 62140315904 : i64,
      rvllm.w1_first_scale_offset = 62142675200 : i64,
      rvllm.w1_first_global_scale_offset = 62142970112 : i64,
      rvllm.w1_first_input_scale_offset = 62142970240 : i64,
      rvllm.w2_first_packed_offset = 62142970368 : i64,
      rvllm.w3_first_packed_offset = 62145624832 : i64,
      rvllm.w3_last_packed_offset = 64176289792 : i64,
      rvllm.input_scales_missing = 0 : i64,
      rvllm.expert_directory = "M2DecodeGraphPlan.layers[28].experts"
    } : (memref<8x3072xbf16>, memref<8xi32>, memref<2080374784xi8>, memref<134412674816xi8>, memref<8x3072xbf16>) -> ()
    "rvllm.m2.decode_layer"(%h1, %positions, %kv_cache, %weight_arena, %h0) {
      rvllm.layer = 29 : i64,
      rvllm.hidden = 3072 : i64,
      rvllm.top_k = 8 : i64,
      rvllm.expert_count = 256 : i64,
      rvllm.input_norm_offset = 64178944256 : i64,
      rvllm.post_attention_norm_offset = 64178950400 : i64,
      rvllm.q_proj_offset = 64178956544 : i64,
      rvllm.k_proj_offset = 64216705280 : i64,
      rvllm.v_proj_offset = 64222996736 : i64,
      rvllm.o_proj_offset = 64229288192 : i64,
      rvllm.q_norm_offset = 64267036928 : i64,
      rvllm.k_norm_offset = 64267037184 : i64,
      rvllm.router_offset = 64267037440 : i64,
      rvllm.router_bias_offset = 64268610304 : i64,
      rvllm.w1_first_packed_offset = 64268610816 : i64,
      rvllm.w1_first_scale_offset = 64270970112 : i64,
      rvllm.w1_first_global_scale_offset = 64271265024 : i64,
      rvllm.w1_first_input_scale_offset = 64271265152 : i64,
      rvllm.w2_first_packed_offset = 64271265280 : i64,
      rvllm.w3_first_packed_offset = 64273919744 : i64,
      rvllm.w3_last_packed_offset = 66304584704 : i64,
      rvllm.input_scales_missing = 0 : i64,
      rvllm.expert_directory = "M2DecodeGraphPlan.layers[29].experts"
    } : (memref<8x3072xbf16>, memref<8xi32>, memref<2080374784xi8>, memref<134412674816xi8>, memref<8x3072xbf16>) -> ()
    "rvllm.m2.decode_layer"(%h0, %positions, %kv_cache, %weight_arena, %h1) {
      rvllm.layer = 30 : i64,
      rvllm.hidden = 3072 : i64,
      rvllm.top_k = 8 : i64,
      rvllm.expert_count = 256 : i64,
      rvllm.input_norm_offset = 66307239168 : i64,
      rvllm.post_attention_norm_offset = 66307245312 : i64,
      rvllm.q_proj_offset = 66307251456 : i64,
      rvllm.k_proj_offset = 66345000192 : i64,
      rvllm.v_proj_offset = 66351291648 : i64,
      rvllm.o_proj_offset = 66357583104 : i64,
      rvllm.q_norm_offset = 66395331840 : i64,
      rvllm.k_norm_offset = 66395332096 : i64,
      rvllm.router_offset = 66395332352 : i64,
      rvllm.router_bias_offset = 66396905216 : i64,
      rvllm.w1_first_packed_offset = 66396905728 : i64,
      rvllm.w1_first_scale_offset = 66399265024 : i64,
      rvllm.w1_first_global_scale_offset = 66399559936 : i64,
      rvllm.w1_first_input_scale_offset = 66399560064 : i64,
      rvllm.w2_first_packed_offset = 66399560192 : i64,
      rvllm.w3_first_packed_offset = 66402214656 : i64,
      rvllm.w3_last_packed_offset = 68432879616 : i64,
      rvllm.input_scales_missing = 0 : i64,
      rvllm.expert_directory = "M2DecodeGraphPlan.layers[30].experts"
    } : (memref<8x3072xbf16>, memref<8xi32>, memref<2080374784xi8>, memref<134412674816xi8>, memref<8x3072xbf16>) -> ()
    "rvllm.m2.decode_layer"(%h1, %positions, %kv_cache, %weight_arena, %h0) {
      rvllm.layer = 31 : i64,
      rvllm.hidden = 3072 : i64,
      rvllm.top_k = 8 : i64,
      rvllm.expert_count = 256 : i64,
      rvllm.input_norm_offset = 68435534080 : i64,
      rvllm.post_attention_norm_offset = 68435540224 : i64,
      rvllm.q_proj_offset = 68435546368 : i64,
      rvllm.k_proj_offset = 68473295104 : i64,
      rvllm.v_proj_offset = 68479586560 : i64,
      rvllm.o_proj_offset = 68485878016 : i64,
      rvllm.q_norm_offset = 68523626752 : i64,
      rvllm.k_norm_offset = 68523627008 : i64,
      rvllm.router_offset = 68523627264 : i64,
      rvllm.router_bias_offset = 68525200128 : i64,
      rvllm.w1_first_packed_offset = 68525200640 : i64,
      rvllm.w1_first_scale_offset = 68527559936 : i64,
      rvllm.w1_first_global_scale_offset = 68527854848 : i64,
      rvllm.w1_first_input_scale_offset = 68527854976 : i64,
      rvllm.w2_first_packed_offset = 68527855104 : i64,
      rvllm.w3_first_packed_offset = 68530509568 : i64,
      rvllm.w3_last_packed_offset = 70561174528 : i64,
      rvllm.input_scales_missing = 0 : i64,
      rvllm.expert_directory = "M2DecodeGraphPlan.layers[31].experts"
    } : (memref<8x3072xbf16>, memref<8xi32>, memref<2080374784xi8>, memref<134412674816xi8>, memref<8x3072xbf16>) -> ()
    "rvllm.m2.decode_layer"(%h0, %positions, %kv_cache, %weight_arena, %h1) {
      rvllm.layer = 32 : i64,
      rvllm.hidden = 3072 : i64,
      rvllm.top_k = 8 : i64,
      rvllm.expert_count = 256 : i64,
      rvllm.input_norm_offset = 70563828992 : i64,
      rvllm.post_attention_norm_offset = 70563835136 : i64,
      rvllm.q_proj_offset = 70563841280 : i64,
      rvllm.k_proj_offset = 70601590016 : i64,
      rvllm.v_proj_offset = 70607881472 : i64,
      rvllm.o_proj_offset = 70614172928 : i64,
      rvllm.q_norm_offset = 70651921664 : i64,
      rvllm.k_norm_offset = 70651921920 : i64,
      rvllm.router_offset = 70651922176 : i64,
      rvllm.router_bias_offset = 70653495040 : i64,
      rvllm.w1_first_packed_offset = 70653495552 : i64,
      rvllm.w1_first_scale_offset = 70655854848 : i64,
      rvllm.w1_first_global_scale_offset = 70656149760 : i64,
      rvllm.w1_first_input_scale_offset = 70656149888 : i64,
      rvllm.w2_first_packed_offset = 70656150016 : i64,
      rvllm.w3_first_packed_offset = 70658804480 : i64,
      rvllm.w3_last_packed_offset = 72689469440 : i64,
      rvllm.input_scales_missing = 0 : i64,
      rvllm.expert_directory = "M2DecodeGraphPlan.layers[32].experts"
    } : (memref<8x3072xbf16>, memref<8xi32>, memref<2080374784xi8>, memref<134412674816xi8>, memref<8x3072xbf16>) -> ()
    "rvllm.m2.decode_layer"(%h1, %positions, %kv_cache, %weight_arena, %h0) {
      rvllm.layer = 33 : i64,
      rvllm.hidden = 3072 : i64,
      rvllm.top_k = 8 : i64,
      rvllm.expert_count = 256 : i64,
      rvllm.input_norm_offset = 72692123904 : i64,
      rvllm.post_attention_norm_offset = 72692130048 : i64,
      rvllm.q_proj_offset = 72692136192 : i64,
      rvllm.k_proj_offset = 72729884928 : i64,
      rvllm.v_proj_offset = 72736176384 : i64,
      rvllm.o_proj_offset = 72742467840 : i64,
      rvllm.q_norm_offset = 72780216576 : i64,
      rvllm.k_norm_offset = 72780216832 : i64,
      rvllm.router_offset = 72780217088 : i64,
      rvllm.router_bias_offset = 72781789952 : i64,
      rvllm.w1_first_packed_offset = 72781790464 : i64,
      rvllm.w1_first_scale_offset = 72784149760 : i64,
      rvllm.w1_first_global_scale_offset = 72784444672 : i64,
      rvllm.w1_first_input_scale_offset = 72784444800 : i64,
      rvllm.w2_first_packed_offset = 72784444928 : i64,
      rvllm.w3_first_packed_offset = 72787099392 : i64,
      rvllm.w3_last_packed_offset = 74817764352 : i64,
      rvllm.input_scales_missing = 0 : i64,
      rvllm.expert_directory = "M2DecodeGraphPlan.layers[33].experts"
    } : (memref<8x3072xbf16>, memref<8xi32>, memref<2080374784xi8>, memref<134412674816xi8>, memref<8x3072xbf16>) -> ()
    "rvllm.m2.decode_layer"(%h0, %positions, %kv_cache, %weight_arena, %h1) {
      rvllm.layer = 34 : i64,
      rvllm.hidden = 3072 : i64,
      rvllm.top_k = 8 : i64,
      rvllm.expert_count = 256 : i64,
      rvllm.input_norm_offset = 74820418816 : i64,
      rvllm.post_attention_norm_offset = 74820424960 : i64,
      rvllm.q_proj_offset = 74820431104 : i64,
      rvllm.k_proj_offset = 74858179840 : i64,
      rvllm.v_proj_offset = 74864471296 : i64,
      rvllm.o_proj_offset = 74870762752 : i64,
      rvllm.q_norm_offset = 74908511488 : i64,
      rvllm.k_norm_offset = 74908511744 : i64,
      rvllm.router_offset = 74908512000 : i64,
      rvllm.router_bias_offset = 74910084864 : i64,
      rvllm.w1_first_packed_offset = 74910085376 : i64,
      rvllm.w1_first_scale_offset = 74912444672 : i64,
      rvllm.w1_first_global_scale_offset = 74912739584 : i64,
      rvllm.w1_first_input_scale_offset = 74912739712 : i64,
      rvllm.w2_first_packed_offset = 74912739840 : i64,
      rvllm.w3_first_packed_offset = 74915394304 : i64,
      rvllm.w3_last_packed_offset = 76946059264 : i64,
      rvllm.input_scales_missing = 0 : i64,
      rvllm.expert_directory = "M2DecodeGraphPlan.layers[34].experts"
    } : (memref<8x3072xbf16>, memref<8xi32>, memref<2080374784xi8>, memref<134412674816xi8>, memref<8x3072xbf16>) -> ()
    "rvllm.m2.decode_layer"(%h1, %positions, %kv_cache, %weight_arena, %h0) {
      rvllm.layer = 35 : i64,
      rvllm.hidden = 3072 : i64,
      rvllm.top_k = 8 : i64,
      rvllm.expert_count = 256 : i64,
      rvllm.input_norm_offset = 76948713728 : i64,
      rvllm.post_attention_norm_offset = 76948719872 : i64,
      rvllm.q_proj_offset = 76948726016 : i64,
      rvllm.k_proj_offset = 76986474752 : i64,
      rvllm.v_proj_offset = 76992766208 : i64,
      rvllm.o_proj_offset = 76999057664 : i64,
      rvllm.q_norm_offset = 77036806400 : i64,
      rvllm.k_norm_offset = 77036806656 : i64,
      rvllm.router_offset = 77036806912 : i64,
      rvllm.router_bias_offset = 77038379776 : i64,
      rvllm.w1_first_packed_offset = 77038380288 : i64,
      rvllm.w1_first_scale_offset = 77040739584 : i64,
      rvllm.w1_first_global_scale_offset = 77041034496 : i64,
      rvllm.w1_first_input_scale_offset = 77041034624 : i64,
      rvllm.w2_first_packed_offset = 77041034752 : i64,
      rvllm.w3_first_packed_offset = 77043689216 : i64,
      rvllm.w3_last_packed_offset = 79074354176 : i64,
      rvllm.input_scales_missing = 0 : i64,
      rvllm.expert_directory = "M2DecodeGraphPlan.layers[35].experts"
    } : (memref<8x3072xbf16>, memref<8xi32>, memref<2080374784xi8>, memref<134412674816xi8>, memref<8x3072xbf16>) -> ()
    "rvllm.m2.decode_layer"(%h0, %positions, %kv_cache, %weight_arena, %h1) {
      rvllm.layer = 36 : i64,
      rvllm.hidden = 3072 : i64,
      rvllm.top_k = 8 : i64,
      rvllm.expert_count = 256 : i64,
      rvllm.input_norm_offset = 79077008640 : i64,
      rvllm.post_attention_norm_offset = 79077014784 : i64,
      rvllm.q_proj_offset = 79077020928 : i64,
      rvllm.k_proj_offset = 79114769664 : i64,
      rvllm.v_proj_offset = 79121061120 : i64,
      rvllm.o_proj_offset = 79127352576 : i64,
      rvllm.q_norm_offset = 79165101312 : i64,
      rvllm.k_norm_offset = 79165101568 : i64,
      rvllm.router_offset = 79165101824 : i64,
      rvllm.router_bias_offset = 79166674688 : i64,
      rvllm.w1_first_packed_offset = 79166675200 : i64,
      rvllm.w1_first_scale_offset = 79169034496 : i64,
      rvllm.w1_first_global_scale_offset = 79169329408 : i64,
      rvllm.w1_first_input_scale_offset = 79169329536 : i64,
      rvllm.w2_first_packed_offset = 79169329664 : i64,
      rvllm.w3_first_packed_offset = 79171984128 : i64,
      rvllm.w3_last_packed_offset = 81202649088 : i64,
      rvllm.input_scales_missing = 0 : i64,
      rvllm.expert_directory = "M2DecodeGraphPlan.layers[36].experts"
    } : (memref<8x3072xbf16>, memref<8xi32>, memref<2080374784xi8>, memref<134412674816xi8>, memref<8x3072xbf16>) -> ()
    "rvllm.m2.decode_layer"(%h1, %positions, %kv_cache, %weight_arena, %h0) {
      rvllm.layer = 37 : i64,
      rvllm.hidden = 3072 : i64,
      rvllm.top_k = 8 : i64,
      rvllm.expert_count = 256 : i64,
      rvllm.input_norm_offset = 81205303552 : i64,
      rvllm.post_attention_norm_offset = 81205309696 : i64,
      rvllm.q_proj_offset = 81205315840 : i64,
      rvllm.k_proj_offset = 81243064576 : i64,
      rvllm.v_proj_offset = 81249356032 : i64,
      rvllm.o_proj_offset = 81255647488 : i64,
      rvllm.q_norm_offset = 81293396224 : i64,
      rvllm.k_norm_offset = 81293396480 : i64,
      rvllm.router_offset = 81293396736 : i64,
      rvllm.router_bias_offset = 81294969600 : i64,
      rvllm.w1_first_packed_offset = 81294970112 : i64,
      rvllm.w1_first_scale_offset = 81297329408 : i64,
      rvllm.w1_first_global_scale_offset = 81297624320 : i64,
      rvllm.w1_first_input_scale_offset = 81297624448 : i64,
      rvllm.w2_first_packed_offset = 81297624576 : i64,
      rvllm.w3_first_packed_offset = 81300279040 : i64,
      rvllm.w3_last_packed_offset = 83330944000 : i64,
      rvllm.input_scales_missing = 0 : i64,
      rvllm.expert_directory = "M2DecodeGraphPlan.layers[37].experts"
    } : (memref<8x3072xbf16>, memref<8xi32>, memref<2080374784xi8>, memref<134412674816xi8>, memref<8x3072xbf16>) -> ()
    "rvllm.m2.decode_layer"(%h0, %positions, %kv_cache, %weight_arena, %h1) {
      rvllm.layer = 38 : i64,
      rvllm.hidden = 3072 : i64,
      rvllm.top_k = 8 : i64,
      rvllm.expert_count = 256 : i64,
      rvllm.input_norm_offset = 83333598464 : i64,
      rvllm.post_attention_norm_offset = 83333604608 : i64,
      rvllm.q_proj_offset = 83333610752 : i64,
      rvllm.k_proj_offset = 83371359488 : i64,
      rvllm.v_proj_offset = 83377650944 : i64,
      rvllm.o_proj_offset = 83383942400 : i64,
      rvllm.q_norm_offset = 83421691136 : i64,
      rvllm.k_norm_offset = 83421691392 : i64,
      rvllm.router_offset = 83421691648 : i64,
      rvllm.router_bias_offset = 83423264512 : i64,
      rvllm.w1_first_packed_offset = 83423265024 : i64,
      rvllm.w1_first_scale_offset = 83425624320 : i64,
      rvllm.w1_first_global_scale_offset = 83425919232 : i64,
      rvllm.w1_first_input_scale_offset = 83425919360 : i64,
      rvllm.w2_first_packed_offset = 83425919488 : i64,
      rvllm.w3_first_packed_offset = 83428573952 : i64,
      rvllm.w3_last_packed_offset = 85459238912 : i64,
      rvllm.input_scales_missing = 0 : i64,
      rvllm.expert_directory = "M2DecodeGraphPlan.layers[38].experts"
    } : (memref<8x3072xbf16>, memref<8xi32>, memref<2080374784xi8>, memref<134412674816xi8>, memref<8x3072xbf16>) -> ()
    "rvllm.m2.decode_layer"(%h1, %positions, %kv_cache, %weight_arena, %h0) {
      rvllm.layer = 39 : i64,
      rvllm.hidden = 3072 : i64,
      rvllm.top_k = 8 : i64,
      rvllm.expert_count = 256 : i64,
      rvllm.input_norm_offset = 85461893376 : i64,
      rvllm.post_attention_norm_offset = 85461899520 : i64,
      rvllm.q_proj_offset = 85461905664 : i64,
      rvllm.k_proj_offset = 85499654400 : i64,
      rvllm.v_proj_offset = 85505945856 : i64,
      rvllm.o_proj_offset = 85512237312 : i64,
      rvllm.q_norm_offset = 85549986048 : i64,
      rvllm.k_norm_offset = 85549986304 : i64,
      rvllm.router_offset = 85549986560 : i64,
      rvllm.router_bias_offset = 85551559424 : i64,
      rvllm.w1_first_packed_offset = 85551559936 : i64,
      rvllm.w1_first_scale_offset = 85553919232 : i64,
      rvllm.w1_first_global_scale_offset = 85554214144 : i64,
      rvllm.w1_first_input_scale_offset = 85554214272 : i64,
      rvllm.w2_first_packed_offset = 85554214400 : i64,
      rvllm.w3_first_packed_offset = 85556868864 : i64,
      rvllm.w3_last_packed_offset = 87587533824 : i64,
      rvllm.input_scales_missing = 0 : i64,
      rvllm.expert_directory = "M2DecodeGraphPlan.layers[39].experts"
    } : (memref<8x3072xbf16>, memref<8xi32>, memref<2080374784xi8>, memref<134412674816xi8>, memref<8x3072xbf16>) -> ()
    "rvllm.m2.decode_layer"(%h0, %positions, %kv_cache, %weight_arena, %h1) {
      rvllm.layer = 40 : i64,
      rvllm.hidden = 3072 : i64,
      rvllm.top_k = 8 : i64,
      rvllm.expert_count = 256 : i64,
      rvllm.input_norm_offset = 87590188288 : i64,
      rvllm.post_attention_norm_offset = 87590194432 : i64,
      rvllm.q_proj_offset = 87590200576 : i64,
      rvllm.k_proj_offset = 87627949312 : i64,
      rvllm.v_proj_offset = 87634240768 : i64,
      rvllm.o_proj_offset = 87640532224 : i64,
      rvllm.q_norm_offset = 87678280960 : i64,
      rvllm.k_norm_offset = 87678281216 : i64,
      rvllm.router_offset = 87678281472 : i64,
      rvllm.router_bias_offset = 87679854336 : i64,
      rvllm.w1_first_packed_offset = 87679854848 : i64,
      rvllm.w1_first_scale_offset = 87682214144 : i64,
      rvllm.w1_first_global_scale_offset = 87682509056 : i64,
      rvllm.w1_first_input_scale_offset = 87682509184 : i64,
      rvllm.w2_first_packed_offset = 87682509312 : i64,
      rvllm.w3_first_packed_offset = 87685163776 : i64,
      rvllm.w3_last_packed_offset = 89715828736 : i64,
      rvllm.input_scales_missing = 0 : i64,
      rvllm.expert_directory = "M2DecodeGraphPlan.layers[40].experts"
    } : (memref<8x3072xbf16>, memref<8xi32>, memref<2080374784xi8>, memref<134412674816xi8>, memref<8x3072xbf16>) -> ()
    "rvllm.m2.decode_layer"(%h1, %positions, %kv_cache, %weight_arena, %h0) {
      rvllm.layer = 41 : i64,
      rvllm.hidden = 3072 : i64,
      rvllm.top_k = 8 : i64,
      rvllm.expert_count = 256 : i64,
      rvllm.input_norm_offset = 89718483200 : i64,
      rvllm.post_attention_norm_offset = 89718489344 : i64,
      rvllm.q_proj_offset = 89718495488 : i64,
      rvllm.k_proj_offset = 89756244224 : i64,
      rvllm.v_proj_offset = 89762535680 : i64,
      rvllm.o_proj_offset = 89768827136 : i64,
      rvllm.q_norm_offset = 89806575872 : i64,
      rvllm.k_norm_offset = 89806576128 : i64,
      rvllm.router_offset = 89806576384 : i64,
      rvllm.router_bias_offset = 89808149248 : i64,
      rvllm.w1_first_packed_offset = 89808149760 : i64,
      rvllm.w1_first_scale_offset = 89810509056 : i64,
      rvllm.w1_first_global_scale_offset = 89810803968 : i64,
      rvllm.w1_first_input_scale_offset = 89810804096 : i64,
      rvllm.w2_first_packed_offset = 89810804224 : i64,
      rvllm.w3_first_packed_offset = 89813458688 : i64,
      rvllm.w3_last_packed_offset = 91844123648 : i64,
      rvllm.input_scales_missing = 0 : i64,
      rvllm.expert_directory = "M2DecodeGraphPlan.layers[41].experts"
    } : (memref<8x3072xbf16>, memref<8xi32>, memref<2080374784xi8>, memref<134412674816xi8>, memref<8x3072xbf16>) -> ()
    "rvllm.m2.decode_layer"(%h0, %positions, %kv_cache, %weight_arena, %h1) {
      rvllm.layer = 42 : i64,
      rvllm.hidden = 3072 : i64,
      rvllm.top_k = 8 : i64,
      rvllm.expert_count = 256 : i64,
      rvllm.input_norm_offset = 91846778112 : i64,
      rvllm.post_attention_norm_offset = 91846784256 : i64,
      rvllm.q_proj_offset = 91846790400 : i64,
      rvllm.k_proj_offset = 91884539136 : i64,
      rvllm.v_proj_offset = 91890830592 : i64,
      rvllm.o_proj_offset = 91897122048 : i64,
      rvllm.q_norm_offset = 91934870784 : i64,
      rvllm.k_norm_offset = 91934871040 : i64,
      rvllm.router_offset = 91934871296 : i64,
      rvllm.router_bias_offset = 91936444160 : i64,
      rvllm.w1_first_packed_offset = 91936444672 : i64,
      rvllm.w1_first_scale_offset = 91938803968 : i64,
      rvllm.w1_first_global_scale_offset = 91939098880 : i64,
      rvllm.w1_first_input_scale_offset = 91939099008 : i64,
      rvllm.w2_first_packed_offset = 91939099136 : i64,
      rvllm.w3_first_packed_offset = 91941753600 : i64,
      rvllm.w3_last_packed_offset = 93972418560 : i64,
      rvllm.input_scales_missing = 0 : i64,
      rvllm.expert_directory = "M2DecodeGraphPlan.layers[42].experts"
    } : (memref<8x3072xbf16>, memref<8xi32>, memref<2080374784xi8>, memref<134412674816xi8>, memref<8x3072xbf16>) -> ()
    "rvllm.m2.decode_layer"(%h1, %positions, %kv_cache, %weight_arena, %h0) {
      rvllm.layer = 43 : i64,
      rvllm.hidden = 3072 : i64,
      rvllm.top_k = 8 : i64,
      rvllm.expert_count = 256 : i64,
      rvllm.input_norm_offset = 93975073024 : i64,
      rvllm.post_attention_norm_offset = 93975079168 : i64,
      rvllm.q_proj_offset = 93975085312 : i64,
      rvllm.k_proj_offset = 94012834048 : i64,
      rvllm.v_proj_offset = 94019125504 : i64,
      rvllm.o_proj_offset = 94025416960 : i64,
      rvllm.q_norm_offset = 94063165696 : i64,
      rvllm.k_norm_offset = 94063165952 : i64,
      rvllm.router_offset = 94063166208 : i64,
      rvllm.router_bias_offset = 94064739072 : i64,
      rvllm.w1_first_packed_offset = 94064739584 : i64,
      rvllm.w1_first_scale_offset = 94067098880 : i64,
      rvllm.w1_first_global_scale_offset = 94067393792 : i64,
      rvllm.w1_first_input_scale_offset = 94067393920 : i64,
      rvllm.w2_first_packed_offset = 94067394048 : i64,
      rvllm.w3_first_packed_offset = 94070048512 : i64,
      rvllm.w3_last_packed_offset = 96100713472 : i64,
      rvllm.input_scales_missing = 0 : i64,
      rvllm.expert_directory = "M2DecodeGraphPlan.layers[43].experts"
    } : (memref<8x3072xbf16>, memref<8xi32>, memref<2080374784xi8>, memref<134412674816xi8>, memref<8x3072xbf16>) -> ()
    "rvllm.m2.decode_layer"(%h0, %positions, %kv_cache, %weight_arena, %h1) {
      rvllm.layer = 44 : i64,
      rvllm.hidden = 3072 : i64,
      rvllm.top_k = 8 : i64,
      rvllm.expert_count = 256 : i64,
      rvllm.input_norm_offset = 96103367936 : i64,
      rvllm.post_attention_norm_offset = 96103374080 : i64,
      rvllm.q_proj_offset = 96103380224 : i64,
      rvllm.k_proj_offset = 96141128960 : i64,
      rvllm.v_proj_offset = 96147420416 : i64,
      rvllm.o_proj_offset = 96153711872 : i64,
      rvllm.q_norm_offset = 96191460608 : i64,
      rvllm.k_norm_offset = 96191460864 : i64,
      rvllm.router_offset = 96191461120 : i64,
      rvllm.router_bias_offset = 96193033984 : i64,
      rvllm.w1_first_packed_offset = 96193034496 : i64,
      rvllm.w1_first_scale_offset = 96195393792 : i64,
      rvllm.w1_first_global_scale_offset = 96195688704 : i64,
      rvllm.w1_first_input_scale_offset = 96195688832 : i64,
      rvllm.w2_first_packed_offset = 96195688960 : i64,
      rvllm.w3_first_packed_offset = 96198343424 : i64,
      rvllm.w3_last_packed_offset = 98229008384 : i64,
      rvllm.input_scales_missing = 0 : i64,
      rvllm.expert_directory = "M2DecodeGraphPlan.layers[44].experts"
    } : (memref<8x3072xbf16>, memref<8xi32>, memref<2080374784xi8>, memref<134412674816xi8>, memref<8x3072xbf16>) -> ()
    "rvllm.m2.decode_layer"(%h1, %positions, %kv_cache, %weight_arena, %h0) {
      rvllm.layer = 45 : i64,
      rvllm.hidden = 3072 : i64,
      rvllm.top_k = 8 : i64,
      rvllm.expert_count = 256 : i64,
      rvllm.input_norm_offset = 98231662848 : i64,
      rvllm.post_attention_norm_offset = 98231668992 : i64,
      rvllm.q_proj_offset = 98231675136 : i64,
      rvllm.k_proj_offset = 98269423872 : i64,
      rvllm.v_proj_offset = 98275715328 : i64,
      rvllm.o_proj_offset = 98282006784 : i64,
      rvllm.q_norm_offset = 98319755520 : i64,
      rvllm.k_norm_offset = 98319755776 : i64,
      rvllm.router_offset = 98319756032 : i64,
      rvllm.router_bias_offset = 98321328896 : i64,
      rvllm.w1_first_packed_offset = 98321329408 : i64,
      rvllm.w1_first_scale_offset = 98323688704 : i64,
      rvllm.w1_first_global_scale_offset = 98323983616 : i64,
      rvllm.w1_first_input_scale_offset = 98323983744 : i64,
      rvllm.w2_first_packed_offset = 98323983872 : i64,
      rvllm.w3_first_packed_offset = 98326638336 : i64,
      rvllm.w3_last_packed_offset = 100357303296 : i64,
      rvllm.input_scales_missing = 0 : i64,
      rvllm.expert_directory = "M2DecodeGraphPlan.layers[45].experts"
    } : (memref<8x3072xbf16>, memref<8xi32>, memref<2080374784xi8>, memref<134412674816xi8>, memref<8x3072xbf16>) -> ()
    "rvllm.m2.decode_layer"(%h0, %positions, %kv_cache, %weight_arena, %h1) {
      rvllm.layer = 46 : i64,
      rvllm.hidden = 3072 : i64,
      rvllm.top_k = 8 : i64,
      rvllm.expert_count = 256 : i64,
      rvllm.input_norm_offset = 100359957760 : i64,
      rvllm.post_attention_norm_offset = 100359963904 : i64,
      rvllm.q_proj_offset = 100359970048 : i64,
      rvllm.k_proj_offset = 100397718784 : i64,
      rvllm.v_proj_offset = 100404010240 : i64,
      rvllm.o_proj_offset = 100410301696 : i64,
      rvllm.q_norm_offset = 100448050432 : i64,
      rvllm.k_norm_offset = 100448050688 : i64,
      rvllm.router_offset = 100448050944 : i64,
      rvllm.router_bias_offset = 100449623808 : i64,
      rvllm.w1_first_packed_offset = 100449624320 : i64,
      rvllm.w1_first_scale_offset = 100451983616 : i64,
      rvllm.w1_first_global_scale_offset = 100452278528 : i64,
      rvllm.w1_first_input_scale_offset = 100452278656 : i64,
      rvllm.w2_first_packed_offset = 100452278784 : i64,
      rvllm.w3_first_packed_offset = 100454933248 : i64,
      rvllm.w3_last_packed_offset = 102485598208 : i64,
      rvllm.input_scales_missing = 0 : i64,
      rvllm.expert_directory = "M2DecodeGraphPlan.layers[46].experts"
    } : (memref<8x3072xbf16>, memref<8xi32>, memref<2080374784xi8>, memref<134412674816xi8>, memref<8x3072xbf16>) -> ()
    "rvllm.m2.decode_layer"(%h1, %positions, %kv_cache, %weight_arena, %h0) {
      rvllm.layer = 47 : i64,
      rvllm.hidden = 3072 : i64,
      rvllm.top_k = 8 : i64,
      rvllm.expert_count = 256 : i64,
      rvllm.input_norm_offset = 102488252672 : i64,
      rvllm.post_attention_norm_offset = 102488258816 : i64,
      rvllm.q_proj_offset = 102488264960 : i64,
      rvllm.k_proj_offset = 102526013696 : i64,
      rvllm.v_proj_offset = 102532305152 : i64,
      rvllm.o_proj_offset = 102538596608 : i64,
      rvllm.q_norm_offset = 102576345344 : i64,
      rvllm.k_norm_offset = 102576345600 : i64,
      rvllm.router_offset = 102576345856 : i64,
      rvllm.router_bias_offset = 102577918720 : i64,
      rvllm.w1_first_packed_offset = 102577919232 : i64,
      rvllm.w1_first_scale_offset = 102580278528 : i64,
      rvllm.w1_first_global_scale_offset = 102580573440 : i64,
      rvllm.w1_first_input_scale_offset = 102580573568 : i64,
      rvllm.w2_first_packed_offset = 102580573696 : i64,
      rvllm.w3_first_packed_offset = 102583228160 : i64,
      rvllm.w3_last_packed_offset = 104613893120 : i64,
      rvllm.input_scales_missing = 0 : i64,
      rvllm.expert_directory = "M2DecodeGraphPlan.layers[47].experts"
    } : (memref<8x3072xbf16>, memref<8xi32>, memref<2080374784xi8>, memref<134412674816xi8>, memref<8x3072xbf16>) -> ()
    "rvllm.m2.decode_layer"(%h0, %positions, %kv_cache, %weight_arena, %h1) {
      rvllm.layer = 48 : i64,
      rvllm.hidden = 3072 : i64,
      rvllm.top_k = 8 : i64,
      rvllm.expert_count = 256 : i64,
      rvllm.input_norm_offset = 104616547584 : i64,
      rvllm.post_attention_norm_offset = 104616553728 : i64,
      rvllm.q_proj_offset = 104616559872 : i64,
      rvllm.k_proj_offset = 104654308608 : i64,
      rvllm.v_proj_offset = 104660600064 : i64,
      rvllm.o_proj_offset = 104666891520 : i64,
      rvllm.q_norm_offset = 104704640256 : i64,
      rvllm.k_norm_offset = 104704640512 : i64,
      rvllm.router_offset = 104704640768 : i64,
      rvllm.router_bias_offset = 104706213632 : i64,
      rvllm.w1_first_packed_offset = 104706214144 : i64,
      rvllm.w1_first_scale_offset = 104708573440 : i64,
      rvllm.w1_first_global_scale_offset = 104708868352 : i64,
      rvllm.w1_first_input_scale_offset = 104708868480 : i64,
      rvllm.w2_first_packed_offset = 104708868608 : i64,
      rvllm.w3_first_packed_offset = 104711523072 : i64,
      rvllm.w3_last_packed_offset = 106742188032 : i64,
      rvllm.input_scales_missing = 0 : i64,
      rvllm.expert_directory = "M2DecodeGraphPlan.layers[48].experts"
    } : (memref<8x3072xbf16>, memref<8xi32>, memref<2080374784xi8>, memref<134412674816xi8>, memref<8x3072xbf16>) -> ()
    "rvllm.m2.decode_layer"(%h1, %positions, %kv_cache, %weight_arena, %h0) {
      rvllm.layer = 49 : i64,
      rvllm.hidden = 3072 : i64,
      rvllm.top_k = 8 : i64,
      rvllm.expert_count = 256 : i64,
      rvllm.input_norm_offset = 106744842496 : i64,
      rvllm.post_attention_norm_offset = 106744848640 : i64,
      rvllm.q_proj_offset = 106744854784 : i64,
      rvllm.k_proj_offset = 106782603520 : i64,
      rvllm.v_proj_offset = 106788894976 : i64,
      rvllm.o_proj_offset = 106795186432 : i64,
      rvllm.q_norm_offset = 106832935168 : i64,
      rvllm.k_norm_offset = 106832935424 : i64,
      rvllm.router_offset = 106832935680 : i64,
      rvllm.router_bias_offset = 106834508544 : i64,
      rvllm.w1_first_packed_offset = 106834509056 : i64,
      rvllm.w1_first_scale_offset = 106836868352 : i64,
      rvllm.w1_first_global_scale_offset = 106837163264 : i64,
      rvllm.w1_first_input_scale_offset = 106837163392 : i64,
      rvllm.w2_first_packed_offset = 106837163520 : i64,
      rvllm.w3_first_packed_offset = 106839817984 : i64,
      rvllm.w3_last_packed_offset = 108870482944 : i64,
      rvllm.input_scales_missing = 0 : i64,
      rvllm.expert_directory = "M2DecodeGraphPlan.layers[49].experts"
    } : (memref<8x3072xbf16>, memref<8xi32>, memref<2080374784xi8>, memref<134412674816xi8>, memref<8x3072xbf16>) -> ()
    "rvllm.m2.decode_layer"(%h0, %positions, %kv_cache, %weight_arena, %h1) {
      rvllm.layer = 50 : i64,
      rvllm.hidden = 3072 : i64,
      rvllm.top_k = 8 : i64,
      rvllm.expert_count = 256 : i64,
      rvllm.input_norm_offset = 108873137408 : i64,
      rvllm.post_attention_norm_offset = 108873143552 : i64,
      rvllm.q_proj_offset = 108873149696 : i64,
      rvllm.k_proj_offset = 108910898432 : i64,
      rvllm.v_proj_offset = 108917189888 : i64,
      rvllm.o_proj_offset = 108923481344 : i64,
      rvllm.q_norm_offset = 108961230080 : i64,
      rvllm.k_norm_offset = 108961230336 : i64,
      rvllm.router_offset = 108961230592 : i64,
      rvllm.router_bias_offset = 108962803456 : i64,
      rvllm.w1_first_packed_offset = 108962803968 : i64,
      rvllm.w1_first_scale_offset = 108965163264 : i64,
      rvllm.w1_first_global_scale_offset = 108965458176 : i64,
      rvllm.w1_first_input_scale_offset = 108965458304 : i64,
      rvllm.w2_first_packed_offset = 108965458432 : i64,
      rvllm.w3_first_packed_offset = 108968112896 : i64,
      rvllm.w3_last_packed_offset = 110998777856 : i64,
      rvllm.input_scales_missing = 0 : i64,
      rvllm.expert_directory = "M2DecodeGraphPlan.layers[50].experts"
    } : (memref<8x3072xbf16>, memref<8xi32>, memref<2080374784xi8>, memref<134412674816xi8>, memref<8x3072xbf16>) -> ()
    "rvllm.m2.decode_layer"(%h1, %positions, %kv_cache, %weight_arena, %h0) {
      rvllm.layer = 51 : i64,
      rvllm.hidden = 3072 : i64,
      rvllm.top_k = 8 : i64,
      rvllm.expert_count = 256 : i64,
      rvllm.input_norm_offset = 111001432320 : i64,
      rvllm.post_attention_norm_offset = 111001438464 : i64,
      rvllm.q_proj_offset = 111001444608 : i64,
      rvllm.k_proj_offset = 111039193344 : i64,
      rvllm.v_proj_offset = 111045484800 : i64,
      rvllm.o_proj_offset = 111051776256 : i64,
      rvllm.q_norm_offset = 111089524992 : i64,
      rvllm.k_norm_offset = 111089525248 : i64,
      rvllm.router_offset = 111089525504 : i64,
      rvllm.router_bias_offset = 111091098368 : i64,
      rvllm.w1_first_packed_offset = 111091098880 : i64,
      rvllm.w1_first_scale_offset = 111093458176 : i64,
      rvllm.w1_first_global_scale_offset = 111093753088 : i64,
      rvllm.w1_first_input_scale_offset = 111093753216 : i64,
      rvllm.w2_first_packed_offset = 111093753344 : i64,
      rvllm.w3_first_packed_offset = 111096407808 : i64,
      rvllm.w3_last_packed_offset = 113127072768 : i64,
      rvllm.input_scales_missing = 0 : i64,
      rvllm.expert_directory = "M2DecodeGraphPlan.layers[51].experts"
    } : (memref<8x3072xbf16>, memref<8xi32>, memref<2080374784xi8>, memref<134412674816xi8>, memref<8x3072xbf16>) -> ()
    "rvllm.m2.decode_layer"(%h0, %positions, %kv_cache, %weight_arena, %h1) {
      rvllm.layer = 52 : i64,
      rvllm.hidden = 3072 : i64,
      rvllm.top_k = 8 : i64,
      rvllm.expert_count = 256 : i64,
      rvllm.input_norm_offset = 113129727232 : i64,
      rvllm.post_attention_norm_offset = 113129733376 : i64,
      rvllm.q_proj_offset = 113129739520 : i64,
      rvllm.k_proj_offset = 113167488256 : i64,
      rvllm.v_proj_offset = 113173779712 : i64,
      rvllm.o_proj_offset = 113180071168 : i64,
      rvllm.q_norm_offset = 113217819904 : i64,
      rvllm.k_norm_offset = 113217820160 : i64,
      rvllm.router_offset = 113217820416 : i64,
      rvllm.router_bias_offset = 113219393280 : i64,
      rvllm.w1_first_packed_offset = 113219393792 : i64,
      rvllm.w1_first_scale_offset = 113221753088 : i64,
      rvllm.w1_first_global_scale_offset = 113222048000 : i64,
      rvllm.w1_first_input_scale_offset = 113222048128 : i64,
      rvllm.w2_first_packed_offset = 113222048256 : i64,
      rvllm.w3_first_packed_offset = 113224702720 : i64,
      rvllm.w3_last_packed_offset = 115255367680 : i64,
      rvllm.input_scales_missing = 0 : i64,
      rvllm.expert_directory = "M2DecodeGraphPlan.layers[52].experts"
    } : (memref<8x3072xbf16>, memref<8xi32>, memref<2080374784xi8>, memref<134412674816xi8>, memref<8x3072xbf16>) -> ()
    "rvllm.m2.decode_layer"(%h1, %positions, %kv_cache, %weight_arena, %h0) {
      rvllm.layer = 53 : i64,
      rvllm.hidden = 3072 : i64,
      rvllm.top_k = 8 : i64,
      rvllm.expert_count = 256 : i64,
      rvllm.input_norm_offset = 115258022144 : i64,
      rvllm.post_attention_norm_offset = 115258028288 : i64,
      rvllm.q_proj_offset = 115258034432 : i64,
      rvllm.k_proj_offset = 115295783168 : i64,
      rvllm.v_proj_offset = 115302074624 : i64,
      rvllm.o_proj_offset = 115308366080 : i64,
      rvllm.q_norm_offset = 115346114816 : i64,
      rvllm.k_norm_offset = 115346115072 : i64,
      rvllm.router_offset = 115346115328 : i64,
      rvllm.router_bias_offset = 115347688192 : i64,
      rvllm.w1_first_packed_offset = 115347688704 : i64,
      rvllm.w1_first_scale_offset = 115350048000 : i64,
      rvllm.w1_first_global_scale_offset = 115350342912 : i64,
      rvllm.w1_first_input_scale_offset = 115350343040 : i64,
      rvllm.w2_first_packed_offset = 115350343168 : i64,
      rvllm.w3_first_packed_offset = 115352997632 : i64,
      rvllm.w3_last_packed_offset = 117383662592 : i64,
      rvllm.input_scales_missing = 0 : i64,
      rvllm.expert_directory = "M2DecodeGraphPlan.layers[53].experts"
    } : (memref<8x3072xbf16>, memref<8xi32>, memref<2080374784xi8>, memref<134412674816xi8>, memref<8x3072xbf16>) -> ()
    "rvllm.m2.decode_layer"(%h0, %positions, %kv_cache, %weight_arena, %h1) {
      rvllm.layer = 54 : i64,
      rvllm.hidden = 3072 : i64,
      rvllm.top_k = 8 : i64,
      rvllm.expert_count = 256 : i64,
      rvllm.input_norm_offset = 117386317056 : i64,
      rvllm.post_attention_norm_offset = 117386323200 : i64,
      rvllm.q_proj_offset = 117386329344 : i64,
      rvllm.k_proj_offset = 117424078080 : i64,
      rvllm.v_proj_offset = 117430369536 : i64,
      rvllm.o_proj_offset = 117436660992 : i64,
      rvllm.q_norm_offset = 117474409728 : i64,
      rvllm.k_norm_offset = 117474409984 : i64,
      rvllm.router_offset = 117474410240 : i64,
      rvllm.router_bias_offset = 117475983104 : i64,
      rvllm.w1_first_packed_offset = 117475983616 : i64,
      rvllm.w1_first_scale_offset = 117478342912 : i64,
      rvllm.w1_first_global_scale_offset = 117478637824 : i64,
      rvllm.w1_first_input_scale_offset = 117478637952 : i64,
      rvllm.w2_first_packed_offset = 117478638080 : i64,
      rvllm.w3_first_packed_offset = 117481292544 : i64,
      rvllm.w3_last_packed_offset = 119511957504 : i64,
      rvllm.input_scales_missing = 0 : i64,
      rvllm.expert_directory = "M2DecodeGraphPlan.layers[54].experts"
    } : (memref<8x3072xbf16>, memref<8xi32>, memref<2080374784xi8>, memref<134412674816xi8>, memref<8x3072xbf16>) -> ()
    "rvllm.m2.decode_layer"(%h1, %positions, %kv_cache, %weight_arena, %h0) {
      rvllm.layer = 55 : i64,
      rvllm.hidden = 3072 : i64,
      rvllm.top_k = 8 : i64,
      rvllm.expert_count = 256 : i64,
      rvllm.input_norm_offset = 119514611968 : i64,
      rvllm.post_attention_norm_offset = 119514618112 : i64,
      rvllm.q_proj_offset = 119514624256 : i64,
      rvllm.k_proj_offset = 119552372992 : i64,
      rvllm.v_proj_offset = 119558664448 : i64,
      rvllm.o_proj_offset = 119564955904 : i64,
      rvllm.q_norm_offset = 119602704640 : i64,
      rvllm.k_norm_offset = 119602704896 : i64,
      rvllm.router_offset = 119602705152 : i64,
      rvllm.router_bias_offset = 119604278016 : i64,
      rvllm.w1_first_packed_offset = 119604278528 : i64,
      rvllm.w1_first_scale_offset = 119606637824 : i64,
      rvllm.w1_first_global_scale_offset = 119606932736 : i64,
      rvllm.w1_first_input_scale_offset = 119606932864 : i64,
      rvllm.w2_first_packed_offset = 119606932992 : i64,
      rvllm.w3_first_packed_offset = 119609587456 : i64,
      rvllm.w3_last_packed_offset = 121640252416 : i64,
      rvllm.input_scales_missing = 0 : i64,
      rvllm.expert_directory = "M2DecodeGraphPlan.layers[55].experts"
    } : (memref<8x3072xbf16>, memref<8xi32>, memref<2080374784xi8>, memref<134412674816xi8>, memref<8x3072xbf16>) -> ()
    "rvllm.m2.decode_layer"(%h0, %positions, %kv_cache, %weight_arena, %h1) {
      rvllm.layer = 56 : i64,
      rvllm.hidden = 3072 : i64,
      rvllm.top_k = 8 : i64,
      rvllm.expert_count = 256 : i64,
      rvllm.input_norm_offset = 121642906880 : i64,
      rvllm.post_attention_norm_offset = 121642913024 : i64,
      rvllm.q_proj_offset = 121642919168 : i64,
      rvllm.k_proj_offset = 121680667904 : i64,
      rvllm.v_proj_offset = 121686959360 : i64,
      rvllm.o_proj_offset = 121693250816 : i64,
      rvllm.q_norm_offset = 121730999552 : i64,
      rvllm.k_norm_offset = 121730999808 : i64,
      rvllm.router_offset = 121731000064 : i64,
      rvllm.router_bias_offset = 121732572928 : i64,
      rvllm.w1_first_packed_offset = 121732573440 : i64,
      rvllm.w1_first_scale_offset = 121734932736 : i64,
      rvllm.w1_first_global_scale_offset = 121735227648 : i64,
      rvllm.w1_first_input_scale_offset = 121735227776 : i64,
      rvllm.w2_first_packed_offset = 121735227904 : i64,
      rvllm.w3_first_packed_offset = 121737882368 : i64,
      rvllm.w3_last_packed_offset = 123768547328 : i64,
      rvllm.input_scales_missing = 0 : i64,
      rvllm.expert_directory = "M2DecodeGraphPlan.layers[56].experts"
    } : (memref<8x3072xbf16>, memref<8xi32>, memref<2080374784xi8>, memref<134412674816xi8>, memref<8x3072xbf16>) -> ()
    "rvllm.m2.decode_layer"(%h1, %positions, %kv_cache, %weight_arena, %h0) {
      rvllm.layer = 57 : i64,
      rvllm.hidden = 3072 : i64,
      rvllm.top_k = 8 : i64,
      rvllm.expert_count = 256 : i64,
      rvllm.input_norm_offset = 123771201792 : i64,
      rvllm.post_attention_norm_offset = 123771207936 : i64,
      rvllm.q_proj_offset = 123771214080 : i64,
      rvllm.k_proj_offset = 123808962816 : i64,
      rvllm.v_proj_offset = 123815254272 : i64,
      rvllm.o_proj_offset = 123821545728 : i64,
      rvllm.q_norm_offset = 123859294464 : i64,
      rvllm.k_norm_offset = 123859294720 : i64,
      rvllm.router_offset = 123859294976 : i64,
      rvllm.router_bias_offset = 123860867840 : i64,
      rvllm.w1_first_packed_offset = 123860868352 : i64,
      rvllm.w1_first_scale_offset = 123863227648 : i64,
      rvllm.w1_first_global_scale_offset = 123863522560 : i64,
      rvllm.w1_first_input_scale_offset = 123863522688 : i64,
      rvllm.w2_first_packed_offset = 123863522816 : i64,
      rvllm.w3_first_packed_offset = 123866177280 : i64,
      rvllm.w3_last_packed_offset = 125896842240 : i64,
      rvllm.input_scales_missing = 0 : i64,
      rvllm.expert_directory = "M2DecodeGraphPlan.layers[57].experts"
    } : (memref<8x3072xbf16>, memref<8xi32>, memref<2080374784xi8>, memref<134412674816xi8>, memref<8x3072xbf16>) -> ()
    "rvllm.m2.decode_layer"(%h0, %positions, %kv_cache, %weight_arena, %h1) {
      rvllm.layer = 58 : i64,
      rvllm.hidden = 3072 : i64,
      rvllm.top_k = 8 : i64,
      rvllm.expert_count = 256 : i64,
      rvllm.input_norm_offset = 125899496704 : i64,
      rvllm.post_attention_norm_offset = 125899502848 : i64,
      rvllm.q_proj_offset = 125899508992 : i64,
      rvllm.k_proj_offset = 125937257728 : i64,
      rvllm.v_proj_offset = 125943549184 : i64,
      rvllm.o_proj_offset = 125949840640 : i64,
      rvllm.q_norm_offset = 125987589376 : i64,
      rvllm.k_norm_offset = 125987589632 : i64,
      rvllm.router_offset = 125987589888 : i64,
      rvllm.router_bias_offset = 125989162752 : i64,
      rvllm.w1_first_packed_offset = 125989163264 : i64,
      rvllm.w1_first_scale_offset = 125991522560 : i64,
      rvllm.w1_first_global_scale_offset = 125991817472 : i64,
      rvllm.w1_first_input_scale_offset = 125991817600 : i64,
      rvllm.w2_first_packed_offset = 125991817728 : i64,
      rvllm.w3_first_packed_offset = 125994472192 : i64,
      rvllm.w3_last_packed_offset = 128025137152 : i64,
      rvllm.input_scales_missing = 0 : i64,
      rvllm.expert_directory = "M2DecodeGraphPlan.layers[58].experts"
    } : (memref<8x3072xbf16>, memref<8xi32>, memref<2080374784xi8>, memref<134412674816xi8>, memref<8x3072xbf16>) -> ()
    "rvllm.m2.decode_layer"(%h1, %positions, %kv_cache, %weight_arena, %h0) {
      rvllm.layer = 59 : i64,
      rvllm.hidden = 3072 : i64,
      rvllm.top_k = 8 : i64,
      rvllm.expert_count = 256 : i64,
      rvllm.input_norm_offset = 128027791616 : i64,
      rvllm.post_attention_norm_offset = 128027797760 : i64,
      rvllm.q_proj_offset = 128027803904 : i64,
      rvllm.k_proj_offset = 128065552640 : i64,
      rvllm.v_proj_offset = 128071844096 : i64,
      rvllm.o_proj_offset = 128078135552 : i64,
      rvllm.q_norm_offset = 128115884288 : i64,
      rvllm.k_norm_offset = 128115884544 : i64,
      rvllm.router_offset = 128115884800 : i64,
      rvllm.router_bias_offset = 128117457664 : i64,
      rvllm.w1_first_packed_offset = 128117458176 : i64,
      rvllm.w1_first_scale_offset = 128119817472 : i64,
      rvllm.w1_first_global_scale_offset = 128120112384 : i64,
      rvllm.w1_first_input_scale_offset = 128120112512 : i64,
      rvllm.w2_first_packed_offset = 128120112640 : i64,
      rvllm.w3_first_packed_offset = 128122767104 : i64,
      rvllm.w3_last_packed_offset = 130153432064 : i64,
      rvllm.input_scales_missing = 0 : i64,
      rvllm.expert_directory = "M2DecodeGraphPlan.layers[59].experts"
    } : (memref<8x3072xbf16>, memref<8xi32>, memref<2080374784xi8>, memref<134412674816xi8>, memref<8x3072xbf16>) -> ()
    "rvllm.m2.decode_layer"(%h0, %positions, %kv_cache, %weight_arena, %h1) {
      rvllm.layer = 60 : i64,
      rvllm.hidden = 3072 : i64,
      rvllm.top_k = 8 : i64,
      rvllm.expert_count = 256 : i64,
      rvllm.input_norm_offset = 130156086528 : i64,
      rvllm.post_attention_norm_offset = 130156092672 : i64,
      rvllm.q_proj_offset = 130156098816 : i64,
      rvllm.k_proj_offset = 130193847552 : i64,
      rvllm.v_proj_offset = 130200139008 : i64,
      rvllm.o_proj_offset = 130206430464 : i64,
      rvllm.q_norm_offset = 130244179200 : i64,
      rvllm.k_norm_offset = 130244179456 : i64,
      rvllm.router_offset = 130244179712 : i64,
      rvllm.router_bias_offset = 130245752576 : i64,
      rvllm.w1_first_packed_offset = 130245753088 : i64,
      rvllm.w1_first_scale_offset = 130248112384 : i64,
      rvllm.w1_first_global_scale_offset = 130248407296 : i64,
      rvllm.w1_first_input_scale_offset = 130248407424 : i64,
      rvllm.w2_first_packed_offset = 130248407552 : i64,
      rvllm.w3_first_packed_offset = 130251062016 : i64,
      rvllm.w3_last_packed_offset = 132281726976 : i64,
      rvllm.input_scales_missing = 0 : i64,
      rvllm.expert_directory = "M2DecodeGraphPlan.layers[60].experts"
    } : (memref<8x3072xbf16>, memref<8xi32>, memref<2080374784xi8>, memref<134412674816xi8>, memref<8x3072xbf16>) -> ()
    "rvllm.m2.decode_layer"(%h1, %positions, %kv_cache, %weight_arena, %h0) {
      rvllm.layer = 61 : i64,
      rvllm.hidden = 3072 : i64,
      rvllm.top_k = 8 : i64,
      rvllm.expert_count = 256 : i64,
      rvllm.input_norm_offset = 132284381440 : i64,
      rvllm.post_attention_norm_offset = 132284387584 : i64,
      rvllm.q_proj_offset = 132284393728 : i64,
      rvllm.k_proj_offset = 132322142464 : i64,
      rvllm.v_proj_offset = 132328433920 : i64,
      rvllm.o_proj_offset = 132334725376 : i64,
      rvllm.q_norm_offset = 132372474112 : i64,
      rvllm.k_norm_offset = 132372474368 : i64,
      rvllm.router_offset = 132372474624 : i64,
      rvllm.router_bias_offset = 132374047488 : i64,
      rvllm.w1_first_packed_offset = 132374048000 : i64,
      rvllm.w1_first_scale_offset = 132376407296 : i64,
      rvllm.w1_first_global_scale_offset = 132376702208 : i64,
      rvllm.w1_first_input_scale_offset = 132376702336 : i64,
      rvllm.w2_first_packed_offset = 132376702464 : i64,
      rvllm.w3_first_packed_offset = 132379356928 : i64,
      rvllm.w3_last_packed_offset = 134410020352 : i64,
      rvllm.input_scales_missing = 12 : i64,
      rvllm.expert_directory = "M2DecodeGraphPlan.layers[61].experts"
    } : (memref<8x3072xbf16>, memref<8xi32>, memref<2080374784xi8>, memref<134412674816xi8>, memref<8x3072xbf16>) -> ()
    "rvllm.m2.final_logits"(%h0, %weight_arena, %logits, %next_token) {
      rvllm.norm_offset = 1229193216 : i64,
      rvllm.lm_head_offset = 1229199360 : i64,
      rvllm.vocab = 200064 : i64
    } : (memref<8x3072xbf16>, memref<134412674816xi8>, memref<8x200064xbf16>, memref<8xi32>) -> ()
    return %logits, %next_token, %kv_cache : memref<8x200064xbf16>, memref<8xi32>, memref<2080374784xi8>

  }
}
